rl-manager/mnt/autoencoders/AE_10hosts_16_1epoch.pth (torch, 186352 bytes, 8 tensors)

encoder.0.weight f4 [128, 161]
00000000: fac1 3cbd aef7 133d 90c2 9cbd fff6 46bd
00000010: ba1e bcbc 6945 123d e2b0 833c b702 583b
00000020: 4941 683d 7f7e 1dbd 94ea 5cbd 3cd8 2b3d
00000030: 747b 58bc c20f 3abd 50c9 9dbd c36f 8cbd
00000040: 5b11 c33b 1cf6 82bd 2074 78bd fb02 9939
00000050: 77d1 4abd 8463 f3bc 30f5 18bd bb22 0a3d
00000060: 66b3 9bbd ca8a 903c 81d8 c7bc 95b9 e8bc
00000070: f42a 41bd 7559 f83c 2e1d a53c 2911 a53c
00000080: 0b96 8ebd 5ba3 ccbb c158 89bd 9b90 3ebd
00000090: db17 2bbd f432 f13b 950e 15bd e98b 943d
000000a0: 5a7f 87bd fd62 9fbd 5170 9fbb 17a1 d5bc
000000b0: 2f40 813b 0ae4 8bbd ee37 413d c137 3a3d
000000c0: e8d6 8ebd d055 00bd a129 e03c 2731 32bd
000000d0: cef7 e7bb 7477 453b cb94 a5bc b826 9d3d
000000e0: d8e3 333d 3d7c 81bc cbfc 803d 24dc 8f3d
000000f0: 24a0 8cbd 88eb fa3c 2fdf 0cbc 93d8 7bbd
00000100: 5dd4 853c dea1 513d 6cb9 cbbc 0dc0 bdbb
00000110: 1c09 343d d0a1 59bd 8e03 9c3d aead 02bd
00000120: 0cd1 c1bc 0ad3 cbbc 3473 90bc c8cc ee3c
00000130: f946 2cbc 5191 343d 1190 563d 03d5 23bd
00000140: 1175 3c3d 5ebe 2e3d fbba 9d3d fe32 cabc
00000150: 4ad9 133d 91dc fe3c e4a8 773d f608 57bd
00000160: eef5 563d 2922 183d 0e37 573d f30e 8c3d
00000170: 09f5 453d e04f 4b3d 2387 9d3d 1c4c 1cbd
00000180: a2ad 163c a7ed 80bc d7d8 68bd 9747 643d
00000190: 52c3 6e3c 639c f93b 3497 d33c 855e ac3c
000001a0: e3bd 83bd 67fa 24bd 24e5 1d3d df86 6b3d
000001b0: 62b6 953d 51c9 bbbc d55d e5bc 8436 7cbd
000001c0: 0700 18bd 5ee3 4d3c 6eb5 85bd 1fc2 1cbd
000001d0: 7763 983a f241 81bd c287 58bd 8dd3 073d
000001e0: 5449 613c 5027 0ebd 9612 48bd bf93 993d
000001f0: e3c5 723d 2bc2 12ba 93a4 5bbd 572e 94bd
00000200: ef18 03bd 42b3 d43b 4f35 823d 022e 2e3d
00000210: 2630 793d f7a2 5ebc 6d55 5d3d d23c 12bc
00000220: 1623 4dbd 1655 213d 3e47 393c 0256 79bd
00000230: 6777 9a3d f3dc 583d 17b3 07bd 6186 983d
00000240: afb3 8c3d 8a76 99bd 04f0 7ebc 9cdd 153d
00000250: b100 adbc 87e7 02bd 07ef 58bd 61ed 863d
00000260: f653 743d 12cb 9c3d 5e00 45bd d0ca 293b
00000270: 8221 833d a068 40bd c965 c2bb fa7f 053c
00000280: e5b2 86bd 11ac cd3c b405 f0bc abd4 4fbc
00000290: c6ae 01bd a830 8dbd 36ea 743d d5a3 273d
000002a0: 1d28 be3b 7937 a4bd 0bf3 f2bc a327 bc3c
000002b0: affa f33a 09f7 99bd 01ac 7b3c 0b7d 2dbc
000002c0: ac3e c93c 59f7 96bd 3576 c2bc a19c 2e3d
000002d0: 490e 82bd 39fe 9abd 7953 56bc 4b74 5e3c
000002e0: c71c 6fbd 8d7a c53c 52c9 5e3b 39b1 283d
000002f0: bfcc a23c ec30 6e3d 8e39 4a3d f6c5 453d
00000300: e58d c83c c349 74bd d286 4e3d d4ac 443b
00000310: 3746 4a3c cd5f 83bd f216 573c 11ac 9cbd
00000320: d4eb 3fbd f578 a0bc fa08 babc 5eb1 34bd
00000330: 9968 56bd 698b 473d 1858 4cbc 3d92 3cbb
00000340: e902 bcbd e14f 25bc d51a 0bbd 9b01 793c
00000350: b9af e6bc a8f6 7a3d 93f7 39bc 9577 72bd
00000360: 0cb5 92bd 4160 7bbd cfc0 773d 423e 36bd
00000370: 0963 743c 55f0 57bd efde 933d 0bbc 96bd
00000380: c7d1 323c d3c5 c8bc e18b 5c3d 129d 6e3d
00000390: f45d 80bd 0836 57bc faa3 7c3d ab94 76bd
000003a0: c1dc 01bd 56e3 353d 88c7 2ebd 903f 763c
000003b0: 6e37 7abd 001b 743d d9a2 1ebd 36ae 2bbd
000003c0: 3e68 743b e5c5 c3bc 2cde b63c f9ed 363c
000003d0: 6e2d 233d d172 92bd 4fb3 8bbc a729 8d3d
000003e0: 5154 5abd 86ba 97bc 170f 4dbd 3099 4ebc
000003f0: 80df 9f3c b371 6f3d 8fc5 5a3d 68d8 9f3d
-0.046083428 0.036124878 -0.07654297 -0.048575398 -0.02296387 0.035710726 0.016075555 0.0032960603
0.056702886 -0.038450714 -0.05393465 0.041954264 -0.013213027 -0.045425184 -0.07704413 -0.06857254
0.0059529967 -0.06394598 -0.06065762 0.00029184655 -0.049516167 -0.029710539 -0.037343204 0.033724528
-0.07602577 0.017644305 -0.02439523 -0.028408805 -0.047160104 0.030316094 0.020155516 0.020149784
-0.06962212 -0.0062450594 -0.067063816 -0.046524625 -0.041770797 0.0073608104 -0.03639086 0.07253248
-0.06616087 -0.077825524 -0.004865684 -0.02607779 0.003944419 -0.068306044 0.04717248 0.045463327
-0.06974584 -0.031331837 0.0273636 -0.043503907 -0.007079101 0.0030131014 -0.020212552 0.07673401
0.04391846 -0.015806312 0.062982164 0.0702441 -0.06866482 0.030629888 -0.008598133 -0.06148584
0.016336614 0.05117976 -0.02486869 -0.0057907165 0.043954 -0.053132832 0.076178655 -0.031903915
-0.023659252 -0.024880905 -0.017633058 0.029150382 -0.010514968 0.044083897 0.052383486 -0.039998066
0.04601008 0.042662017 0.07701679 -0.024682518 0.036095895 0.031111034 0.0604638 -0.05249878
0.05248063 0.037141953 0.05254274 0.06838789 0.048329387 0.04963672 0.07691791 -0.03815852
0.009196671 -0.015738321 -0.05684742 0.055732336 0.014572935 0.0076175197 0.025828935 0.021041164
-0.064327024 -0.040277865 0.038548604 0.05750167 0.073101774 -0.022923144 -0.027998844 -0.061575428
-0.0371094 0.012566416 -0.065287456 -0.038271066 0.0011626323 -0.06311406 -0.052863844 0.033160735
0.013750393 -0.03470546 -0.04884585 0.074988835 0.05927075 -0.0005598391 -0.053623747 -0.07235401
-0.0320062 0.0064910958 0.06357824 0.042524345 0.060836934 -0.0135886585 0.054036546 -0.0089256335
-0.05008229 0.039387785 0.011308489 -0.06087304 0.075423054 0.05294509 -0.033129778 0.07447506
0.068702094 -0.07493313 -0.015560154 0.036588296 -0.021118494 -0.031959083 -0.05296233 0.06588245
0.059650384 0.0765592 -0.048096053 0.002590824 0.064028755 -0.04697478 -0.005932544 0.008148188
-0.0657709 0.025106462 -0.029299594 -0.012684981 -0.031660818 -0.06894046 0.059793673 0.040927727
0.0058031217 -0.08018393 -0.029656908 0.022968119 0.0018614138 -0.07517821 0.015360833 -0.010588895
0.024566017 -0.073713966 -0.023738006 0.04262984 -0.06350381 -0.075680204 -0.013081425 0.013577531
-0.058377054 0.024106288 0.0033994508 0.041184638 0.019873021 0.058152124 0.049371295 0.048284493
0.024481723 -0.059640657 0.050421543 0.003001024 0.012345842 -0.06414757 0.013128029 -0.076500066
-0.046855763 -0.019588927 -0.022709358 -0.044114463 -0.052345846 0.048716936 -0.012472175 -0.0028773688
-0.091802426 -0.010089845 -0.033961136 0.015198137 -0.028159963 0.061270386 -0.01135053 -0.059196074
-0.07163438 -0.06137109 0.06048661 -0.044492967 0.01491619 -0.052719433 0.072202556 -0.07360085
0.010914273 -0.024508392 0.053844336 0.058255263 -0.0626792 -0.013135441 0.061679818 -0.060200375
-0.031704668 0.044406258 -0.042670757 0.015029803 -0.061088018 0.05959606 -0.038729522 -0.041914187
0.0037293578 -0.023898074 0.022322737 0.011165136 0.039838247 -0.07150806 -0.017053274 0.0689271
-0.053303067 -0.018521558 -0.05006322 -0.012609765 0.019515753 0.05845804 0.053411063 0.07804948

encoder.0.bias f4 [128]
00000000: caa6 19bc 005c 80bd 7b87 e13d 4a67 103d
00000010: fad8 fd3d 55da 0a3d d659 4ebd 7956 9f3d
00000020: 2108 173c 01a6 8b3c 1f36 cfbc 733c 02bc
00000030: 798a a3bc 97b7 4e3b eb9a 183e ae7c 58bd
00000040: fff1 91bd cf5a b33d d3a8 37bd 7a8e 37bc
00000050: 2180 86bd 34b1 f9bb 030f e63d 30ca 3ebd
00000060: e72c 5d3d bf22 38bd 1b8d 073e ef93 113d
00000070: 8e9c 243e 49d2 29bd 861d a73d 7d7e 393a
00000080: 2905 fe3c ea39 1a3d 64ff 813d 6724 863d
00000090: 9fa4 8f3d 7d3f ce3d 9e57 12bb e4b0 17bd
000000a0: 39ba 29bc bfa0 e4bc 2e64 403d 33ee 28bd
000000b0: 262d fe3a 837c 103e e688 b83d c919 4ebd
000000c0: 8c34 ccbb 970d 273c dce7 403d 56b9 9e3d
000000d0: 8a15 1b3c 7b8f fa3c 2754 e938 44c2 d43d
000000e0: 0774 0a3d 01f7 16bc 451e b1bd e5d5 4abd
000000f0: 2098 85bd 419d 98bd 0082 f43d 7ad4 8d3c
00000100: b43d 19bd 2220 713e dbf4 a33d 0ffd d53a
00000110: f247 a33c 714a 8abd 0c1e fe3c 85bb 86bd
00000120: a09e 0b3d eb1a 3bbd 0159 7c3b c3c9 ba3d
00000130: 5bcb f33c 6284 bb3d 17dc 1f3d ee53 1f3e
00000140: ad01 fa3b 196a bd3a 7b72 a2bc 2f2a 12bd
00000150: ed3b 3ebd a0c3 9c3a e237 1f3e 1462 e8bc
00000160: b94e 163e d8c5 9ebd 122d 6d3d c8a2 7d3d
00000170: db64 8e3d 5eb3 853b 75ce f63c bedc bb3d
00000180: 7467 fd3c b53b d63d f116 2a3d 0379 2c3d
00000190: 5ddd 5e3d 7c74 693b 3dd8 093e 503e a43d
000001a0: 804d 523d 505e b03d e85f 6c3b 7c4f 933d
000001b0: 180e 823d a5be d83c 9a8a 873c a4af 963d
000001c0: 95de 69bd df29 f5bc e98b cbbc 736d 52bd
000001d0: 7207 12bd 6c08 ad3d 3ff3 843c 6c91 b23d
000001e0: 96d9 12bd fdc0 ea3d dbc7 3dbc fdc0 a53d
000001f0: 37ec 2bbd 1daa 973d 04a6 1cbd b4d8 a63d
-0.0093781445 -0.062675476 0.11012169 0.035254754 0.123949006 0.033899624 -0.050378643 0.07780165
0.009218247 0.01704693 -0.025294362 -0.0079489825 -0.01996349 0.0031542534 0.14902847 -0.05285328
-0.07126235 0.08757555 -0.044838738 -0.011203403 -0.065674074 -0.007620001 0.11233332 -0.04657954
0.0539979 -0.04495501 0.13237421 0.03554147 0.16075346 -0.04146031 0.08159928 0.0007076038
0.03100832 0.037652887 0.0634754 0.06549912 0.07013821 0.10070703 -0.0022330056 -0.03703393
-0.01035934 -0.027908681 0.04697054 -0.04124279 0.0019392117 0.14109997 0.09010486 -0.05031756
-0.00623185 0.010196111 0.04709612 0.07750194 0.0094655845 0.030585995 0.000111259804 0.10388616
0.03380206 -0.009214164 -0.086483516 -0.049520392 -0.06523156 -0.07451869 0.11938858 0.01731323
-0.03741236 0.23547414 0.08005687 0.0016326028 0.019931767 -0.0675248 0.031020187 -0.06578735
0.034086823 -0.045679968 0.00385052 0.09120514 0.029760053 0.091561094 0.039028253 0.1555936
0.0076295943 0.0014451175 -0.01982998 -0.03568476 -0.04644387 0.0011960156 0.15548661 -0.02836708
0.14678468 -0.077525795 0.05790431 0.06192282 0.069528304 0.00408022 0.030127743 0.091729626
0.03093312 0.10460607 0.041525785 0.042107593 0.054410327 0.0035622409 0.13461395 0.08019698
0.05134344 0.08611739 0.0036067907 0.07192895 0.063503444 0.026458094 0.016545583 0.073577195
-0.057097036 -0.029927192 -0.024846988 -0.05137391 -0.03565163 0.08448872 0.01622927 0.08719143
-0.035852037 0.11462591 -0.011583294 0.0809345 -0.04197332 0.074054934 -0.038244262 0.081468016

encoder.2.weight f4 [16, 128]
00000000: 6fd4 71bd 8622 d73c 64cf ea3e 9abd 64bd
00000010: d943 383f e5be 6c39 f6ff a93f 1158 543d
00000020: 30ae a5bd fe54 b33e 1a29 6b3d 8541 393e
00000030: 20ab a7bc 01c4 a9be 6c5b 103d 5b13 8fbd
00000040: 972c b23d 21a2 a13b b911 a1bd 19c8 2b3e
00000050: fd36 8d3d 1666 fc3c b922 193e aac6 7a3d
00000060: c513 453d 28be 89bd 3757 aa3e 887b 89bb
00000070: ba78 15bf a9ad 803d 75f5 353f b6e3 933d
00000080: 3d16 093d e3de 633d e49d 633e 5d3c 16bf
00000090: 268a 373e 5390 d93f 5390 d93c 0224 b736
000000a0: b8bf 623d 358a 37bd e503 963d e8c3 b03d
000000b0: 4ca0 f9bc c139 3cbd 7d81 0cbe bcdf 0f3d
000000c0: d0f0 9ebd 3f0e 5b3d 825b ed3d 8454 e53d
000000d0: f8da 983e 61e2 813e 2ea1 3abd 4798 d7be
000000e0: 60c9 393e 6cee dc3c 577b b9bd a0eb abbd
000000f0: 6d0e 06bd 8a70 6e3d 6c4c 5fbe 4db0 a93e
00000100: 0f00 9a3d a14a 2a3f 67c5 3fbc 2ed7 84bd
00000110: c7df d9be f57b 2a3e 24f7 1ebd 4115 a4bd
00000120: 5095 04bf df9c 733c e214 a43d 852d c0bd
00000130: cbf1 47be 9522 a83e efeb 4ebe da7c 083f
00000140: 3c49 8a3e 587b d6bd d5d9 2d3c 0373 94bd
00000150: 20eb 84bc 4071 a83e 90ab 12bf 318c 1bbd
00000160: 6bc7 38bf 8328 873d d648 823d 071a 083e
00000170: c002 5fbd 8520 8fbe a6cf f93e ea08 1a3e
00000180: 788c ad3d 204c 383f 1edb 1e3f d678 373c
00000190: 6ec3 523d 4295 0bbf 9c82 0f3e c6d4 84be
000001a0: 0d4d 173e 2c14 f93d d2a8 9b3d 1c0a f8bd
000001b0: c4ca 0b3e 8811 67bc 5e4d 2c3e d139 24be
000001c0: 88bf 123d 1725 01bd 65c5 8fbc 74ce b3bd
000001d0: 8e51 e03b 9cf0 81be af76 b8bd 91ea ef3d
000001e0: e380 91bd 1968 25bc dcb9 39bb 2c7e 24bd
000001f0: 3c91 833d 0327 033e a6e5 243d 8e6f 01bf
00000200: d0b4 d8bc aef6 90bc c075 ebbd ffa5 833c
00000210: 0ec5 69bd f3f0 58bd 0d20 d3bd 0980 9fbd
00000220: 0db1 97bd a771 013d 3a6c 23bc 387e 333c
00000230: ffbe 11bd 19b4 a2bd f6e9 b9bd 9377 3a3d
00000240: fc8c 92bc 3ac1 8cbc 2067 663d 31a0 91bd
00000250: 97ea d13c fac1 61bd 2c9a 3a3c 9764 f3bc
00000260: f01e 55bd 4ac1 91bd 0bcb 6d3d 7dc1 0f3d
00000270: 97db b43c 038b d33c b6d6 f4bd 4b48 69bc
00000280: 0c2b 36bb ccaf d9bc a0b7 6a3d fc21 673d
00000290: ebdf c7bd 3831 ccbd e40c 873d 4257 a93c
000002a0: b6bd c4bb 8d13 aabd 6c75 aebd 6d95 9ebd
000002b0: 7090 a63d fc28 02bd 580d 27bc f90a 22bd
000002c0: 9dd2 a6bd 63c9 dd3c 9074 d3bc ae31 23bd
000002d0: 92bb 3f3d a01a b2bd c009 afbb c797 783d
000002e0: 09d5 dd3c 024b a33d 399a 9bbd 44a1 7cbd
000002f0: 2002 323d 6742 f83a e6b1 8bbb 5fdf b3bd
00000300: c6cc 24bd c0fe 953c de03 c3bd 369a 393b
00000310: 31a7 8fbb 86cb e5bd f697 4ebc 79e5 603d
00000320: 7745 bfbc b9ae 92bd 8cfe b7bd 4f87 903c
00000330: 291d dbbd f7cc 1a3d a907 a0bc 9e13 863d
00000340: a096 15ba 6e08 49bd 9aff 9dbd bb9a b4bc
00000350: 93ab aebb ec76 4ebc 7270 22bd 9427 dabc
00000360: 1b61 813c 75b6 0f3d 140b ffbd 2580 043c
00000370: 7b5e 8dbc 70ad 46bd 6cc2 eabb dfa3 a6bd
00000380: 3724 333d 000e a2bc e851 73bd d8a2 993d
00000390: f1d1 0e3c 6b65 a9bd 20cb afbd 1ee0 ffbc
000003a0: cf36 a4bc 6ea0 2d3d 3236 853d a9fb a4bd
000003b0: 3ee8 b4bd 2de3 263b 59d4 473d a268 28bd
000003c0: 9d71 97bd 24a9 553c 6ab4 a63d 4589 a8bc
000003d0: 55fd 4cbd 83b4 173d 738d a1bc bb0f e9bd
000003e0: 75d6 b43b c198 a7bd 55e1 7b3c dab9 0fbd
000003f0: b0af 883d 3051 80bd c727 d83b 7843 8e3b
-0.059040483 0.02626158 0.4586135 -0.05584488 0.7197853 0.00022577828 1.3281238 0.0518418
-0.08089864 0.3502578 0.057412244 0.180914 -0.020467341 -0.33157352 0.035243437 -0.06986114
0.08699911 0.0049326573 -0.078647085 0.1677555 0.06895254 0.030810397 0.14954652 0.061224617
0.048114557 -0.067257226 0.33269665 -0.0041956343 -0.5838734 0.06283123 0.7107766 0.07221167
0.033468474 0.055632483 0.22228199 -0.5868586 0.17923793 1.6997169 0.026558077 5.458017e-06
0.05535862 -0.04480954 0.073249616 0.08631116 -0.030471943 -0.045953516 -0.13721271 0.03512548
-0.07760775 0.053480383 0.11589719 0.11197761 0.2985456 0.25368026 -0.04556387 -0.42108366
0.18143225 0.026969157 -0.09056728 -0.08394551 -0.0327286 0.058212794 -0.21806496 0.3314232
0.075195424 0.66520125 -0.011704779 -0.06486355 -0.4255354 0.16648848 -0.03880991 -0.08011866
-0.5179033 0.014868944 0.080117956 -0.09383682 -0.1952583 0.32838884 -0.20207189 0.5331551
0.27008998 -0.10472745 0.010611017 -0.07248499 -0.016225398 0.32898903 -0.57293034 -0.037975494
-0.7217929 0.06599524 0.063615486 0.13291179 -0.054445982 -0.27954498 0.48791236 0.15042463
0.08474058 0.7199116 0.62053096 0.011198243 0.051455908 -0.54524624 0.14014667 -0.25943583
0.14775486 0.121620506 0.07600559 -0.12111303 0.13651568 -0.014103301 0.16826388 -0.1603768
0.03582719 -0.031529512 -0.01755018 -0.08779612 0.0068456596 -0.25378883 -0.09007012 0.11714662
-0.07104661 -0.01009562 -0.002833954 -0.04015939 0.06424186 0.1280785 0.040258072 -0.50560844
-0.026453406 -0.017695751 -0.114970684 0.016070364 -0.05707269 -0.052964162 -0.103088476 -0.07788093
-0.07406817 0.031602528 -0.009974534 0.010955386 -0.03558254 -0.07944507 -0.09077828 0.04552419
-0.017889492 -0.017181981 0.05625069 -0.07110632 0.025624556 -0.05511663 0.0113892965 -0.02971105
-0.052031457 -0.07116945 0.058054965 0.035096634 0.022077365 0.025823122 -0.11955015 -0.014238427
-0.0027796654 -0.026573084 0.057304025 0.056428894 -0.09759506 -0.09970325 0.065942556 0.02067149
-0.0060040606 -0.0830451 -0.0851849 -0.077433445 0.08133018 -0.031777367 -0.0101960525 -0.039561246
-0.0814564 0.027073568 -0.025812417 -0.0398423 0.04680974 -0.086964846 -0.0053417385 0.06069162
0.027079122 0.07973291 -0.07597775 -0.061677232 0.043459058 0.0018940688 -0.0042631505 -0.08782839
-0.04023435 0.01830995 -0.09522222 0.0028320677 -0.0043839444 -0.1122046 -0.0126094725 0.054906342
-0.023348553 -0.07162232 -0.08984098 0.017642645 -0.10698921 0.037793126 -0.019534903 0.065467104
-0.0005706344 -0.049080305 -0.07714768 -0.022046437 -0.005330512 -0.012601595 -0.039658017 -0.0266302
0.015793374 0.035086114 -0.12453285 0.008087193 -0.017256966 -0.048505247 -0.00716429 -0.08136725
0.04373571 -0.019782066 -0.059404284 0.07501763 0.008717046 -0.08271297 -0.08583665 -0.031234797
-0.020045666 0.042389326 0.065044776 -0.08055813 -0.08833359 0.0025464997 0.048786495 -0.04111541
-0.07394717 0.013040815 0.0813988 -0.020573268 -0.050046284 0.037037384 -0.019720769 -0.113799535
0.0055187293 -0.08183432 0.015373548 -0.03508935 0.06674135 -0.06265485 0.0065965387 0.004341539

encoder.2.bias f4 [16]
00000000: a2df 113c 2c0f 72bc 427e f23d b02f 8b3e
00000010: 94de 593e 35e3 90bd 1f3f b63d 0b69 143e
00000020: 133a 903e 2c9a bcbd cce7 9dbd c91a bc3e
00000030: d34b 2f3c dfcb ef3d ba0e 4f3e e29f 1cbd
0.008903416 -0.014774125 0.11840488 0.2718482 0.21276313 -0.07074586 0.08898758 0.14493196
0.28169307 -0.092090935 -0.07710227 0.36739185 0.01069923 0.11708807 0.20220461 -0.038238414

decoder.0.weight f4 [128, 16]
00000000: c6af e63e 0718 53bd 24ba f0be 03ed 7abf
00000010: c1f9 123f 60a9 17bd 0f95 a53b 5f20 1f3e
00000020: 2bdd f9be e2ad 0a3e cb7b 12be 5d2c 95be
00000030: 658d a3be f7f5 903d 61ce bf3e 80d4 12bc
00000040: d8a1 20be e96e fdbd edbb f7bc d800 503e
00000050: a17e 0d3d 0a0c 7c3e 21a6 533e 2d3b 24bf
00000060: 0515 883d a928 4839 1e50 82bd ce73 123e
00000070: 9430 edbe 8228 a7be 6a2f 33be 4872 65bd
00000080: f2d8 45be a70c 463d 57c3 523e 399f 55be
00000090: e5aa 93bc 1c9a 39be 5d77 0a3e 7ad2 47be
000000a0: 44ea cc3e 48b0 6cbe dd90 f73d 0d0a e43c
000000b0: 56e5 87be 5466 7dbd b493 fa3d 2200 26be
000000c0: dff9 aebd 4433 a0bd 559e c9bd be13 41be
000000d0: 7da7 6abe ba4e 55be d994 4bbe e8e2 403f
000000e0: e564 e0bd a4c4 023e eac6 24be 80c6 a4be
000000f0: 6625 623e 82f5 05be 02c2 fcbd 803c 5dbe
00000100: 7cb2 38bf d43f 8cbc ab37 c83e e604 42be
00000110: 2977 08bd 3685 eabd fd6a 87be 7112 3e3c
00000120: 0eb5 d5bd 94f9 a63d 4b67 1a3e 7e21 abbd
00000130: 9cb7 4a3f c237 b5bd 6979 573e 5689 4b3e
00000140: 8b5b fab9 6375 cd3d 9b19 9cbd 3a5d c4bd
00000150: 79d4 ab3d 8ed1 fdbd 85c0 c13c c79f 463d
00000160: 9da2 febd 6be8 bfbd a079 a2bd 4582 1a3e
00000170: f63f 97be 451b 0b3e 9e3c 1fbe 1475 393e
00000180: b20b ce3e 8c73 20be 7fc6 4b3e 4bd3 22bc
00000190: e052 2d3e 7e9c 753e 4c97 d8be d646 0f3f
000001a0: e167 d9bd 541b 60bd 94e1 18be d58c 8ebe
000001b0: 544b b5bd 396c a23d e0d9 7cbe aad7 523e
000001c0: 4e15 273f 13e8 ecbd 9724 86bf c3ee 29be
000001d0: b3c1 71be d29b 17be cde5 fc3e c9b5 9bbe
000001e0: e6dd 373f 2701 df3c d02e 753e d41b 9f3d
000001f0: 74b7 9bbd cbf3 3dbf 9e37 c3bd 908b 76be
00000200: 8ab3 223e 60c6 17bd ff80 7ebe 3455 a73e
00000210: ad1d 07bd 441b b3bd f5d9 45bf 1837 23bf
00000220: 7f56 603e e381 133e 5a1b 433e 487d e1be
00000230: f6f7 683d 73db 183f 8e74 053f b041 c83c
00000240: 0862 4cbe a673 f6bc 9308 01be c64d 853e
00000250: b8aa 353e 6cf6 473b 2ddb d63d f5e6 e5bd
00000260: 925c d8bd 2059 573e d660 19be b5ea 863d
00000270: b775 4f3e ea08 c5bc ee4e db3d 4005 2ebc
00000280: 2587 823d 132a 1cbe 191e 803e fd3c 8c3e
00000290: 18ad ecbd e864 2d3d c5c3 503e 98d8 8cbe
000002a0: bc31 0abf adfe 75be 2b29 9cbd cadc 963d
000002b0: 75f9 18bf b6a5 343e b94f bcbd 7a26 193e
000002c0: c0fc 84bd 8220 17be f4a0 4cbe 349e e5bd
000002d0: b03f 0fbe fc02 483e 20ba ac3c 509d 03be
000002e0: 30b5 88bd 3c10 c6bd e87e bd3d 40e6 edbd
000002f0: 2cf1 68be 748c 14be a29a 413e 12b5 58be
00000300: b56c e43d 4130 7d3d c6be 093e e790 bbbd
00000310: a8fb 04be 5c8c 8abd 6ec5 403e 5a09 96be
00000320: 3494 663e 7cbc 50be 04b6 3cbd 073f e2be
00000330: 059e 9c3d 885f 3d3e 9d3a 1dbd 749e 813d
00000340: 1d03 63be 3cce 2fbc 6114 7cbd c97a 7a3c
00000350: 86ad a33d 5323 5c3d cae1 313e 5479 4ebe
00000360: 3fb7 8b3e ee91 f73d 124c eb3c 1b7a 373d
00000370: afb8 a6be aa4d 253d 1a57 f1bd 62eb 7a3e
00000380: 1ef5 be3e 740b 4e3d e9c8 f03e 4329 09be
00000390: c4b3 c03d 1a82 083d f0a4 543d 9a53 f7be
000003a0: adb8 9c3d b092 00be f068 463e bd52 bd3e
000003b0: 6b27 973e 2fcd a8be 2ccf 833b 0674 2c3e
000003c0: c04d 3f3e 00b3 80bc 5272 193d 4c80 6fbe
000003d0: 579c a43d 0846 4dbe 327d 853e 769a 71be
000003e0: eb42 fcbe 1596 5abe 93b6 1b3e f902 9ebd
000003f0: 1178 b7be 0f6a 393e 6e6e 1d3e 907f f7bc
0.4505598 -0.051536586 -0.47017014 -0.980179 0.57412344 -0.037026763 0.0050531696 0.15539692
-0.4880155 0.13542894 -0.14305036 -0.2913541 -0.31943813 0.07078164 0.37462142 -0.008961797
-0.15686738 -0.1237467 -0.030240977 0.20312822 0.03454459 0.24613968 0.20668842 -0.64152795
0.06644634 0.00019088633 -0.063629374 0.14301988 -0.46326125 -0.32648093 -0.17498556 -0.05601719
-0.1932104 0.04835191 0.20582329 -0.2086152 -0.018025825 -0.18125194 0.13522096 -0.19513884
0.4002248 -0.23114121 0.12088177 0.027836824 -0.26542157 -0.061865166 0.122352034 -0.16210988
-0.08543753 -0.07822278 -0.098446526 -0.18855187 -0.22915454 -0.20830813 -0.19881 0.7534623
-0.10956744 0.12770325 -0.16091505 -0.32182693 0.22084579 -0.13081935 -0.123416916 -0.2160511
-0.72147346 -0.01712028 0.3910497 -0.18947181 -0.033316765 -0.11451189 -0.26448813 0.011601076
-0.10434924 0.08153072 0.15078466 -0.083559975 0.79186416 -0.088485256 0.21042408 0.19876608
-0.0004775192 0.10032155 -0.07622071 -0.09588094 0.08390135 -0.12393485 0.02365137 0.04849222
-0.1243336 -0.09370502 -0.079333544 0.15088756 -0.29540986 0.13584621 -0.15550467 0.18111068
0.40243298 -0.15669078 0.19899939 -0.0099380715 0.16926146 0.23985478 -0.4230293 0.5596746
-0.106155165 -0.054713562 -0.14929801 -0.2784182 -0.08852258 0.07930798 -0.24692488 0.20590082
0.65266883 -0.11567702 -1.0479916 -0.16594987 -0.23609047 -0.14805534 0.49394074 -0.3041213
0.71822965 0.02722223 0.23943639 0.0776898 -0.0760335 -0.74200124 -0.095320925 -0.24076676
0.15888801 -0.03705442 -0.24853896 0.32682192 -0.032987285 -0.08745435 -0.772857 -0.6375594
0.21907996 0.14405017 0.19053403 -0.44040895 0.0568771 0.5970985 0.52130973 0.024445385
-0.19959271 -0.030084442 -0.12600927 0.260359 0.17740905 0.003051187 0.10491023 -0.11225692
-0.105645314 0.21030092 -0.14978346 0.065877356 0.20259748 -0.024052102 0.10708414 -0.010621369
0.06373433 -0.15250425 0.25022963 0.2739028 -0.115564525 0.04233256 0.2038718 -0.27508998
-0.5398214 -0.24022932 -0.0762504 0.07366331 -0.5975564 0.17641339 -0.091948934 0.14956084
-0.06493521 -0.14758494 -0.19983274 -0.112118155 -0.13989139 0.19532388 0.021084845 -0.12852979
-0.06675184 -0.09671065 0.09252721 -0.11616182 -0.2274825 -0.14506704 0.18906644 -0.21162823
0.11153547 0.061813597 0.1345168 -0.09158497 -0.12986624 -0.06765053 0.18825313 -0.2930401
0.22517473 -0.20384401 -0.04607202 -0.4418871 0.07647327 0.18493474 -0.038385976 0.06329051
-0.22169156 -0.010730322 -0.061542872 0.015288063 0.07992081 0.053744625 0.17371288 -0.2016347
0.27288243 0.12088381 0.028722797 0.044794183 -0.32562777 0.04035727 -0.117841914 0.24503854
0.37296385 0.05030389 0.47028282 -0.13394646 0.094092876 0.0333272 0.05191511 -0.4830597
0.076524116 -0.12555957 0.19375968 0.36977187 0.2952226 -0.32969043 0.0040224995 0.16841134
0.18682003 -0.015710354 0.03746254 -0.23388785 0.08037632 -0.20046246 0.2607208 -0.23594078
-0.49269804 -0.21346314 0.15206365 -0.07715411 -0.3583379 0.18106864 0.15374157 -0.030212194

decoder.0.bias f4 [128]
00000000: e361 663f a21a 7d3f 4e85 353f 89ed 673f
00000010: ed8c 2a3f c4d4 ee3e 4a36 213e 084e c43e
00000020: f338 3d3f e377 6c3e 6aaa 1b3f d4b1 b3bd
00000030: e3c2 193f af7e 5d3f 8331 7fbe b364 073f
00000040: 286e c13c 62bb 3abe 1425 f1bd ab75 8bbf
00000050: 7f6b 013f 723d 05bf 0055 0bbe 551d 3b3f
00000060: 3e6a 7ebf 6167 853e d37a ebbe 598b e9bc
00000070: 14bf f9be 911a 283c 95be fe3d 715e 103f
00000080: ad2c 223e 6106 7abe 99b4 0f3f 479e 623c
00000090: b721 d2be 95e3 353f a487 e5bd 5cea 803e
000000a0: 6f5a a63e 5bd5 d8bd c5e0 e4bc d4bd 053f
000000b0: 92a4 2f3f 8205 103f 7e5f 86be 37bb 4c3d
000000c0: ae5d 0f3f ddf0 073f d945 ac3e ed37 30bf
000000d0: eae3 243f 1118 213f 5916 3c3f a3c9 123f
000000e0: 62c3 f83d 9ff7 423e 108a 503f 68e8 a33b
000000f0: 2bff 2e3f 2fc3 0abe e60c fd3e ff70 22bf
00000100: 22de 59be b0c4 1f3f 265f a03e d5a4 7d3e
00000110: 0d50 05bf f22b 313f cb3f bbbe eff0 273f
00000120: 9824 b2bd e619 f43c 0f2d 043f 444d 4e3f
00000130: 3fd6 993f eb07 6dbe a26f 1bbd 65f2 31be
00000140: 2420 8e3d b495 753e 6b0b 2dbe c458 7fbf
00000150: 3225 8d3e 372f 363e 139c 36bd f409 c5be
00000160: f8f7 693f 074c 533d 994c 703f 480b 66bd
00000170: 62ce 173f 865f 5b3e 55cc a63d c6f0 83be
00000180: 1d21 a13e 00f7 f43e 2271 b83f c942 10bf
00000190: e1bb 14bf ead8 ffbd 894a bebe 2068 353f
000001a0: a884 0cbf 67d4 723e f553 553e 2972 24be
000001b0: 0d4f 473f a6fa a2bf 5d30 2d3f 2a97 c4bd
000001c0: 466d cf3e 0473 95bd 26c7 303f 770d f73e
000001d0: 0351 8cbe 95d1 393f 363d cd3e f5e9 173f
000001e0: 552d f3be 324d 19be 816d 273e 8cd0 bfbd
000001f0: 0cf5 a3bf 9925 1abf 1b39 c1bd cce8 4c3f
0.89993113 0.98868763 0.7090653 0.90596825 0.66621286 0.46646702 0.15743366 0.38340783
0.7391502 0.23092608 0.60806906 -0.087741524 0.60063 0.8652143 -0.24921231 0.5288803
0.023612097 -0.18235543 -0.1177465 -1.0895284 0.5055465 -0.52046883 -0.13606644 0.7309163
-0.9938086 0.26055434 -0.45992145 -0.028508829 -0.48778594 0.01026024 0.124386944 0.56394106
0.15837355 -0.24416496 0.56134945 0.013831682 -0.41041347 0.7105039 -0.11207512 0.25178802
0.3249087 -0.10587569 -0.02793921 0.5224278 0.6861049 0.56258404 -0.2624473 0.04998323
0.5600232 0.53101903 0.3364704 -0.68835336 0.6441027 0.6292735 0.734716 0.57338923
0.12146641 0.19039772 0.81460667 0.00500207 0.68358105 -0.13551019 0.49423903 -0.6345367
-0.21276143 0.62409496 0.31322592 0.2476991 -0.5207527 0.6920768 -0.36572108 0.6560201
-0.08698386 0.029797506 0.51631254 0.8058665 1.2018508 -0.23147552 -0.03794826 -0.17377622
0.06939724 0.23982888 -0.16898887 -0.9974482 0.2756744 0.17791449 -0.044582438 -0.38484156
0.91393995 0.051586177 0.9386688 -0.056163102 0.5929929 0.21423158 0.08144442 -0.25769633
0.31470576 0.47844696 1.4409525 -0.56351906 -0.5809918 -0.12492545 -0.3716624 0.7086201
-0.5488992 0.23713838 0.20832808 -0.16059174 0.77854997 -1.2732742 0.6765192 -0.09599145
0.40513057 -0.07297328 0.69053876 0.4825246 -0.27405557 0.7258542 0.40085763 0.59341365
-0.47495523 -0.14970854 0.16350366 -0.09365949 -1.2809157 -0.6021362 -0.0943472 0.8004272

decoder.2.weight f4 [161, 128]
00000000: 8398 e03d dcd6 e13d 1eb9 963e 9efa ac3e
00000010: 72f0 c03e f954 763e 7624 c43e f0a9 2e3d
00000020: 9ad2 9b3e a50d d43e 539b 553e f506 603c
00000030: a6ea 8c3e 3ebd 5a3e a2ff 933e 6669 1e3e
00000040: 045d 18bd 1736 173e bc99 be3e 1f2e e83d
00000050: 353e 113e 9370 df3d 6cea 273d 7212 523e
00000060: 0ebe 123d d097 933e 9215 9f3e 473d 8e3e
00000070: 0e6f 303e 4e77 4a3e 1877 8e3d fb4d 343e
00000080: fde0 55bc a512 6e3d 1714 883e ed09 563d
00000090: e7cc 183f ce98 f33d 852f 8c3d 30db bd3d
000000a0: d8a3 123e 06ab 5f3e 7b69 293d 5be9 843e
000000b0: bb51 5d3e d390 a63e d604 6abd e227 343e
000000c0: 2271 b13e 4d8b 4d3e fcc1 d23d 0c78 473d
000000d0: 9f95 6c3e 1727 1d3e ccaf 673e df1c f43d
000000e0: 90a2 273f 12d6 fb3c c78a da3d b5ea aebd
000000f0: 11f8 a83d 04f3 563f 28b9 4f3e c886 10bd
00000100: 7a9a d93d 4cb6 9f3e 7aeb 9b3e 98cc 1f3e
00000110: 876f 813e 99e7 003e 3d9c 233e 4655 973e
00000120: 9899 86bd 0e6c 263f 8c1c bcbc c01f 9a3e
00000130: f118 0b3e 2e04 f73d 73e6 cc3e 25dc 953c
00000140: c695 a53e 97d1 b23e 49bc a13b 4fa0 603e
00000150: 9d57 133d a2ba 583e 931f a03d f959 483e
00000160: c62b bb3e 800c 693e 130e 283e 87ea 223d
00000170: 5670 303e 4c79 933d c03a c43d 3f83 df3d
00000180: bbec 583e 093f 513e a9d1 823e 06a9 9d3e
00000190: 84b3 023e d2bb a43f f29d ac3e a8ae 673e
000001a0: 2f9e 233f b86e 983d 4782 be3e 6c3d 2c3e
000001b0: 6e6f 993e ea74 933c 4100 1c3e a797 243d
000001c0: 1228 8a3e 152a b23c 02d8 403f 61fd 423e
000001d0: 3f96 3d3e 1f36 873e 8913 3e3e d073 433e
000001e0: 7d0b f23d 4775 e63e 5f06 063f 167f 813c
000001f0: 4896 103e 6cec ff3d 6f90 e4bc d2dd 363e
00000200: c29f 4dbc 218d e1b9 9410 47be bc1e 25bd
00000210: 7140 6cbc 6700 64bd bace a4bd 2e9c 18bc
00000220: 5a53 c8b9 deea 50be b6d7 e7bb 11b9 2cbc
00000230: 4170 0ebc 47f3 85be 667f 1c3d e608 fc3b
00000240: f934 43bd 6cf5 2fb9 1a22 61bb a27a 0e3c
00000250: df1f f2bb 3e20 e03b 37ca 453d 3947 acbd
00000260: 569b ef3a 2805 4439 b956 23bc 0840 c23c
00000270: 5864 a3bc 796b 6cbb 2ff6 883a 1709 bdbc
00000280: 662a 813c 0a2f 253d 91f1 9bbd 4b9a 7cbd
00000290: 550b 3cbd fd9c eb3b 8d45 30bd 8da5 d63b
000002a0: 6b65 403c 06f8 f1ba 2f6e 04bd ee94 5fbe
000002b0: d49f cdbc cc7e 74bc 3c5e 09bc 3360 e0ba
000002c0: 2362 e13b e071 993b b9ca 02bd 91f1 003d
000002d0: c65b 3fbe 4f7c a63a 9922 19bd bfb2 9fbc
000002e0: 0df9 4cbc 6d1d c03c 308d 503c 5c86 aabd
000002f0: 7b25 57bc 47c5 18bc d6ec 67bb 6517 f93b
00000300: 8a91 7cbc d158 1dbd 8219 8dba 8c3b 313c
00000310: 75bb 9b3c f0fc 443c 39f3 c43c 7990 a83c
00000320: afb7 563d 544c 17bd ec98 663c eea2 aebc
00000330: 0b22 123d f5f2 3fba 92d8 0ebc 7cc9 50bd
00000340: 8eae 21bd e1b3 f2bc f355 80bd 447e 86bb
00000350: b7c8 2d3c 66b6 8d3b 2ac7 493b ebb0 43bc
00000360: 87f6 44be ec42 15bc 9e1f ab3b c667 773c
00000370: 19d6 ac3b a11c 443c cd66 adba 1f42 88bc
00000380: 409d 04bd 7f6c 5e3a 668e febb 7a7f a0bb
00000390: 3dec 03ba 1657 07bc e732 19bb 772f 54bd
000003a0: 5edd a9bc 9f56 45bc 7b11 47be 7dfb 2bbb
000003b0: 6e4e 95be e68e 3f3c 9cfb e0bc b53b 803c
000003c0: f5a7 3fbc 70ac d439 4007 9dbd 0ec5 00bc
000003d0: 22af 673c eb6b 01bd ee29 7e3c c9db 693b
000003e0: d410 d63c 5332 02be aedc b8bc a41b 7fbd
000003f0: 889a 6c3c 3348 383c 40b6 363b 3133 10bb
0.10966589 0.11027309 0.29438108 0.33784956 0.37683445 0.24055852 0.38309067 0.042642534
0.30434114 0.4141666 0.20860033 0.013673534 0.27522773 0.21361253 0.2890597 0.15469894
-0.03719808 0.14766727 0.37226665 0.11336922 0.14183886 0.10910144 0.040995046 0.20514849
0.03582578 0.2882676 0.31071144 0.27781126 0.17229864 0.19772074 0.06956309 0.17607872
-0.01305413 0.05812325 0.26577827 0.05225556 0.59687656 0.118943796 0.06845001 0.09270322
0.14320314 0.21842584 0.04136036 0.25959286 0.21613209 0.32532367 -0.05713352 0.17593339
0.34656626 0.2007267 0.10290906 0.04869847 0.23103951 0.15346943 0.22625655 0.11919569
0.65482426 0.030741725 0.10671001 -0.085408606 0.0825044 0.8396456 0.20285475 -0.035284787
0.10625167 0.3119377 0.30453092 0.1560539 0.252804 0.12588347 0.15977569 0.29557246
-0.065722644 0.6500863 -0.022962831 0.30102348 0.13583733 0.12061344 0.4001957 0.01829345
0.3234083 0.3492553 0.0049357754 0.21936153 0.035972226 0.21164945 0.07818522 0.19565572
0.36556834 0.22758675 0.16411619 0.039774444 0.17230353 0.0720087 0.09581518 0.10913705
0.21184056 0.20434202 0.25550583 0.30793017 0.12763792 1.2869818 0.33714253 0.2262522
0.63913244 0.07442993 0.3720877 0.16820306 0.29967827 0.018000085 0.15234472 0.04018369
0.26983696 0.021748582 0.753296 0.19041969 0.18514346 0.2640848 0.1856214 0.19087148
0.118185975 0.4501135 0.5235347 0.01580767 0.14119828 0.12496266 -0.027900903 0.17858055
-0.012550296 -0.00043020493 -0.19439918 -0.040312514 -0.014419661 -0.055664446 -0.080472425 -0.00931458
-0.00038209074 -0.20402095 -0.0070752753 -0.01054217 -0.008693756 -0.26162168 0.038207434 0.0076914905
-0.04765794 -0.00016780727 -0.0034352602 0.00869623 -0.0073890532 0.006839781 0.04828855 -0.08412022
0.0018280547 0.00018693937 -0.009969407 0.023712173 -0.019945309 -0.00360748 0.0010449345 -0.023075623
0.015767287 0.040328063 -0.076144345 -0.061670583 -0.045909245 0.0071903453 -0.04303508 0.006550497
0.01174293 -0.0018460758 -0.03233164 -0.21834156 -0.025100626 -0.014922809 -0.008384284 -0.0017118513
0.006878154 0.0046827644 -0.031931613 0.031480376 -0.18687353 0.0012701842 -0.03738651 -0.019494412
-0.01251055 0.023451531 0.012728974 -0.08326408 -0.013131495 -0.009324378 -0.0035388968 0.007601666
-0.015415559 -0.03841478 -0.0010765048 0.01081742 0.019010285 0.012023196 0.024041759 0.020576702
0.052421268 -0.036938027 0.014074545 -0.021317925 0.035676997 -0.0007322275 -0.008718627 -0.0509734
-0.03947311 -0.029626789 -0.062663935 -0.0041044075 0.010606936 0.004324722 0.0030788877 -0.011944036
-0.19234668 -0.009110194 0.005222275 0.015100425 0.005274546 0.011969716 -0.001322949 -0.016633091
-0.032376528 0.0008484795 -0.00776844 -0.004898009 -0.00050324557 -0.008260509 -0.0023376287 -0.05180308
-0.020735439 -0.012044578 -0.19440262 -0.0026242428 -0.291614 0.0116917845 -0.027463727 0.01565347
-0.011697759 0.00040564267 -0.076673985 -0.0078594815 0.014140876 -0.03159706 0.0155129265 0.003568398
0.026131071 -0.1271451 -0.022566166 -0.06228222 0.01444114 0.011247682 0.0027879626 -0.0022003169

decoder.2.bias f4 [161]
00000000: 250a e33e 915d 38bf 8ff6 32bf 69d4 dfbe
00000010: d280 c0be cc8f cabe 8062 91be 9ab4 e4bd
00000020: 9fc1 adbe c841 40be 5946 c7be 1525 4cbf
00000030: 2c7d 6bbe 16b6 f2be 9653 a43d c5ea bcbe
00000040: 773a 2ebe c394 debe e596 01bf ebed babe
00000050: fa5e ccbe 4256 73be 384f a4be dd37 82be
00000060: 58f5 b1be a4c5 3abe 53dc abbe 8498 c7be
00000070: bda1 9fbe 5cd1 f2be fab8 53be 7a33 0abe
00000080: 9575 89be 48c1 98bd d312 fdbe 0bbc f3be
00000090: 5fcb d3bd 6544 0dbf 112d 17bd a68d 49be
000000a0: 1226 e3bd c567 00be b2dd a0be 5483 debd
000000b0: 8f34 02bf 9e1a cabe 7664 75be 2f09 abbe
000000c0: 2fe5 28be eced 45be e217 5ebe 9c1e bcbe
000000d0: b5b1 58bd 47e1 58be 607d a0be f803 d13b
000000e0: fa76 07bf 7d6b 6dbe 2550 d6be 60d4 95be
000000f0: a4d7 97be 9eea 43be 06c6 f9bd bc7b 52be
00000100: 8949 52bd 21c0 99bd f30b 97be 86f9 68be
00000110: 8258 81be e120 07be 6ba9 a7bc 753d febd
00000120: 96ac 0dbb df3e 4abe b778 93bd d65e 52be
00000130: 8136 a23c 9f74 8cbe 1d04 38bd 3116 1abe
00000140: 984c d3bb 790a a3be 51c1 44bc a9cf 47be
00000150: 4b08 afbd 10ee 9cbe 5457 883d e003 babe
00000160: d085 9cbd 7aef 9cbe 6495 7e3d 90da d8be
00000170: 0d50 d5bd a856 92be 3ba6 11be 7c7d abbe
00000180: c8fa 0fbe 73b8 d3be faa7 3ebe b5c3 cbbe
00000190: f1e3 4ebe e9be dbbe 4bc3 b5be c446 ecbe
000001a0: 6e4e a9be ab1f b1be 2bf3 a5be bf04 f5be
000001b0: 5685 d7be d9ac c7be 098b f1be 5f94 dcbe
000001c0: 72eb bfbe 6e37 fdbe e2b5 f8be dc5e e1be
000001d0: 7c69 dabe da3f f7be 74df c3be f46d d9be
000001e0: 91e7 a7be 4bf6 d4be 0858 fcbe a677 b8be
000001f0: 5c51 d4be 0c5a c7be 80ca c5be 0617 c2be
00000200: f446 c1be 26c9 c6be c122 efbe 39be 01bf
00000210: 72d7 dabe cf82 debe e847 b6be 9c5c c0be
00000220: a65d b8be af25 c6be 8d98 bdbe 7d43 d4be
00000230: 2cdc b4be ea30 b5be 1fe3 00bf 3894 bcbe
00000240: cfab e3be 4b45 00bf b4b3 bebe 9417 f4be
00000250: 9722 c5be 6151 dcbe 28d6 d7be 9595 bebe
00000260: d09b e1be c13c f1be f59e ecbe 56c2 acbe
00000270: 1691 f4be 6bd4 dabe 1d19 cbbe 779f d2be
00000280: 9136 c4be
0.44343677 -0.7201777 -0.6990747 -0.43716744 -0.37598282 -0.39562833 -0.28395462 -0.111672595
-0.33936784 -0.18775094 -0.38920859 -0.7974408 -0.22996968 -0.47404546 0.08023755 -0.36897865
-0.1701449 -0.4347287 -0.5062087 -0.36509642 -0.3991621 -0.23763373 -0.3209169 -0.25433245
-0.34757495 -0.18239456 -0.33566532 -0.38983548 -0.31178084 -0.47425354 -0.20676032 -0.13496199
-0.2684752 -0.074587405 -0.49428424 -0.47604403 -0.10341524 -0.55182487 -0.036908213 -0.19682941
-0.11091246 -0.12539585 -0.3141914 -0.108648926 -0.5086145 -0.39473432 -0.23964104 -0.33405444
-0.16493677 -0.19329041 -0.21688798 -0.36742103 -0.05290385 -0.21179686 -0.31345654 0.006378647
-0.5291592 -0.23185535 -0.4185802 -0.29263592 -0.29656708 -0.19132468 -0.12195973 -0.20555013
-0.05133966 -0.07507349 -0.29501304 -0.22751436 -0.2526284 -0.13196136 -0.020466527 -0.12414066
-0.0021617762 -0.19750546 -0.07200759 -0.2054399 0.01980138 -0.27432725 -0.044925798 -0.15047528
-0.0064483397 -0.31843928 -0.012008981 -0.1951281 -0.08546504 -0.30650377 0.066572815 -0.3633108
-0.0764271 -0.30651456 0.06215419 -0.4235425 -0.10415659 -0.28581738 -0.14223568 -0.33494174
-0.14060509 -0.4135166 -0.18618765 -0.3979775 -0.2020414 -0.4291909 -0.3550056 -0.4614774
-0.3306765 -0.34594473 -0.32412085 -0.47855183 -0.42093915 -0.3899906 -0.47176388 -0.43081948
-0.37484318 -0.49456352 -0.48576266 -0.44017684 -0.42658603 -0.48290902 -0.3825642 -0.424667
-0.3279386 -0.41594157 -0.49285913 -0.36028785 -0.41468322 -0.38935888 -0.38631058 -0.3790819
-0.37749445 -0.3882534 -0.46706203 -0.5068088 -0.42742497 -0.43459174 -0.35601735 -0.37570655
-0.36008948 -0.38700625 -0.3703045 -0.4145774 -0.35324228 -0.3538888 -0.5034656 -0.36831832
-0.44467017 -0.5010573 -0.37246478 -0.4767424 -0.38502952 -0.43030837 -0.42155576 -0.37223497
-0.44064188 -0.47116664 -0.46215025 -0.33742017 -0.47766942 -0.42740187 -0.39667597 -0.41137287
-0.3832288
