rl-manager/mnt/autoencoders/AE_10hosts_16.pth (torch, 185960 bytes, 8 tensors)

encoder.0.weight f4 [128, 161]
000000 28 a3 54 3c 8a 65 0a 3d e8 ee 26 3d 9c 3a 54 3f
       0.012978353 0.03378824 0.040755183 0.8290193
000010 8f d6 2e bf bf c8 a0 3e 69 34 e6 be 9c 16 09 bf
       -0.6829614 0.31403157 -0.4496186 -0.53550124
000020 e2 06 e7 be c2 22 62 bf af c0 29 3e 8b 95 c2 3d
       -0.4512244 -0.88334286 0.16577409 0.09501179
000030 96 97 1f be 24 37 42 3d 5e 52 d7 3c 49 95 20 bb
       -0.15585169 0.047415867 0.026284393 -0.0024503043
000040 7e 9e a5 3e 68 4c 94 3e ba b6 35 bd ae 71 56 be
       0.32347482 0.28964543 -0.044363715 -0.20941803
000050 b8 ef b1 bd 69 88 ad 3c 18 90 48 3e 98 4b 56 be
       -0.08688301 0.02118321 0.19586217 -0.20927274
000060 dc d9 1e bd 3c a3 57 3e bc bc 97 be a3 c1 2a 3e
       -0.038781986 0.21058363 -0.2963618 0.16675429
000070 4f 8d 9c be c2 a9 c2 3e af bb 56 3e b4 8b 54 be
       -0.3057656 0.3802014 0.20970033 -0.20756418
000080 df 33 8d 3e 0b be dc bd 9b 05 6e 3f dc 6a 8a 3e
       0.27578637 -0.10778435 0.92977303 0.27034652
000090 66 3d 8d 3e 6c 4c 17 bf a6 2e d0 be 0c b0 39 3f
       0.27585906 -0.59100986 -0.4066059 0.7253425
0000a0 68 6b a4 3e 68 ed f0 be 48 a5 22 bd 70 6a 5b 3e
       0.32113194 -0.47056127 -0.039708406 0.21427321
0000b0 01 2c 20 3f 20 1f 95 be 44 b5 07 bf ba c0 b7 3e
       0.62567145 -0.2912531 -0.53010964 0.35889226
0000c0 35 d9 88 be 96 7a 71 bc 6a 66 2a be 6c 45 c0 be
       -0.26728216 -0.014738699 -0.1664063 -0.37552965
0000d0 11 77 1d bf 6b 74 cb bc 92 c2 38 bf 67 5c de bc
       -0.61509806 -0.024835786 -0.7217189 -0.02714367
0000e0 62 8b 2c 3c 09 6b aa be c2 20 c3 be 1d a0 66 3c
       0.010531278 -0.33284786 -0.3811093 0.01407626
0000f0 9f 91 3f bd 38 74 c9 bc 22 c5 e8 be 37 c0 d1 3e
       -0.046769734 -0.02459155 -0.454629 0.4096696
000100 3c 0e bf 3d ab 47 fd bd d3 a6 24 3e ea f7 f6 bd
       0.09328887 -0.12367185 0.16079263 -0.120590046
000110 a1 00 c3 bd 72 4b a0 3d ae 27 d5 be af c1 e2 bc
       -0.09521604 0.0782689 -0.41631836 -0.027680246
000120 ad 10 b2 be dd b7 1d bd 80 7a cd bd 38 1c fd 3c
       -0.34778348 -0.038505424 -0.10033131 0.030897245
000130 44 a1 81 be 1f b2 cf 3d 17 ed 10 be 37 c4 86 3b
       -0.25318348 0.10141396 -0.14152943 0.004112746
000140 d1 36 3b bd 9a ff a8 3d 32 13 5f be 70 57 2b 3d
       -0.045706574 0.08251877 -0.21784666 0.041831434
000150 4a 7a 96 3d ea 91 8f 3d 75 c0 0d bd 5a ce ea bd
       0.073475435 0.07010253 -0.03460737 -0.1146514
000160 f5 e5 0f 3a fa 0e 36 3e a8 c0 cf bc 32 bb 01 3d
       0.00054892834 0.1777915 -0.02536042 0.031672664
000170 06 bf 8c bd 46 e5 25 3e 4e 25 1b bc 51 d0 1b 3d
       -0.06872372 0.16200742 -0.009469343 0.038040463
000180 40 45 f6 bd 75 bf 5b 3e 28 51 44 be 78 9e c1 3c
       -0.12024927 0.21459754 -0.19171584 0.023635134
000190 bf cb 26 bd 91 cd 6b bd 4c 8b 90 bd 79 7d fc bd
       -0.04072165 -0.05756909 -0.07057819 -0.123286195
0001a0 86 39 1f 3d 9e 53 b0 bd 18 eb cb bd 64 f8 a4 3c
       0.038873218 -0.08609699 -0.0995695 0.020137973
0001b0 fc 47 36 bc a1 c7 a3 3c 78 0b 08 3e 0f 2e 40 3d
       -0.011125561 0.019992651 0.13285625 0.046918925
0001c0 54 04 78 3b fa e4 98 bd f6 53 40 bd db 93 b5 bd
       0.0037844377 -0.07465549 -0.04695507 -0.08866092
0001d0 4a 3a 90 3d 5a ea d1 3c 75 9c 6e bd c9 fc a5 3c
       0.07042368 0.025624443 -0.058254678 0.020262139
0001e0 6b 98 77 bc 83 e8 00 3d ec 88 ac 3b c6 48 24 bd
       -0.015112023 0.03147174 0.005265346 -0.040108465
0001f0 35 2e 69 3d 70 e6 27 3c 69 d5 a0 bc cf b6 50 bd
       0.056928832 0.010247812 -0.019633012 -0.05095559
000200 9e 90 95 bd ec 25 99 bd e8 96 98 3d 9f d6 38 bd
       -0.07302974 -0.07477936 0.07450658 -0.045126554
000210 bc eb dc 3c 4f 69 96 3d 81 e1 ab bc 4c 31 f2 bc
       0.026967876 0.07344305 -0.020981552 -0.029564522
000220 14 5d 8d bd b9 7b 8a 3d 6c 37 6e 3d 20 4e 7b 3c
       -0.06902519 0.067618795 0.058158323 0.015338451
000230 84 9d 82 bd 5d 39 0e bd 08 bd 82 bd f1 85 37 bd
       -0.063777 -0.034722675 -0.06383711 -0.04480547
000240 e5 6e bf 3c ab ca 2c bc 02 1a f3 3c 59 d3 cd bc
       0.023368308 -0.010546367 0.029675487 -0.025125192
000250 36 33 c1 3c 5d de e9 3c eb 4f 0b 3d 78 fa 3a 3d
       0.02358399 0.028548414 0.034011763 0.045649022
000260 1c 45 01 bc 15 da 9e 3c 0e 43 5c 3d ea de 6a bc
       -0.007890012 0.019391099 0.053774886 -0.014335373
000270 06 ec b6 bb 03 17 d6 3c 9e 7a 78 bd 7c f3 00 bd
       -0.0055823354 0.02613402 -0.06066381 -0.031482205
000280 a2 7a 4b 3b 0f 7c 35 3e 45 0e 49 3e 15 95 ee 3d
       0.0031048437 0.17723106 0.1963435 0.11649529
000290 98 39 3d 3d 6f 4c f6 3e 12 c9 22 3e 1a 9a 90 3e
       0.046197504 0.4810519 0.15897015 0.2824257
0002a0 03 43 f1 3e b5 4c 88 bd c2 d0 10 3f d6 0f 68 bf
       0.47121438 -0.06655256 0.5656854 -0.90649164
0002b0 b0 f0 ba 3e 44 8d 27 bf 04 1b 4c 3e 80 f8 25 bf
       0.36511755 -0.6544993 0.1993218 -0.64832306
0002c0 e0 62 0d 3f 6a b3 b1 bf 61 40 25 be 46 55 62 bf
       0.55228996 -1.3882878 -0.1613784 -0.88411367
0002d0 19 3f a2 be 11 dd 89 be d6 39 bc be 39 6b 75 3f
       -0.31688765 -0.26926473 -0.36762875 0.95866734
0002e0 b7 49 84 bf 56 46 e0 3e d1 f5 d3 be c4 c2 42 3f
       -1.0334996 0.43803662 -0.4139848 0.7607844
0002f0 ff 5d b3 be 23 ee 8d 3f 58 98 c1 be 84 2c 8e 3f
       -0.3503265 1.1088299 -0.37811542 1.1107335
000300 69 16 69 3d d4 26 64 3f e6 ae 00 3f d8 7c f1 3e
       0.056906138 0.89121747 0.50266874 0.4716556
000310 6e 06 da be e6 e3 0c 3f 94 b3 eb 3e 46 10 e7 3e
       -0.4258303 0.55035245 0.46035445 0.45129603
000320 52 70 17 3e 89 3e 49 be c6 fe 66 bd 1a b3 ae 3e
       0.1478894 -0.19652762 -0.056395315 0.3412102
000330 14 b8 40 be 14 40 a3 3e 25 0f cf 3e eb 93 bb be
       -0.1882022 0.31884825 0.40441242 -0.3663629
000340 13 ed 16 3e f1 3f c0 bc 41 fc 55 be 7a 47 e7 bd
       0.14738874 -0.02346799 -0.20897008 -0.1129293
000350 4b af bb be 1a 15 2e 3f b0 f1 1b 3d d0 d5 1f 3f
       -0.36657175 0.6800095 0.038072288 0.62435627
000360 61 f4 8c 3d d4 25 a9 3e 93 1c dc 3c 5f a6 05 3e
       0.06882549 0.33036673 0.026869094 0.13051747
000370 56 f2 a8 3d cc f3 e0 3e 90 70 90 be 2c 79 fc 3e
       0.08249347 0.43936002 -0.28210878 0.49311197
000380 26 68 3d be a5 1e fd 3e 76 fd cd be 4a 40 fb 3e
       -0.1849676 0.49437442 -0.40232438 0.49072486
000390 67 12 1e bf b8 31 00 3e f0 46 b1 be 54 90 94 3d
       -0.6174683 0.12518966 -0.34624434 0.07254091
0003a0 77 84 40 be d9 97 a8 3d fd b1 29 be 7f 5f 89 3d
       -0.18800531 0.08232088 -0.16571803 0.067076676
0003b0 05 77 84 bd 05 0f 91 3d 0c ac 70 bd de 9d 05 3d
       -0.06468014 0.07082943 -0.058757827 0.032621257
0003c0 a3 6f ba 3a 62 8a 94 3d b4 e5 a4 bd 20 6f 23 3e
       0.0014223944 0.07252957 -0.08051625 0.1596036
0003d0 78 74 db bd 3b b9 26 3d 31 67 21 bd 04 f2 12 3d
       -0.10715574 0.040703993 -0.03940505 0.035875335
0003e0 e9 c5 26 bc dd 8e a4 3c 9a e5 4b 3d 86 b7 fa bc
       -0.010179021 0.020087654 0.049779512 -0.030605089
0003f0 1e 5a 04 bd e9 4d dd 3d 79 ce 5b 3c 2a 37 45 bc
       -0.032312505 0.10805876 0.013415926 -0.012037078

encoder.0.bias f4 [128]
000000 1d 3a 02 3e 2f d5 5d 3e 20 58 2f 38 60 e0 59 3c
       0.12717481 0.21663354 4.1805324e-05 0.013298124
000010 bb 23 bd 3c 0a 75 ca bc b4 87 ed 3d a3 11 f3 3b
       0.023088327 -0.024714012 0.11598149 0.007417874
000020 ca 04 95 3c 88 88 b9 bb 72 19 9a bc 25 0e 6b 3d
       0.01819076 -0.0056620277 -0.018810961 0.057386536
000030 c5 11 62 3d 93 8d 5a bc 9d be 19 be 3c b3 0c 3b
       0.055192728 -0.013339418 -0.1501412 0.0021469137
000040 99 d9 f9 3d 07 14 ac bd 06 e4 fd 3c ba 0a 52 bb
       0.121997066 -0.084022574 0.03099252 -0.003204985
000050 f3 57 7e bd 62 a1 c3 bc f2 c0 8c 3d 1b 8f 01 3e
       -0.062095594 -0.023880664 0.06872739 0.12652247
000060 dc 51 bb 3d 6f 09 ba bc a0 97 6f 3d f1 ea 55 3d
       0.09146473 -0.022709576 0.05849421 0.05222601
000070 76 94 88 bd bd 08 6e bd b4 39 b7 bc 2d 2f 44 bd
       -0.06668942 -0.058113802 -0.022366382 -0.047896553
000080 c7 21 98 bd 47 ae f8 bc c3 6d fb 3c ec 12 93 bd
       -0.074283175 -0.03035654 0.030691987 -0.071813434
000090 38 fd 84 bd 19 ab 90 3d 35 01 2e bd 21 cb d1 3d
       -0.0649361 0.07063884 -0.04248162 0.10243822
0000a0 10 53 96 bd 57 f2 43 bc 0e 46 77 bc b2 13 7b bd
       -0.07340062 -0.011959634 -0.015092386 -0.06129808
0000b0 63 5e c3 bd 57 8d 95 bd 80 7a b6 3d 88 5c 9c bd
       -0.09539487 -0.07302349 0.08910084 -0.076348364
0000c0 29 2e b0 bb 66 2e 02 3d 36 f7 51 bc 38 dc 4c 3d
       -0.0053765965 0.03178253 -0.012815287 0.050014704
0000d0 fc f2 15 bd 89 9c f0 3d 74 90 1e 3c 71 69 8d 3c
       -0.03660868 0.11748607 0.009677995 0.017262192
0000e0 ea 6a b6 3c 8c 8d 4b 3e d3 d8 e2 bc a4 50 80 3c
       0.022267777 0.19878215 -0.02769128 0.015663452
0000f0 e2 3a 83 bc 29 31 b2 3d 1f d1 88 bc e5 a5 86 bd
       -0.016019288 0.08700783 -0.01670128 -0.065746106
000100 29 98 00 3e b3 c6 be 3d 34 61 11 3e e9 63 95 bd
       0.12558044 0.093152426 0.14197236 -0.07294447
000110 d4 ca 4c 3d 70 4a 9c 3c ef 64 8c bd 0d 41 9e 3d
       0.04999812 0.019078463 -0.06855189 0.07727251
000120 75 e5 d2 3c 7d d1 2a 3c 79 30 1d bc 4c 08 f1 3d
       0.02574418 0.010425922 -0.009594076 0.11769161
000130 43 72 86 bd 8e e1 39 3c d8 1c b6 bd 1b 6d 06 3d
       -0.065647624 0.01134528 -0.0889222 0.032818895
000140 b5 6c 90 bd 2e f5 73 bd 91 e2 3a bd 91 74 8c bd
       -0.07051984 -0.059559993 -0.045626227 -0.06858171
000150 79 df c0 bd 2b f5 3b 3d 64 b6 a5 3d 3a 95 0a 3e
       -0.09417624 0.045888107 0.08091429 0.13533488
000160 50 d5 3a be dc f3 97 bd 18 1a f4 3d d7 1f b5 3d
       -0.18245435 -0.07419559 0.119190395 0.088439636
000170 d9 a4 08 bd 91 02 eb bd a7 16 4c bb 12 80 41 3d
       -0.033360336 -0.11475099 -0.0031141432 0.047241278
000180 61 db bb 3c f6 ba 1c 3d eb cd 51 ba 92 40 90 bd
       0.022931756 0.038264237 -0.00080034015 -0.07043566
000190 01 8a 81 3d b3 21 5b 3a 46 13 85 3c 74 f4 2e 3d
       0.0632515 0.00083592086 0.016244542 0.042713597
0001a0 71 15 0e 3e 71 ae b6 3e 53 3e 9e 3d c1 8a 01 3d
       0.13875367 0.35679963 0.07726731 0.031626467
0001b0 58 71 87 3e b1 ed 78 bd 41 66 1a 3d 2e ed e0 3c
       0.26453662 -0.060773555 0.037695173 0.027456846
0001c0 fd 98 53 3d 83 46 5e 3e 28 6c 48 bd 21 5c 69 bd
       0.051659573 0.21706586 -0.04893127 -0.056972627
0001d0 ce 18 4a 3d d0 7f cd bc 12 6f 59 3d 02 f7 80 bc
       0.04934006 -0.02508536 0.05308444 -0.015742783
0001e0 84 2f ab 3d 24 34 ea 3c f2 ce 90 ba 7a ba 6e bd
       0.08358672 0.028589316 -0.0011048003 -0.058283307
0001f0 61 57 f9 3c 18 5e 1c 3c 4d 16 c3 3c 3b 0e 7e bd
       0.030437173 0.009543918 0.023814345 -0.06202529

encoder.4.weight f4 [16, 128]
000000 84 67 e0 3c e3 28 c7 bd b2 87 96 3d 37 ac e2 bd
       0.02739311 -0.097245954 0.073501006 -0.110680036
000010 26 85 ef bd 0e 9c 23 3a 9c 7d 7c bd ef 84 8a bd
       -0.11695318 0.00062412105 -0.061643228 -0.06763636
000020 52 5e 8e bd f9 af 85 3d d4 45 35 3d 14 af 81 3d
       -0.06951584 0.06527705 0.044256046 0.063322216
000030 0d 31 68 3d cd 52 1f 3b 81 96 11 bd aa 34 49 3d
       0.056687403 0.0024310828 -0.035543922 0.04912249
000040 57 a8 60 bd a9 8a 08 bd 03 35 6b bd 93 b0 85 bd
       -0.05484804 -0.03333536 -0.057423603 -0.065278195
000050 2a 4f d0 b8 91 90 23 bd b7 a9 9e bd e1 40 cd 3a
       -9.932958e-05 -0.03993279 -0.07747214 0.0015659594
000060 7e 59 8d bd c2 bf 9b 3d 0a 77 81 bd ad 2d 9f 3d
       -0.06901835 0.07604934 -0.06321533 0.07772384
000070 5e b4 7a 3d 96 35 a4 3d 72 81 8c 3d 6d fb b2 3d
       0.061207168 0.08018033 0.06860627 0.08739362
000080 69 ec 6d bd ab 6c 75 3d a8 a6 81 bd 74 ba c6 bc
       -0.058086786 0.059918087 -0.06330615 -0.02425883
000090 c8 82 33 3d b3 c2 29 3d 5a b7 84 bc 4f cc 26 bd
       0.043825895 0.041445445 -0.01620071 -0.040722188
0000a0 9d 18 7b 3d 2a 00 0f bd 85 93 12 3d 5f 69 c4 bc
       0.06130277 -0.034912266 0.035785217 -0.023976026
0000b0 90 de 8f bd a5 8a a8 bd 85 05 73 bb 79 8c 1e bb
       -0.07024872 -0.08229569 -0.0037082147 -0.0024192615
0000c0 89 3a 9f bd 72 af 8d 3d 6a 30 00 3d 07 df 45 3d
       -0.077748366 0.06918229 0.03129617 0.0483084
0000d0 e4 f5 60 3d c1 f7 d4 bd 14 a3 a2 bd ea c3 a5 bd
       0.054922 -0.10398818 -0.07941261 -0.08094008
0000e0 90 58 83 bd 11 9c 53 bd 31 81 22 3d 44 7b 33 3b
       -0.06413376 -0.05166251 0.039673988 0.0027386704
0000f0 30 d8 2c 3d 00 ca c1 bd 2a a0 e3 bc 10 4c a5 bd
       0.04219836 -0.094623566 -0.027786333 -0.080711484
000100 59 60 2b bc ff 3d cb 3c 1f cc 1f 3d 16 e7 dc 3c
       -0.010459983 0.024809835 0.039013024 0.02696566
000110 c1 3b c2 bd 83 d9 5c 3d 16 79 79 3d 36 d4 cc 3c
       -0.094840534 0.053918373 0.060906492 0.025003534
000120 ba 54 a8 bd ae ed 4f bd 3d 13 a3 bc 75 c4 4a 3d
       -0.08219285 -0.05076378 -0.019906634 0.049503762
000130 34 64 90 bd 60 6c 19 bd 70 fb 36 3d cb c1 64 bd
       -0.07050362 -0.03745687 0.044673383 -0.055848878
000140 c8 81 91 bd ac 08 8e bd af 42 81 bd a7 6f 79 3d
       -0.07104832 -0.06935248 -0.06311547 0.060897496
000150 87 be 0e bc 41 04 69 3b fe 9e 2a bd 0a 7c 78 3d
       -0.008712417 0.0035555514 -0.041655533 0.060665168
000160 de 87 3f 3c ca a7 21 3d 00 e8 aa bd 62 a7 81 bd
       0.011690108 0.039466657 -0.08345032 -0.06330754
000170 5d 60 1b 3d ee 09 81 bd a2 5d a7 3c 0e 73 7b bd
       0.037933696 -0.06300722 0.02043039 -0.06138902
000180 66 4c 42 bd 80 a6 b6 bd 5d 06 b4 bd bb 21 5d 3b
       -0.04743614 -0.08918476 -0.08790276 0.0033742029
000190 c9 fd 9b bc 88 a0 a1 bb 8f 0e 59 3d d4 8a 7b bc
       -0.019041913 -0.004932467 0.0529924 -0.015352923
0001a0 fc ff b4 bd ca a1 16 3d 4b 99 e3 3c e0 ca ca bd
       -0.08837888 0.036775388 0.027783057 -0.099019766
0001b0 2c 78 e1 3c 96 2f 8b 3d bf 42 c1 bd 79 f4 6c bd
       0.027523123 0.06796186 -0.09436559 -0.057850335
0001c0 ec ef 0a bd 6a 03 3f 3c db b0 a3 3d 72 d7 83 bc
       -0.033920214 0.011658529 0.07992717 -0.016093943
0001d0 1f f7 9b 3b e6 79 f2 bc 45 49 93 3c f0 19 a9 bd
       0.0047596837 -0.029599141 0.017979274 -0.082569
0001e0 02 69 01 bd b1 5a 6d 3d 18 be 78 3c ec e7 2e 3d
       -0.031594284 0.05794782 0.015182041 0.042701647
0001f0 da 19 5e ba 3c 4c e3 bd 3f e5 9c 3d fa 14 73 3c
       -0.000847248 -0.11098525 0.07660913 0.014836544
000200 84 9e bc be de ca bc 3e 29 7c 82 3e 0a 77 e3 3f
       -0.36839688 0.36873525 0.25485352 1.7770703
000210 4c 2e e8 3e c7 cf 6c 3d a3 d6 56 3f 4f 3a 17 bd
       0.45347822 0.05781534 0.8392126 -0.03692084
000220 3c 37 0c 3e 0d 6e 0d 3d e1 85 c4 3e d1 27 8f 3c
       0.13692945 0.03452878 0.38383391 0.01747504
000230 85 83 3e 3b 16 6e 07 3d 19 69 a6 3e b0 60 eb 3a
       0.002907009 0.03306397 0.32502058 0.0017957892
000240 d3 91 8d 3f 0d ae 04 bf 4c 92 84 bc b2 3f 61 3d
       1.1060127 -0.5182808 -0.016183041 0.054992385
000250 8d d6 e1 bb f7 c5 f0 bb d3 4c ed bd 1b 71 7b 3e
       -0.0068920315 -0.007347818 -0.11586919 0.24554865
000260 ca 70 cc 3d fe 13 a1 bb ad 34 78 3e f4 70 07 bf
       0.0998245 -0.0049157133 0.24238844 -0.5290673
000270 72 49 51 bd 13 9d 81 3d 8a aa b6 3c d8 09 9c bd
       -0.051095434 0.06328788 0.022298116 -0.07619065
000280 e4 ca 81 bd e7 63 ac bc 97 fd 06 3f b3 74 08 3d
       -0.063375264 -0.02104373 0.527307 0.033314418
000290 55 6f 38 3c 53 18 9e 3e 3d bc 1c 3f 04 03 93 bf
       0.011257012 0.30877933 0.6122473 -1.1485295
0002a0 08 8e 43 bd 2c 92 bb 3d 5c 49 da be 81 00 9a 3e
       -0.047742873 0.091587394 -0.42634094 0.3007851
0002b0 b8 40 47 bf 99 b5 a3 bc 2a 2d b4 3f 1d ca 82 be
       -0.7783313 -0.019984053 1.4076283 -0.25544825
0002c0 6a 73 0a 3c 46 6f f7 3c af 9b 9c 3e 08 15 af bf
       0.008450368 0.030204426 0.30587527 -1.3678293
0002d0 47 18 31 bc 64 2a 56 3f df 81 1d 3f 64 61 f9 3b
       -0.010809011 0.8365843 0.6152629 0.007610487
0002e0 31 bb 84 3d 16 64 ba 3e 4e 02 01 bb 05 de 26 3d
       0.064810164 0.36404485 -0.0019685212 0.040739078
0002f0 37 eb 17 bd a7 19 45 3e 02 dd bd 3e b6 e7 8e bd
       -0.037089553 0.19248067 0.37082678 -0.06977789
000300 54 96 40 be a8 19 e7 be 0d 2b 8e bd 88 d1 82 bd
       -0.18807346 -0.45136762 -0.06941805 -0.06387621
000310 c2 c6 a7 3c 14 7c 09 3f dc 1a 24 3d 53 24 9d 3e
       0.020480517 0.53704953 0.040064678 0.30691776
000320 9a b2 5e bb 1d f2 ae bf 2d 89 6d bf e3 20 70 3e
       -0.0033980967 -1.3667637 -0.9278744 0.23450045
000330 7e dd 25 3e 24 3d 57 3e ed c0 b4 3d 64 b2 95 3e
       0.16197774 0.21019417 0.0882586 0.29237664
000340 09 c8 fa bc d4 27 5b 3d 4c 87 ec 3d fd 5e 1b 3d
       -0.030612962 0.05350478 0.11549243 0.037932385
000350 2e ca bc 3e 22 3a c7 3e 81 70 ca bc fa f7 ff 3e
       0.36873 0.3891154 -0.02471185 0.4999388
000360 63 02 6b bf db 54 28 3c c6 13 bd 3f 83 35 b3 3d
       -0.91800517 0.010274137 1.4771659 0.08750441
000370 3f b7 d2 3e 99 f1 94 3f 44 63 62 3f 56 86 85 bd
       0.4115543 1.163623 0.8843272 -0.06519763
000380 94 72 56 bd 24 90 38 3e b0 51 86 3e 26 1c 42 3c
       -0.052355364 0.18023735 0.26234198 0.011847531
000390 c2 53 6a bd 39 e4 08 bd c4 33 04 3d 78 09 48 3e
       -0.057208784 -0.033420775 0.03227593 0.19534862
0003a0 5b 53 a6 3e 1c c8 d6 bd 89 99 04 3f ef bd a7 3c
       0.3248547 -0.104873866 0.51796776 0.02047631
0003b0 a0 0b 16 bf bd 80 92 bd d7 e2 bf bc 79 14 80 bf
       -0.5861149 -0.07153461 -0.023423595 -1.0006248
0003c0 44 00 24 bf 03 96 7c 3f 30 9d 44 bc 6b cb 43 bd
       -0.64062905 0.986664 -0.012000367 -0.047801416
0003d0 34 4a 51 3e 4a 00 57 bd e9 3c ec 3d 72 d6 69 3d
       0.20438462 -0.05249051 0.11535055 0.057089277
0003e0 b4 8b 9a 3e 8d 73 9f 3d 48 84 51 be 66 b8 1c 3d
       0.3018471 0.077857114 -0.20460618 0.038261794
0003f0 36 b8 4b 3d f6 01 3b bf ee de f6 bc ab 3d 7d bd
       0.049736224 -0.7304987 -0.030135598 -0.06182639

encoder.4.bias f4 [16]
000000 8e 65 b0 bd 84 ba a0 3e 5f 3b 07 bd e8 bd a3 3e
       -0.0861312 0.313923 -0.033015605 0.31980824
000010 a6 0c 7f 3e e7 09 81 bd 84 80 b5 3d b5 f1 9c 3e
       0.24907169 -0.06300717 0.08862403 0.30653158
000020 73 b5 07 bd 9d 4e 82 3e bd 10 36 bd 8e 4c 43 3e
       -0.033132028 0.25450602 -0.044449557 0.19072172
000030 5b 6a 8c 3e 37 c6 ed 3d 31 95 a8 3e 64 a7 e0 bd
       0.27424893 0.11610072 0.32926324 -0.10969427

decoder.0.weight f4 [128, 16]
000000 fc 66 26 3e 6a fb ef bd d2 e4 a1 3d 61 71 2c be
       0.16250223 -0.11717875 0.07904972 -0.16840126
000010 c4 7d 1f be 8b 99 80 be 1a 12 1a be 8f 3f cb 3b
       -0.1557532 -0.25117144 -0.15045968 0.006202645
000020 86 f6 6c 3e 46 85 41 be 22 e1 6f 3d ba d4 67 bd
       0.23140916 -0.18898496 0.058564313 -0.056599356
000030 ec 13 d6 3d 20 0b 7c be ac 40 df 3d 1c 25 ea bc
       0.104530185 -0.24613619 0.10901007 -0.028582148
000040 fb ee 0f be fc 67 61 3b a6 16 f6 3d ef dc 02 bd
       -0.14056008 0.0034394255 0.120160386 -0.03194898
000050 a3 e3 0e be bc 28 e2 bc c7 15 31 3e 3e 9d 73 3e
       -0.13954024 -0.027607314 0.17293464 0.23790452
000060 e1 e1 45 be 98 0a e1 bd c2 cf da bd 40 34 5c bc
       -0.19324447 -0.10988349 -0.10684158 -0.013440192
000070 49 b0 82 3d 70 61 6d 3e be 25 98 bd 7b c2 4a be
       0.0638128 0.231817 -0.07429074 -0.19800751
000080 a1 0c 00 3e 94 e7 21 be 78 63 f7 3d 2b f2 7a be
       0.12504818 -0.15810996 0.12079519 -0.24506442
000090 19 53 e9 3d bd 7d 08 3e 7b e8 01 be 32 00 23 3e
       0.11392803 0.13329215 -0.1268634 0.15918043
0000a0 48 df 84 be b8 0f 19 be 4c 75 87 be 3b ed a7 bd
       -0.259516 -0.14947402 -0.26456678 -0.08199545
0000b0 ef aa 79 be c7 55 20 be 5b 55 d6 3d c6 a0 8d 3d
       -0.24381612 -0.15657721 0.10465499 0.06915431
0000c0 77 ea a3 be 2f 06 d3 bf da d9 2b 3c b6 e0 bb be
       -0.3201482 -1.6486262 0.010488952 -0.36694878
0000d0 7e 40 50 3d 06 a0 1e bf 97 2e 2e 3e 99 e8 81 3f
       0.050842755 -0.61962926 0.1700996 1.0149108
0000e0 05 2a c9 be ed c3 e1 3e b9 8d 82 be 6b d1 9e 3e
       -0.3928987 0.44094792 -0.2549875 0.31019148
0000f0 e5 12 8e 3f d3 07 3a be a3 73 2a 3f 88 66 69 be
       1.1099516 -0.18167047 0.665827 -0.22793019
000100 fd b3 a1 bd 27 c0 7c 3e ff 33 43 be 86 97 84 be
       -0.07895658 0.24682675 -0.19062804 -0.25896853
000110 0a 27 2c 3e a0 fc 3d bd 16 be 2f bf ac 21 02 bb
       0.16811767 -0.0463835 -0.68649423 -0.0019856496
000120 0f 5b 8c be 9f b5 a7 3e 9f 76 d4 bd bb ed 20 bf
       -0.27413222 0.32755753 -0.10374188 -0.6286275
000130 9f b6 05 bd 4a bd 06 40 bf 2a b8 bd 29 83 06 bf
       -0.032644864 2.1053033 -0.08992528 -0.52543885
000140 5b 79 a1 be e6 fa 67 3e 97 b9 d6 bd 8f c9 14 bf
       -0.315379 0.22654304 -0.10484617 -0.58120054
000150 4a f8 41 be f7 62 b0 be 37 8c 03 3f 98 ba e9 bf
       -0.18942371 -0.34450504 0.51385826 -1.8260069
000160 67 e8 d5 be 8e 3a 83 3f 65 34 a5 be 39 af a9 3f
       -0.4177887 1.0252244 -0.32266536 1.3256599
000170 68 55 b7 be 50 e9 98 3f 24 f2 ed 3e 91 98 ec be
       -0.35807347 1.1946201 0.464738 -0.4621015
000180 80 d6 d7 be e3 f9 a7 bf a6 26 fb be 29 f0 ab be
       -0.42155838 -1.3123134 -0.49052924 -0.33581665
000190 08 dd 02 3f 7b 47 03 3f 4b 8f 7c 3f 65 d0 31 3f
       0.51118517 0.51280946 0.9865615 0.6945861
0001a0 86 25 05 bf 24 fb cd 3e ac 50 7d be 10 c1 cb 3d
       -0.5201038 0.40230668 -0.24737805 0.09948933
0001b0 9a 26 4e 3f 10 c6 49 be 78 6e 06 bd a8 85 1d be
       0.8052765 -0.19704461 -0.032820195 -0.15383017
0001c0 a0 e8 4e 3e 1e ef 0b be d2 4f 6a be c8 49 ca bd
       0.20205927 -0.13665435 -0.22882012 -0.09877354
0001d0 44 96 ce bd 98 fe e8 3d 60 ae 9d bc 12 b3 1c 3e
       -0.10087255 0.11376685 -0.019248188 0.15302685
0001e0 64 54 40 be 48 13 6d 3d 68 db 38 be cc 43 ff bd
       -0.18782192 0.057879716 -0.18052447 -0.12464103
0001f0 88 bb 6b bd b8 14 07 bd 8c e2 42 be 68 3f 22 3e
       -0.05755189 -0.032978743 -0.19031733 0.158445
000200 79 82 0a bf de 88 0b 3e cc f3 06 be 62 b5 68 bf
       -0.54105335 0.1362643 -0.13178939 -0.9090177
000210 33 a5 a8 3f 73 72 e9 3f c0 53 b5 be 96 52 91 bd
       1.3175415 1.8238052 -0.3541546 -0.0709583
000220 88 1f 43 be a3 83 15 be c5 3d fa bd 8c 33 79 be
       -0.19054997 -0.14600997 -0.12218813 -0.2433607
000230 dc 3a 52 bc 34 03 4f 3c e8 2a bd 3d b4 a6 f2 be
       -0.012831416 0.012635041 0.09236699 -0.4739281
000240 2d 10 1f 3e 04 30 89 bd eb b2 25 3e 25 0f 29 bf
       0.15533514 -0.066986114 0.16181533 -0.66038734
000250 48 25 96 bc fd b7 14 3f a4 ea 6c 3d d9 f9 23 3f
       -0.018328324 0.58093244 0.05784096 0.6405311
000260 0f af 37 3e 97 39 2c bf be 85 0e 3f 2c 3c 59 bd
       0.17937873 -0.67275375 0.55672824 -0.0530359
000270 b4 a4 10 bf 56 28 3a 3e 8f 39 8e be 3d 54 9f 3e
       -0.5650132 0.1817945 -0.2777829 0.31118956
000280 3e a7 63 3e 4e 5f 4c 3e c0 55 03 3e f9 a1 d7 be
       0.22231767 0.19958231 0.1282568 -0.42115763
000290 03 cb 4f 3f 68 60 ef be a2 0f 07 3f ba 3f 28 3e
       0.81169146 -0.4675324 0.5275823 0.1643056
0002a0 0d 69 bb 3b 73 5c 05 c0 36 8b a9 3d fe d8 bb 3e
       0.00571931 -2.0837677 0.082785055 0.3668899
0002b0 c5 c6 a4 bd b3 8a 21 3e 8d df 81 3e 3e f4 51 3d
       -0.08045725 0.15775566 0.25365868 0.051258318
0002c0 c0 a7 ff 3b 28 0c 56 3e c8 85 fa bd 28 ba 83 bd
       0.00780198 0.20903075 -0.12232548 -0.06431991
0002d0 2a 0a 62 be 90 8c c2 bd 66 cc 0a 3e 98 35 56 be
       -0.2207419 -0.094994664 0.13554534 -0.20918882
0002e0 58 cb cd 3d 3c 54 35 be 5a 62 6f 3e 06 cd 76 be
       0.1004855 -0.17707914 0.23377362 -0.24101648
0002f0 9c 66 9d 3d 2c 95 86 bd 80 8f 93 3d 50 01 c8 3d
       0.07685587 -0.06571421 0.07205105 0.09765875
000300 49 fe af 3e 2a 65 2e bf 05 2e db 3e 15 3f d1 be
       0.34373692 -0.68123114 0.42808548 -0.4086844
000310 20 60 85 be b6 b9 85 be ef 08 a5 3f 61 69 0f bf
       -0.260499 -0.2611825 1.2893351 -0.5602017
000320 6d 66 00 3e 25 82 d4 3e cb b4 8e 3e 5d c3 c1 bf
       0.12539072 0.41505542 0.2787231 -1.5137745
000330 5f 7c aa bd 03 5c b6 be 07 35 6b 3f 0f 88 5e 3e
       -0.08324503 -0.35617074 0.9187779 0.2173159
000340 1e c4 58 bd 78 77 36 be e5 ab b5 be 7d c1 d9 3d
       -0.052921407 -0.17819011 -0.35482708 0.10632608
000350 1e 92 f3 be 7a 3c c5 bd e8 49 a6 be 3a 9f 1d 3d
       -0.47572416 -0.096306756 -0.3247826 0.03848193
000360 8e 38 2f be 97 c0 0c 40 3c 92 5b bd 69 d4 d2 be
       -0.17111418 2.1992548 -0.053606257 -0.4117768
000370 fd 18 ac bc b6 7c da bc 91 08 26 be 62 12 c7 3c
       -0.02100801 -0.026670795 -0.16214205 0.024300758
000380 77 5a 19 3e ee 76 37 bf 57 0a 49 3d 92 d4 b1 3e
       0.14975916 -0.7166585 0.049082126 0.3473249
000390 03 32 c7 be ae e9 41 3e 56 f8 80 3f 8f 4d 60 3f
       -0.38905343 0.18936798 1.0075786 0.87618345
0003a0 88 87 81 bd cc 81 e3 3d 5f 09 b2 3d 08 80 07 3f
       -0.06324679 0.11108741 0.08693194 0.52929735
0003b0 73 ea 8f bf 31 02 e5 bb e6 a3 ff be 7d 04 56 3e
       -1.1243423 -0.0069887866 -0.49929732 0.2090015
0003c0 a1 ee e1 3d 01 e7 ba 3d 13 7e d2 3e 04 ba 14 3e
       0.11031843 0.09126092 0.41111812 0.14524084
0003d0 f9 81 dc bf 9a 08 74 bf be 97 4f 3f 3c e1 be 3e
       -1.7227165 -0.95325625 0.81090915 0.37281215
0003e0 ab f8 34 3c 86 e2 97 be 1b 69 a5 3e fc ec e6 3e
       0.011045615 -0.2966501 0.32306752 0.4510268
0003f0 b6 39 cb bc 08 8d b9 be b0 22 0a be 0d b1 ab 3e
       -0.024807792 -0.3624041 -0.13489795 0.33533517

decoder.0.bias f4 [128]
000000 5d 54 6c 3e 26 6d 1c be 54 93 e8 3d f8 89 95 bd
       0.23079057 -0.15276012 0.113562256 -0.07301706
000010 06 f4 59 be 62 81 ba be 34 80 03 bf 74 1d db 3d
       -0.21284494 -0.36426836 -0.513675 0.10698977
000020 69 93 0f bf 71 41 ef 3e a9 fd 2e bc 1e 44 4b be
       -0.56084305 0.46729615 -0.0106805945 -0.19850203
000030 76 77 8d 3e c3 0b 68 be 5b 9a 66 3e 6a 1d d8 3e
       0.27630204 -0.22660737 0.2251982 0.4220994
000040 ca 6e 0d be 01 c3 ba 3e b7 31 00 3f 8f b0 bc bb
       -0.13811794 0.364769 0.5007586 -0.005758352
000050 21 1f 84 be 75 a0 43 3e 7c 87 82 be 8c 62 07 3e
       -0.25805 0.19104178 -0.2549399 0.13221186
000060 81 07 0a bf 18 29 06 3f 4c 49 05 3f 50 5f ba 3d
       -0.539177 0.52406454 0.5206497 0.09100211
000070 38 de 3c be 1c 7e ce bd df 4a fa bd 9e aa 95 3c
       -0.18444145 -0.10082647 -0.12221312 0.018269833
000080 4d 05 e7 be 6d a3 11 3f 9c 30 b6 bd a2 38 69 3e
       -0.45121232 0.5688999 -0.0889599 0.2277551
000090 c4 51 47 be 16 52 46 be 6f 8f 98 3e 95 9c 97 3e
       -0.19464785 -0.19367251 0.2979693 0.2961165
0000a0 5e 0f 34 be 2f 25 74 3e 93 46 d2 3e 58 ea 14 3e
       -0.17583987 0.2384231 0.4106947 0.1454252
0000b0 7e 43 60 be f6 7e 09 3e 42 8a 81 bd 1e 4f 96 3d
       -0.21900746 0.13427338 -0.06325199 0.07339309
0000c0 f6 2a da 3e 02 9e 23 bf f7 e7 a7 bd 83 0b 69 3e
       0.42610902 -0.63912976 -0.08198541 0.22758298
0000d0 a9 3e 8a 3e 49 c0 e4 bd ab 35 e6 bd 03 1c 00 3e
       0.2700093 -0.11169488 -0.11240705 0.12510686
0000e0 c2 31 e6 3e 94 05 68 be b2 a2 43 3e 2a 69 ea 3e
       0.44959837 -0.22658378 0.19105032 0.4578336
0000f0 38 7a f5 3d dd 9a 65 3e ef 21 60 3c 87 fc fc 3e
       0.11986202 0.22422357 0.013679965 0.49411413
000100 74 d4 9b bd c0 23 93 3e 77 d5 d1 3d ee f7 e5 3d
       -0.076088816 0.28738213 0.10245793 0.112289295
000110 8d 59 09 3f 0d bb fb 3e 9d cd ea bd 73 07 95 be
       0.5365227 0.49166146 -0.11464999 -0.29107246
000120 7f 6b e9 3e 93 b7 42 3e 7d 6d c6 be f4 51 4b be
       0.45589826 0.1901534 -0.38755408 -0.19855481
000130 f0 e2 1e bf d2 7b 78 be 10 40 07 3f 2c 45 6f bd
       -0.6206503 -0.24265984 0.52832127 -0.058415577
000140 fa 5c 2d be cc f5 09 be 40 c4 97 bc 60 f9 75 be
       -0.16929999 -0.1347267 -0.018526196 -0.2402091
000150 ec a1 dc bd c0 f5 22 3d 32 ac 80 be 44 0d a7 3d
       -0.10773072 0.039785147 -0.25131375 0.08156827
000160 41 67 04 bd 4c 6f 1e 3e a8 7a 9b bc b4 1e 62 bd
       -0.032325033 0.15472144 -0.018979385 -0.055205062
000170 1f 7c c6 3e 70 f3 57 3d b0 42 04 be ca a2 29 3e
       0.38766572 0.052722394 -0.12916064 0.16566005
000180 48 c2 d6 bd 83 f5 bb 3d 44 c3 dd 3d 80 10 7e be
       -0.10486275 0.09177687 0.108282596 -0.24810982
000190 d6 66 0e be 20 14 23 be b9 17 29 be 47 ed ac be
       -0.13906416 -0.15925646 -0.16512956 -0.33774778
0001a0 47 76 d6 3e c4 f4 2b 3e f7 ae 05 be 4e d9 7f 3e
       0.41887113 0.1679259 -0.13055025 0.24985239
0001b0 81 d1 9e bd 54 bc 34 be 7e d0 29 be 19 28 06 bf
       -0.077548034 -0.17649966 -0.1658344 -0.52404934
0001c0 0e 23 0a 3e 8c 47 aa bd c2 bf 73 be 3b 75 10 3f
       0.13489935 -0.08314428 -0.23803619 0.5642888
0001d0 3c 3d 55 be ae 22 70 be 45 c3 9b 3e 7c 4a 2c be
       -0.2082414 -0.23450729 0.30422416 -0.16825289
0001e0 cb fa 66 be ae bd 26 3e a9 76 8f be 95 06 b6 be
       -0.22556607 0.16283295 -0.28020218 -0.35551897
0001f0 cf f2 23 3c 3a 2f 9f 3e 64 03 07 3e c3 71 76 3d
       0.010006621 0.31090719 0.13184887 0.060167085

decoder.4.weight f4 [161, 128]
000000 71 cf ae bc 44 97 80 bc e6 dc 43 3d 42 47 f8 3d
       -0.02133915 -0.01569713 0.047818087 0.12122966
000010 78 9f 0f 3e 3e 39 58 bb ae b9 1a 3e 52 ce 07 3b
       0.14025676 -0.0032993103 0.15109894 0.0020722342
000020 42 b0 8c 3d 99 e0 fb 3e 32 7f bb 3d 57 0d 54 3d
       0.06869556 0.49194792 0.0915512 0.051770534
000030 d0 63 13 3d e9 ec bc 3d c6 60 1d 3f 3a 9a 18 3e
       0.03598386 0.092248745 0.6147579 0.14902583
000040 84 d5 6d 3c bc 8b 0b 3e 7e 2b 0d 3e 27 68 4a 3d
       0.014516238 0.13627523 0.13786122 0.049415734
000050 a9 b2 3f 3e ee b6 f5 3d ce 1a 6a 3e 64 99 0c 3e
       0.18720497 0.11997782 0.22861788 0.13730389
000060 47 6b 8d 3e 12 cd 3a 3e 87 81 e7 3d 2b 16 d1 3f
       0.2762091 0.1824229 0.11304002 1.633489
000070 a4 08 70 3c cf 26 fb 3c 94 96 dc 3d f1 c4 46 3e
       0.014650498 0.030658154 0.10770908 0.19411065
000080 b3 0c 45 3e ad 4c 89 3e 81 d3 4c bd 15 60 0e 3d
       0.19243126 0.2681631 -0.050006393 0.0347596
000090 ab 54 1d bd 47 6b a5 3d 7c 48 09 3e 2c b3 bd 3d
       -0.038410824 0.08077102 0.13406557 0.0926269
0000a0 bd 4d 90 bd 40 a1 ca 3f 21 3e 89 3e 78 7b 0d 3d
       -0.070460774 1.583046 0.26805213 0.034541577
0000b0 c1 1d 33 bc 5a 9e 38 3e 3d 53 99 3d d3 ac 7b 3d
       -0.010932387 0.18029156 0.074865796 0.061444115
0000c0 20 9a 88 3e 01 97 c9 3d 0b 65 0e bd 14 6a 86 bd
       0.26680088 0.09843255 -0.03476433 -0.065632015
0000d0 08 71 d3 3d 51 48 bb 3d ae 13 79 bc e7 ba 27 3e
       0.103242934 0.09144653 -0.015202446 0.16379891
0000e0 a1 5a 16 3e fc 45 3b 3d 67 bc 50 3f 80 33 37 3e
       0.1468301 0.04572104 0.8153748 0.1789074
0000f0 62 30 a2 3d 3d 8a ec 3d 01 83 d6 3d 38 bf 81 3d
       0.079193845 0.11549804 0.10474206 0.063353
000100 35 01 78 3d de 8c 90 3e 68 cb 64 3e e1 bb 80 3e
       0.060548026 0.28232473 0.22343218 0.2514334
000110 ee 4d 98 3e 42 c7 67 3e 84 78 49 3e 46 b9 2f 3e
       0.29746956 0.22634605 0.1967488 0.1716052
000120 7f 78 5e 3e 0c 6d 83 3d 55 50 32 3f a6 ca 94 3e
       0.21725653 0.064172834 0.69653827 0.29060858
000130 fa 27 2d 3f f5 7c 9a bd 10 7d f5 3d fc 34 eb 3d
       0.67639124 -0.07543365 0.119867444 0.11484715
000140 bf aa ae 3d 1c e2 28 3e b0 6f 9b bd bd 6b 41 bd
       0.08528661 0.16492504 -0.07589662 -0.047221888
000150 62 d3 3d 3e 1d 2e b0 3d 6f 69 ac 3d 27 c9 2a 3d
       0.18537667 0.086025454 0.08418547 0.04169574
000160 01 a7 74 3e 7c 76 1c 3d 6d 20 a2 3c 27 ff 15 3e
       0.23891832 0.038198933 0.019790852 0.14648114
000170 c7 17 e3 3d 06 06 67 bd 43 d7 b3 3d 9a 55 2a 3e
       0.110885195 -0.05640223 0.08781292 0.16634217
000180 e2 c0 03 bd b2 ac 9e 3e 2c 13 9a bd d6 8a 8b bd
       -0.03216637 0.3099113 -0.07523188 -0.0681359
000190 00 eb 01 bd 79 60 7b 3d 4b 9d b5 3d ac 96 18 3e
       -0.031718254 0.0613713 0.08867892 0.14901227
0001a0 e7 b5 b6 3e bf 26 1a 3d 93 50 81 3c 14 ca 44 3e
       0.35685655 0.037634607 0.015785491 0.19217712
0001b0 53 a3 26 3e e2 48 a3 3c e9 a7 45 3e 38 65 10 3d
       0.16273241 0.019932214 0.19302334 0.03525278
0001c0 ec 07 f6 3c f2 9f 0f 3e 67 f9 c4 3e ee 3d 3c 3e
       0.030033074 0.14025858 0.3847153 0.18383
0001d0 7e 97 69 3e 20 03 ac 3d d6 86 d7 3d 71 9a 34 3e
       0.22811696 0.083990335 0.10523765 0.1763704
0001e0 92 97 30 3d 49 f0 2c bd d3 5d 20 3e 1b 1f fe 3d
       0.0431133 -0.04222134 0.15660791 0.12408277
0001f0 99 04 5e 3e ae b1 1f 3e 20 30 71 3e 90 87 6e 3f
       0.21681441 0.15595123 0.23553514 0.931756
000200 6d 0a 93 3d 64 d2 43 bd 2e 2d c5 bc fa 88 a9 3c
       0.07179723 -0.047808066 -0.024069395 0.020695198
000210 a4 5d 19 bc 12 0e d3 3a 8a 55 87 3c bc c1 99 3d
       -0.009360705 0.0016102216 0.01652028 0.07507655
000220 db 1e d9 3a b2 25 85 be d7 72 32 3c b4 eb 60 3a
       0.0016564982 -0.26005322 0.010891638 0.00085800444
000230 7c 79 1a bb ed d8 67 bc bc aa 22 3d 07 7c 08 3c
       -0.0023570945 -0.01415084 0.039713606 0.008330352
000240 f4 90 98 bd a2 f3 e9 39 3f a2 8d bb 5d fa 42 bb
       -0.074495226 0.00044622744 -0.0043223198 -0.002975128
000250 65 50 21 3c 24 21 1b 3c a6 5e da bb 21 58 12 bb
       0.009845828 0.009468351 -0.006664115 -0.002233036
000260 d2 4b c2 bd 07 57 ef bc 34 0e 87 3b 1d f4 f7 bd
       -0.09487118 -0.029216303 0.004121566 -0.12107108
000270 b6 20 e2 ba 7d 14 a3 3d 59 55 9a 3c 58 c9 26 bc
       -0.001725218 0.07962892 0.018839525 -0.01017984
000280 11 dd 98 3b 75 da 53 be 7d fe 0e 3d 11 aa 23 3c
       0.004665025 -0.20688803 0.034910668 0.009989277
000290 85 04 33 bd ce cb a2 3d bc 96 5e 3c 40 30 b4 3c
       -0.043705482 0.07949029 0.013585743 0.021995664
0002a0 d9 c1 27 3d 82 7a 4c be 0b 5f ab bc ff f5 a6 3c
       0.040956352 -0.19968608 -0.020919343 0.020380972
0002b0 fb 0e 98 3c 50 f0 86 bc e2 a9 60 bb b6 fa 2b 3c
       0.01856183 -0.016472012 -0.0034280946 0.010496786
0002c0 c1 c8 06 be bd 16 bc 3c 73 ce 78 3d 99 35 a7 bc
       -0.13162519 0.022960061 0.06074376 -0.0204113
0002d0 38 0b dd 3a 25 1e d3 3c ae d7 9d bd b4 12 07 3d
       0.0016864305 0.02577121 -0.07707153 0.03297682
0002e0 2b b9 83 bc e5 14 aa bb 68 39 41 bc 30 a3 f7 3c
       -0.016079506 -0.005190479 -0.011793472 0.030229181
0002f0 55 d3 68 bd 21 f3 c2 bb b8 16 09 ba 82 95 b9 3b
       -0.056842167 -0.0059493934 -0.00052295206 0.0056635747
000300 05 f9 38 bd f2 91 33 bc cb 44 a5 3c a3 b4 93 bd
       -0.04515936 -0.010960089 0.020174405 -0.07212188
000310 24 f2 3d be 9f 0b 93 bd b4 8f 08 be 98 fc 97 bc
       -0.185494 -0.07179951 -0.13336068 -0.018553063
000320 b8 7f e4 bd 98 ab 7c 3c eb e1 c0 bd d4 b1 66 bc
       -0.11157173 0.0154217705 -0.094180904 -0.0140804835
000330 e1 b7 26 be de fa 4a 3d c6 00 da 3a 7f 2b de 3c
       -0.16281082 0.04955565 0.001663231 0.02712035
000340 a5 6f a0 bd fb 80 05 3c 28 31 ae bb 25 00 dd bb
       -0.078337945 0.008148427 -0.0053159185 -0.006744402
000350 e4 5a ab bd 3c 51 ba bc a7 f4 3f bc 39 9b 99 bc
       -0.083669454 -0.022743814 -0.0117160445 -0.018750774
000360 b7 e2 30 be 16 d9 30 bc 01 92 fe 3b 7b 00 0e bd
       -0.17273985 -0.010793945 0.00776887 -0.034668427
000370 64 7e 1b bd 3b ab f8 3b 25 12 81 bd 89 2a 62 bc
       -0.037962332 0.0075887716 -0.06302289 -0.0138040865
000380 6d a4 b9 3c 26 68 ac bd ac ac a5 3d 9e 90 1b bd
       0.022661412 -0.08418302 0.08089575 -0.037979715
000390 c6 52 94 bd fa ff 06 3c 4a d1 58 3c e2 bc 41 bc
       -0.0724235 0.0082397405 0.013233492 -0.011824818
0003a0 b4 e0 88 be e8 ee 34 bd 57 41 a2 bc 55 d7 b4 bd
       -0.26733935 -0.04417315 -0.019806547 -0.08830134
0003b0 86 55 90 bc bd 19 a4 bd 15 18 c0 bd a5 02 ec 3b
       -0.017618906 -0.08012722 -0.09379593 0.0072024637
0003c0 37 57 86 bd 9e b6 99 bc 53 8b d1 bd 40 0a d0 3b
       -0.06559604 -0.018763836 -0.10231652 0.006348878
0003d0 9e 24 d7 3b 6f 2f 84 bc bf b5 ba bc 7b ab 24 3b
       0.0065656444 -0.0161359 -0.022791741 0.0025126624
0003e0 df 05 3e bd 69 67 a5 3d 6d fc 87 3c f8 f2 d3 bd
       -0.046392318 0.080763645 0.016599858 -0.10349077
0003f0 61 4c f0 bc de d3 06 bd 5a c1 39 be b2 6d e9 bd
       -0.029333295 -0.032916896 -0.18140164 -0.11397876

decoder.4.bias f4 [161]
000000 9c 74 e6 3e 32 17 e7 be ce b8 da be 3a fb 33 bf
       0.4501084 -0.45134884 -0.4271912 -0.70305216
000010 30 52 f1 bb 97 52 88 be 77 6a 80 be b0 87 6e 3d
       -0.007364534 -0.2662551 -0.25081226 0.05823487
000020 1d c3 c4 be 02 2e 96 be 7c 24 99 be 12 89 bd be
       -0.3843011 -0.29331976 -0.29910648 -0.3701864
000030 31 fd 36 be 6e 42 69 be 0e 67 a4 be a7 07 a3 be
       -0.17870022 -0.22779247 -0.32109874 -0.31841776
000040 52 46 92 be 41 3f 01 bf a4 f7 0c 3e b1 9e 10 be
       -0.28569275 -0.5048714 0.13766342 -0.14123036
000050 cb 2b fa bd f3 e9 9e bd 98 61 5b be 9a 54 20 be
       -0.12215384 -0.07759466 -0.21423948 -0.15657273
000060 4e f0 a3 bc b6 1f 40 be 44 e4 0d be 66 a9 3a bd
       -0.020012047 -0.18762097 -0.13856608 -0.045571707
000070 68 17 87 be 7a 42 1b bd 67 c9 8b be 3f 27 89 be
       -0.26385045 -0.037905194 -0.27302095 -0.26787755
000080 71 27 a9 be 22 13 39 be 39 c8 a0 be 13 cd 6d be
       -0.33037904 -0.18073705 -0.31402758 -0.23222761
000090 fa 53 3b be 45 09 96 be 63 dc 3f 3c eb 33 da be
       -0.18293753 -0.29303947 0.011710259 -0.42617735
0000a0 09 7a 84 bd 0e 4b 6b 3b ce b8 89 be bf e1 7f be
       -0.06468589 0.003590289 -0.26898807 -0.24988459
0000b0 7d 33 ad be cd 92 a0 be 9b f5 c9 bd 9a f4 e3 be
       -0.33828345 -0.31362 -0.09861299 -0.44522554
0000c0 5e 0b 66 be 58 99 01 be ef 38 58 bd 26 5d 1b be
       -0.22465274 -0.12656152 -0.05278867 -0.15172252
0000d0 d8 8b 26 3e 1c 76 f6 be a8 bd 22 3e f8 56 83 be
       0.16264284 -0.48136985 0.1589266 -0.2565229
0000e0 d3 08 cc 3c d4 5c 90 bd 86 37 ac be 03 97 bd be
       0.024906551 -0.070489556 -0.3363611 -0.37029275
0000f0 17 59 17 be cb 05 a3 be 5f fe 42 be 8f 48 1e be
       -0.14780079 -0.31840357 -0.19042347 -0.15457366
000100 de 68 f8 be 89 02 98 be bb eb 29 bf 21 52 a6 be
       -0.48517507 -0.29689434 -0.6637532 -0.32484534
000110 e0 a7 03 bf 3f 4f a0 be fe b6 f3 be 1c 37 b9 be
       -0.5142803 -0.3131046 -0.4760055 -0.36174858
000120 fd 2f af be 85 17 9e be 73 40 93 be 98 c3 ef be
       -0.342163 -0.3087732 -0.28760108 -0.46828914
000130 4f e5 11 be d5 80 8f be d6 b1 12 be da 9a 80 be
       -0.1424763 -0.2802798 -0.14325652 -0.25118142
000140 ad 9c 58 be e0 30 90 be 2e dd e4 bd de cb e7 be
       -0.21153517 -0.2816229 -0.11174999 -0.45272726
000150 7e d2 3d be f5 26 c8 be 59 97 2f be b7 3c a2 be
       -0.18537328 -0.39092222 -0.17147578 -0.31686947
000160 b5 9f 7b be 2e c4 f2 be 36 dc 79 be a0 14 b8 be
       -0.24572642 -0.47415298 -0.2440041 -0.35953236
000170 1d 98 65 be 71 a7 d9 be 34 a7 77 be e4 59 0f bf
       -0.22421308 -0.4251056 -0.24184877 -0.5599654
000180 78 4d bd be 5d d8 d0 be c5 74 91 be 6d d6 d4 be
       -0.36973166 -0.40790072 -0.284094 -0.41569844
000190 11 8a d5 be 68 cd f9 be a9 9c f7 be 37 aa fc be
       -0.417069 -0.48789525 -0.4836171 -0.49348614
0001a0 0d 95 cc be 19 ae f3 be 8a 30 d0 be d4 4e 0e bf
       -0.39957467 -0.47593763 -0.40662032 -0.5558903
0001b0 8e 72 ef be bf 87 06 bf 4e ef 07 bf cf d3 00 bf
       -0.46767086 -0.5255088 -0.53099525 -0.50323194
0001c0 9b 97 10 bf c9 2a 10 bf 8c be de be 4d 12 19 bf
       -0.5648133 -0.56315285 -0.4350475 -0.5979355
0001d0 24 74 db be 30 14 d8 be ec aa 13 bf 7a 06 16 bf
       -0.42862046 -0.42202902 -0.5768268 -0.5860363
0001e0 d4 5e 10 bf f0 85 e2 be a2 84 0b bf bf 05 07 bf
       -0.56394696 -0.4424281 -0.54499257 -0.5274314
0001f0 a8 0c 13 bf 04 b4 e5 be a8 00 e4 be c0 84 05 bf
       -0.57441187 -0.44863904 -0.4453175 -0.52155685
000200 6a 6e 07 bf 34 67 12 bf 7b cf e4 be d8 3b 0f bf
       -0.52902853 -0.57188725 -0.44689545 -0.5595069
000210 2a de fc be 15 10 d8 be 0c 13 ee be ad b2 fd be
       -0.49388248 -0.4219977 -0.46498907 -0.4955038
000220 ff ad 0c bf 61 c7 0f bf ed 72 15 bf f9 ce 0c bf
       -0.54952997 -0.56163603 -0.5837849 -0.55003315
000230 b6 d2 06 bf 1e 83 e3 be d7 dc 00 bf 44 8c 01 bf
       -0.5266527 -0.44435972 -0.50336975 -0.50604653
000240 48 30 11 bf 05 13 14 bf f0 bd 0f bf db f3 0e bf
       -0.56714296 -0.5784152 -0.56149197 -0.55840844
000250 b6 db 06 bf a8 4b f3 be 45 ed 18 bf e5 79 f5 be
       -0.52679 -0.4751866 -0.59737045 -0.4794456
000260 18 89 e6 be 6c c7 de be 98 e0 00 bf 64 9a 09 bf
       -0.4502647 -0.43511522 -0.503427 -0.53751206
000270 d1 9d 11 bf 36 ce ed be b2 ab 0a bf 46 0b ff be
       -0.56881434 -0.4644639 -0.54168236 -0.49813288
000280 5c 8f ef be
       -0.46789062
