rl-manager/mnt/autoencoders/AE_16_BN.pth (torch, 194796 bytes, 20 tensors)

encoder.0.weight f4 [128, 161]
0	0xbc55a50d	-0.013039839
1	0x3b89ce81	0.0042055254
2	0x3cb6d738	0.022319421
3	0xbd5ec6a5	-0.05438866
4	0x3d9fbdee	0.07799898
5	0x3d2ec3bf	0.042667147
6	0x3c9f9bc8	0.019483462
7	0x3d3665ac	0.044530556
8	0xbc9cbd8f	-0.019133357
9	0xbd647a05	-0.05578043
10	0xbd4c5176	-0.049882375
11	0xbc8dc70c	-0.017306827
12	0xbd478d7c	-0.048718914
13	0x3d06294f	0.03275424
14	0xbcfd3914	-0.030911006
15	0xbc3362eb	-0.010948877
16	0xbbaa5976	-0.005198653
17	0xbc8d3a04	-0.017239578
18	0xbd4cfe02	-0.05004693
19	0x3d4e1350	0.050311387
20	0x3d949cde	0.072564825
21	0x3d29ba66	0.04143753
22	0x3d6c2a8d	0.057657767
23	0x3d57c47b	0.052677613
24	0xbd875fdd	-0.06610081
25	0xbcf4abe7	-0.029867126
26	0xbd2377bd	-0.039909113
27	0x3d976748	0.07392746
28	0xbd7efed0	-0.062254727
29	0x3d14cf15	0.0363303
30	0xbd49d73d	-0.049277533
31	0x3d6ee23c	0.058321223
32	0x3d58c8e2	0.05292595
33	0xbd9174ca	-0.07102354
34	0xbb13b8d9	-0.0022540598
35	0x3d2249e4	0.03962125
36	0x3c27b2db	0.010235514
37	0xbd7713f1	-0.060321752
38	0x3d378e6f	0.04481357
39	0x3a5493f8	0.0008109207
40	0x3c92a0f8	0.017899022
41	0xb9bbcbff	-0.00035819408
42	0xbd2ec698	-0.042669863
43	0xbbab4985	-0.00522727
44	0xbd5fb976	-0.05462023
45	0x3cdf7b3e	0.027280446
46	0xbd00ff83	-0.031493675
47	0xbc9250c3	-0.017860776
48	0xbd9a864d	-0.07545147
49	0x3d833884	0.06407264
50	0xbd8a139f	-0.06742024
51	0xbb87afa7	-0.0041408124
52	0xbca1e0a9	-0.019760447
53	0x3d78f540	0.060780764
54	0xbc6a2bc7	-0.014292664
55	0xbd55bfe3	-0.05218495
56	0xbd9d9a0b	-0.07695397
57	0xbb34e85d	-0.002760432
58	0x3c97fb1a	0.018552352
59	0x3d2fba2c	0.042902157
60	0xbd84e910	-0.06489766
61	0x3d9d4623	0.07679393
62	0xbd0e43b2	-0.034732528
63	0xbd9deb99	-0.07710952
64	0xbd2f4bd3	-0.04279692
65	0xbcb1a5b7	-0.021685464
66	0x3d044e8b	0.032301467
67	0x3b335502	0.00273639
68	0x3c571fef	0.013130172
69	0x3d1406f6	0.03613945
70	0x3d1c47bf	0.03815436
71	0xba53d631	-0.0008080928
72	0x3d470bb1	0.048595134
73	0xbce9e244	-0.028550275
74	0xbcd5a420	-0.026079237
75	0x3d3b7567	0.04576626
76	0x3d891c4d	0.06694851
77	0x3d9b66f9	0.07588
78	0xb921c4ff	-0.00015427543
79	0xbcd561e7	-0.02604766
80	0x3d770d13	0.060315203
81	0xbd9042c8	-0.070439875
82	0x3d9488b4	0.072526366
83	0x3ce3b3fa	0.02779578
84	0xbd5db389	-0.054126296
85	0xbd43f27b	-0.04783867
86	0x3d5db235	0.05412503
87	0xbd3f28e4	-0.046669856
88	0xbc764b47	-0.015032596
89	0xbc6f2520	-0.014596254
90	0x3d229cca	0.039700307
91	0xbc0e582d	-0.008688015
92	0x3d948fd7	0.07253998
93	0xbd4b674d	-0.049659062
94	0x3d5950dd	0.053055633
95	0xbd49f2b7	-0.049303737
96	0xbd436b2e	-0.047709636
97	0x3d98f12e	0.074678764
98	0x3cef201f	0.029190121
99	0x3cac300a	0.021019
100	0xbd2de3a1	-0.042453412
101	0x3d103fb4	0.035217002
102	0x3cc381ff	0.023865698
103	0xbd71d673	-0.059042405
104	0x3be5095e	0.006989642
105	0x3cb1d66c	0.02170869
106	0x3d8f3cee	0.06994043
107	0x3d79d301	0.060992245
108	0xbc26093d	-0.0101340385
109	0xbd6cdd02	-0.057827957
110	0xbd6edb69	-0.058314715
111	0x3d9d8c89	0.076928206
112	0x3d73c615	0.059515078
113	0xbd0a13ed	-0.03371041
114	0x3d291348	0.041278154
115	0x3d4e20e1	0.050324325
116	0xbd72484d	-0.059150983
117	0xbb7ad714	-0.003827517
118	0xbd8ce267	-0.0687912
119	0xbd813549	-0.063089915
120	0xbd233ddf	-0.039853927
121	0x3d6a7f95	0.057250578
122	0xbc37d8bc	-0.011221107
123	0xbcc6decf	-0.024276165
124	0x3d992538	0.07477802
125	0xbd83e213	-0.064396046
126	0xbc3cc988	-0.011522658
127	0x3b76de42	0.0037669097
128	0xbd1d1344	-0.03834845
129	0xbbd2877c	-0.0064248424
130	0xbce6323f	-0.028100131
131	0x3d4f7061	0.050644282
132	0xbc10bf4c	-0.008834671
133	0x3d96de90	0.07366669
134	0xbd84f6f9	-0.06492419
135	0x3d2ce6f6	0.04221245
136	0xbd8c998e	-0.06865226
137	0x3cdc5850	0.02689758
138	0x3c639fd2	0.013893085
139	0xbd8855b4	-0.066569716
140	0x3d577a31	0.052606765
141	0xbceb570b	-0.028728029
142	0xbbb9b12a	-0.0056668716
143	0x3c404c19	0.011736893
144	0x3c8a1bf9	0.016859042
145	0x3d3a60ce	0.045502476
146	0x3d76191d	0.060082544
147	0xbd99ff7b	-0.07519432
148	0xbd2f89f0	-0.042856157
149	0x3d6c8cf5	0.057751615
150	0x3d65890f	0.056038912
151	0x3be30c17	0.0069289315
152	0xbd8cb3f1	-0.068702586
153	0xbcefc642	-0.029269341
154	0x3d8ed054	0.06973329
155	0xbb9e8171	-0.004837208
156	0xbd525b91	-0.051356856
157	0xbd98ee8a	-0.07467373
158	0xbd768474	-0.06018491
159	0x3d13c74d	0.03607874
160	0xbd4e4c46	-0.05036571
161	0x3e512fe7	0.2042843
162	0x3dc6680c	0.09687814
163	0x3e619f40	0.22033405
164	0xbf7befaa	-0.98412573
165	0x3ecc781a	0.3993538
166	0xbe8acc08	-0.27108788
167	0xbefba2a1	-0.49147514
168	0x3f859703	1.043671
169	0x3f181726	0.5941032
170	0xbe50125d	-0.20319505
171	0x3e0e2d74	0.13884526
172	0xbf5cfb3c	-0.86320853
173	0x3e066c9e	0.13127372
174	0x3f1d6f9a	0.61498415
175	0xbd5312e3	-0.051531684
176	0x3e8fb044	0.28064167
177	0xbd753697	-0.059866514
178	0xbf1397db	-0.5765359
179	0x3e9ee94a	0.3103736
180	0x3f78ae2c	0.97140765
181	0x3cfb13cd	0.03064909
182	0xbea16d1d	-0.3152856
183	0x3ea1cb39	0.3160036
184	0xbed59f8e	-0.41723293
185	0x3e5e26c0	0.2169447
186	0x3e617519	0.22017325
187	0x3f0680fe	0.52540576
188	0x3e9e511c	0.30921257
189	0xbe82eadd	-0.2556981
190	0xbeefc4e1	-0.46829894
191	0x3dddd3f0	0.108314395
192	0xbe1cf690	-0.15328431
193	0x3e5950ef	0.2122228
194	0xbedc4488	-0.43021035
195	0x3c5f14a0	0.013615757
196	0x3eacf575	0.3378102
197	0x3eea8fe4	0.45812905
198	0xbdd5a992	-0.104327336
199	0xbdc2a1a2	-0.09503485
200	0xbcaf82f2	-0.021424744
201	0x3d2343e5	0.03985967
202	0xbe971a57	-0.29512283
203	0x3f25c818	0.64758444
204	0xbe96410e	-0.29346508
205	0x3f26f4db	0.6521737
206	0xbd5019c4	-0.050805822
207	0xbf803ce1	-1.0018579
208	0x3ecf2440	0.40457344
209	0xbf01f259	-0.5076042
210	0x3e5bb1e1	0.21454574
211	0xbe3336fc	-0.17501444
212	0xbca833fa	-0.020532597
213	0x3ebaefe4	0.36511147
214	0xbe142614	-0.1446765
215	0x3f0a0f39	0.5392948
216	0x3e11ea7a	0.14249602
217	0x3e39066a	0.18068853
218	0x3e52a42a	0.20570436
219	0x3eae0d59	0.33994558
220	0xbec446dc	-0.3833531
221	0x3eb1ce20	0.34727573
222	0x3e6ced8f	0.23137496
223	0xbdd4c3cf	-0.1038891
224	0x3d8b2404	0.06793979
225	0xbf3d5a53	-0.7396595
226	0x3ea81f7d	0.32836524
227	0xbf5b6728	-0.8570428
228	0x3e944c96	0.2896468
229	0xbe5d84d7	-0.21632706
230	0x3e968060	0.29394817
231	0x3e1774b5	0.14790614
232	0x3d396f54	0.045272186
233	0x3e1f9bf4	0.15586835
234	0x3d19474a	0.037421502
235	0xbe0fd95a	-0.14047757
236	0x3e1f4ba2	0.15556195
237	0xbea3cbbf	-0.31991383
238	0x3e5f4df1	0.21807076
239	0xbf104f5e	-0.56371105
240	0x3da298c1	0.07939292
241	0xbe934b91	-0.2876859
242	0xbd17df3a	-0.03707812
243	0xbd7a2dc5	-0.061078805
244	0x3dd44b75	0.10365955
245	0x3dd62ca9	0.10457737
246	0x3e2d81a6	0.16943988
247	0x3cf667da	0.030078817
248	0x3e2e9b68	0.1705147
249	0xbd907217	-0.07053011
250	0x3dc2bf5f	0.095091574
251	0xbcde271e	-0.027118262
252	0x3e317774	0.17330724
253	0x3cb1be06	0.021697056
254	0x3c8a36eb	0.01687189
255	0x3d3a4731	0.04547805

encoder.0.bias f4 [128]
0	0xbd98a0c0	-0.07452536
1	0x3e50c34d	0.20387001
2	0x3e65e347	0.2244998
3	0xbdb101b7	-0.08642905
4	0xbd81e9a0	-0.063433886
5	0x3db269bf	0.08711576
6	0xbd541bab	-0.0517842
7	0x3d7c554f	0.061604794
8	0xbc5e9d48	-0.013587303
9	0xbd9a897f	-0.075457565
10	0xbd738c4b	-0.059459966
11	0x3cca3f85	0.024688492
12	0x3dcb4930	0.09926069
13	0xbd7d73be	-0.06187796
14	0x3e34407d	0.17602725
15	0x3e88af4b	0.26696238
16	0xbd95cab3	-0.073140524
17	0x3de89506	0.11356549
18	0x3e61c164	0.22046429
19	0x3dd2b13e	0.102877125
20	0x3e0e6059	0.13903941
21	0x3e2c5ec3	0.16833024
22	0x3db37c2c	0.08763918
23	0x3e7f8dce	0.24956438
24	0x3d56f500	0.052479744
25	0x3dfa8bde	0.12233709
26	0xbbf1f98f	-0.007384486
27	0x3d956bfd	0.07295988
28	0xbdcb3ac1	-0.09923316
29	0xbd97b138	-0.07406849
30	0xbcc76a90	-0.024342805
31	0xbd057461	-0.03258169
32	0x3e5b2193	0.21399526
33	0x3cd480f5	0.025940398
34	0x3dae95c6	0.08524661
35	0xbd94e0b1	-0.07269419
36	0x3e746e96	0.2387031
37	0xbd2dda07	-0.042444255
38	0xbdb0c59f	-0.08631443
39	0xbd26c2ed	-0.04071324
40	0xbd31074a	-0.043219842
41	0x3dec855d	0.115488745
42	0xbd6df82d	-0.058098007
43	0x3da2baf5	0.079458155
44	0x3d9d151d	0.07670043
45	0x3e118ee6	0.14214668
46	0x3d9d58cb	0.076829515
47	0x3d84daf1	0.06487072
48	0xbd53ac47	-0.05167797
49	0xbd29bb4e	-0.041438393
50	0x3cfe3a8e	0.03103378
51	0x3d8b223d	0.0679364
52	0x3e34fd25	0.17674692
53	0xbd88328d	-0.06650267
54	0x3e5b5fcd	0.21423264
55	0xbd9762a0	-0.07391858
56	0xbbf0ebb9	-0.007352319
57	0xbdc14e71	-0.0943879
58	0xbd980e9e	-0.07424663
59	0x3e139240	0.14411259
60	0x3e753f37	0.23949896
61	0x3dfa474d	0.12220631
62	0x3ba25e34	0.0049550775
63	0x3da6303b	0.08114668
64	0x3d8d840f	0.06909954
65	0xbd684879	-0.05670974
66	0x3ddd91db	0.10818835
67	0xbd23bcdb	-0.03997503
68	0x3e00102f	0.12506174
69	0x3e81d8af	0.2536063
70	0x3e0fa741	0.14028646
71	0xbd698b12	-0.057017393
72	0xbd934ee7	-0.07192784
73	0x3e04dc56	0.12974676
74	0xbccf3da0	-0.02529794
75	0xbcadcb9c	-0.021215253
76	0xbd6ff692	-0.058584757
77	0xbd816d2d	-0.06319652
78	0x3e2eb34f	0.17060588
79	0x3e8533c3	0.26016054
80	0xbdf7a034	-0.12091103
81	0xbd9db04b	-0.07699641
82	0xbd56f1b9	-0.05247662
83	0xbd4346b7	-0.04767486
84	0xbd989de2	-0.07451989
85	0xbc8a38f5	-0.016872862
86	0xbdcff4f2	-0.101541415
87	0xbc4ca200	-0.012489796
88	0x3e1c4ded	0.15264101
89	0x3d20a7fb	0.0392227
90	0xbd95f72b	-0.07322534
91	0x3e4df380	0.20112419
92	0x3c156a95	0.009119649
93	0xbd273581	-0.04082251
94	0xbd852037	-0.06500285
95	0xbd19d3da	-0.037555553
96	0x3e141f4b	0.14465062
97	0xbcf65abf	-0.030072568
98	0x3e2c414f	0.16821788
99	0xbc9951c0	-0.01871574
100	0xbd5e7787	-0.05431321
101	0xbc4de6d4	-0.012567241
102	0xbd2caea4	-0.042158738
103	0xbd9deba4	-0.077109605
104	0xbc12c0ac	-0.008957069
105	0xbcb86b99	-0.022512244
106	0x3d12a57c	0.03580235
107	0x3a302201	0.0006718934
108	0xbca70115	-0.020386258
109	0x3d42e51e	0.047581784
110	0xbbe10321	-0.006866828
111	0xbd87e65e	-0.06635736
112	0x3e6b2d61	0.2296653
113	0xbd9ae38b	-0.075629316
114	0x3e232031	0.15930249
115	0xbd769e82	-0.06020976
116	0x3e3758b9	0.17904939
117	0x388dbeaa	6.758918e-05
118	0xbd16269c	-0.036657915
119	0x3e090c0c	0.13383502
120	0x3dccb7f6	0.09996025
121	0x3e185c09	0.14878859
122	0x3e78072f	0.2422149
123	0xbcaa228b	-0.020768424
124	0xbd92852b	-0.07154306
125	0xbcacf3fb	-0.021112433
126	0x3d0aa1bd	0.033845652
127	0x3e3b614a	0.18298832

encoder.2.weight f4 [128]
0	0x3f800000	1.0
1	0x3f565759	0.8372703
2	0x3f6b0db1	0.91817766
3	0x3f791204	0.97293115
4	0x3f800000	1.0
5	0x3f547c1d	0.8300188
6	0x3f7e0227	0.99222034
7	0x3f589833	0.8460724
8	0x3f55bb17	0.834886
9	0x3f800000	1.0
10	0x3f800000	1.0
11	0x3f7d2262	0.9888059
12	0x3fbd98d0	1.481226
13	0x3f800000	1.0
14	0x3f931b99	1.1492797
15	0x3f78318d	0.9695061
16	0x3f800000	1.0
17	0x3eee4fa2	0.4654513
18	0x3f74733b	0.9548833
19	0x3fa37e6b	1.2772955
20	0x3f0da2ee	0.55326736
21	0x3fc3e8e8	1.5305452
22	0x3fa24a35	1.2678896
23	0x3f507c9d	0.81440145
24	0x3f6335f0	0.8875418
25	0x3f21c6ab	0.6319377
26	0x3f800000	1.0
27	0x3faa6119	1.3310882
28	0x3f113e49	0.56735665
29	0x3f800000	1.0
30	0x3f800000	1.0
31	0x3f8006b3	1.0002044
32	0x3f609601	0.8772889
33	0x3f7de241	0.9917336
34	0x3f73047e	0.9492873
35	0x3f800000	1.0
36	0x3f8ab92a	1.0837758
37	0x3f7efef9	0.9960781
38	0x3f81fc11	1.015505
39	0x3f7ad8da	0.9798714
40	0x3f7a7ab2	0.9784347
41	0x3f803a6a	1.0017827
42	0x3f7c3c16	0.98529184
43	0x3fc7bdb3	1.5604767
44	0x3fb29f72	1.3954909
45	0x3f9c8d08	1.2230539
46	0x3f9531f4	1.165587
47	0x3f37caf8	0.7179408
48	0x3f800000	1.0
49	0x3f800000	1.0
50	0x3f7d88d0	0.99036884
51	0x3f92ce86	1.1469276
52	0x3f909b2b	1.1297354
53	0x3f7e4577	0.99324745
54	0x3f444677	0.7667002
55	0x3f800000	1.0
56	0x3f7ed535	0.9954408
57	0x3f79bcb7	0.9755358
58	0x3f800000	1.0
59	0x3f1d5fcf	0.6147432
60	0x3faf3a3a	1.3689644
61	0x3f65a595	0.89705783
62	0x3f800000	1.0
63	0x3f7b0869	0.9805971
64	0x3f66b902	0.9012605
65	0x3f7ea811	0.994752
66	0x3f4cd663	0.8001463
67	0x3f800000	1.0
68	0x3f6b18e4	0.91834855
69	0x3fcf65d6	1.6202953
70	0x3fd00308	1.6250925
71	0x3f800000	1.0
72	0x3f7d9435	0.9905427
73	0x3f1f1bb1	0.6215163
74	0x3f800000	1.0
75	0x3f800000	1.0
76	0x3f7d9d16	0.9906782
77	0x3f800000	1.0
78	0x3f734f48	0.9504285
79	0x3fe2e2f0	1.7725506
80	0x3f472882	0.77796185
81	0x3f800000	1.0
82	0x3f800000	1.0
83	0x3f81547f	1.0103911
84	0x3f800000	1.0
85	0x3f800000	1.0
86	0x3f7aec5a	0.98016894
87	0x3fbd19d9	1.4773513
88	0x3feb7647	1.839547
89	0x3f8a1fb7	1.0790929
90	0x3f7b47bf	0.9815635
91	0x3f2c5ac4	0.67326
92	0x3f0c2881	0.54749304
93	0x3f7e258b	0.99276036
94	0x3f800000	1.0
95	0x3f7d9207	0.99050945
96	0x3f031bc5	0.5121425
97	0x3f9af6a4	1.2106519
98	0x3f9db14a	1.2319729
99	0x3f800000	1.0
100	0x3f800000	1.0
101	0x3f771803	0.96521014
102	0x3f800000	1.0
103	0x3f800000	1.0
104	0x3f800000	1.0
105	0x3f812e15	1.0092188
106	0x3f7f1472	0.9964057
107	0x3f800000	1.0
108	0x3f7f74a4	0.99787354
109	0x3f32db0b	0.69865483
110	0x3f4d881c	0.8028581
111	0x3f800000	1.0
112	0x3f651541	0.89485556
113	0x3f800000	1.0
114	0x3f414880	0.7550125
115	0x3f823383	1.017197
116	0x3f9215ac	1.1412864
117	0x3f8670c8	1.0503168
118	0x3f800000	1.0
119	0x3f270497	0.6524138
120	0x3f99b418	1.2008085
121	0x3f75f870	0.9608221
122	0x3f342700	0.7037201
123	0x3f7a909f	0.97876924
124	0x3f800000	1.0
125	0x3f7e66fc	0.9937589
126	0x3f7e82f0	0.99418545
127	0x3f1b769e	0.6072787

encoder.2.bias f4 [128]
0	0x3fcf960b	1.6217664
1	0xbe1a6120	-0.15076113
2	0x3d088977	0.03333422
3	0x3e4328b9	0.19058503
4	0x3f279cc1	0.6547356
5	0x3d4ce0ae	0.05001896
6	0xbf57b82e	-0.8426541
7	0xbea67855	-0.3251368
8	0x3ed4e576	0.41581315
9	0xbf905c67	-1.1278199
10	0x3f483763	0.78209513
11	0xbdfa1390	-0.122107625
12	0x3ea48e68	0.32139897
13	0x3faa746e	1.3316782
14	0xbe3f7ff1	-0.1870115
15	0xbea67533	-0.3251129
16	0x3fc66ce1	1.5501977
17	0xbe0f6333	-0.14002685
18	0x3de6924d	0.112583734
19	0xbc991b12	-0.018689666
20	0x3d7d3ab2	0.061823554
21	0x3e4e2df6	0.2013472
22	0xbe4f0722	-0.20217565
23	0x3e23a975	0.15982611
24	0xbeaf2214	-0.34205687
25	0x3e19b7a0	0.15011454
26	0x3f291a78	0.66056013
27	0x3e19a198	0.1500305
28	0x3eac3f88	0.3364222
29	0x3faedca7	1.3661088
30	0xbfa1503d	-1.2602612
31	0xbe71215e	-0.23547885
32	0xbe5e04e6	-0.21681556
33	0x3e4e0ecb	0.2012283
34	0xbeb991e0	-0.36244106
35	0x3f9d28e5	1.2278105
36	0xbee6a26a	-0.45045787
37	0x3e829c14	0.25509703
38	0x3e3f9232	0.18708113
39	0x3f427fbc	0.7597616
40	0xbea9a1dc	-0.331313
41	0xbd0126f3	-0.031531285
42	0x3f8945ad	1.0724388
43	0xbdfea4a1	-0.12433744
44	0x3e0e0fa1	0.1387315
45	0x3e2d8c09	0.1694795
46	0xbc24307e	-0.010021327
47	0xbe133133	-0.14374237
48	0x3fa73272	1.306227
49	0xbf73d0b9	-0.9524036
50	0x3f8ac3ef	1.0841044
51	0xbdb12127	-0.086489014
52	0x3e766618	0.24062383
53	0xbe94b5c5	-0.2904493
54	0x3e35f07c	0.17767519
55	0xbf7e00ce	-0.9921998
56	0x3de2ff06	0.11083798
57	0x3f77d963	0.9681608
58	0xbfc48678	-1.5353537
59	0xbe85c09d	-0.26123515
60	0x3e719970	0.23593688
61	0xbef2e5a9	-0.47440842
62	0x3f9e54df	1.2369651
63	0x3e4abd91	0.19798876
64	0x3eaee0a9	0.34155777
65	0xbf229fa4	-0.6352484
66	0x3e2f5e03	0.17125706
67	0xbbe235b0	-0.0069033727
68	0xbd9c10f4	-0.07620421
69	0x3c3c0484	0.011475686
70	0xbe0add3d	-0.13560958
71	0x3e9ce6b1	0.30644754
72	0xbf668f6f	-0.9006261
73	0xbe3d2d6e	-0.18474361
74	0xbf787ea8	-0.9706826
75	0x3f2429eb	0.6412646
76	0xbe8dc086	-0.27685946
77	0xbf96f69a	-1.1794007
78	0x3c6bb667	0.01438675
79	0x3ec9aa54	0.39387763
80	0x3e8f7e13	0.28025874
81	0x3ea434ac	0.32071435
82	0x3fb28251	1.394602
83	0xbd476330	-0.048678577
84	0xbfb17785	-1.38646
85	0x3f6fd025	0.9367698
86	0xbe20a431	-0.15687634
87	0xbedde7e7	-0.4334099
88	0x3e8e423e	0.27784914
89	0x3ea11f21	0.31469062
90	0x3f48b60a	0.7840277
91	0x3daf00d0	0.08545077
92	0x3e9e3922	0.30902964
93	0x3ef7f07d	0.48425665
94	0x3fa719ad	1.3054711
95	0xbeec8794	-0.46197188
96	0x3e6e75f5	0.23287185
97	0xbe6a6f25	-0.22893961
98	0xbd9139da	-0.070911124
99	0xbfb137bb	-1.3845133
100	0x3f378bd0	0.7169771
101	0x3f36122e	0.7112149
102	0x3f7c6872	0.9859687
103	0x3fa69d61	1.3016778
104	0xbf8f35f5	-1.1188341
105	0xbda64fac	-0.08120665
106	0xbdfd36af	-0.12363946
107	0x3fa8b8fa	1.318145
108	0xbf5ea0eb	-0.8696429
109	0x3dce0896	0.100602314
110	0xbdafbea8	-0.08581287
111	0x3f96ed6c	1.1791205
112	0x3ec24823	0.3794566
113	0x3fb44643	1.4083942
114	0x3e6c84da	0.23097554
115	0x3e5e5ac3	0.2171431
116	0xbe701580	-0.23445702
117	0x3e7510e3	0.23932223
118	0x3fca2ef0	1.5795574
119	0xbe3ae3eb	-0.18251006
120	0xbe82ed99	-0.25571898
121	0xbdf205e3	-0.11817529
122	0x3e49981a	0.19686928
123	0x3f89d7c3	1.076897
124	0x3f1c234a	0.60991347
125	0x3ce18303	0.027528292
126	0xbe4a21a8	-0.19739401
127	0xbecc99ca	-0.39961082

encoder.2.running_mean f4 [128]
0	0x00000000	0.0
1	0x3ee3993a	0.4445284
2	0x3ea9ce75	0.33165327
3	0x00000004	6e-45
4	0x00000000	0.0
5	0x3dc13aef	0.09435069
6	0x00000004	6e-45
7	0x3eb71216	0.35755986
8	0x3df97f59	0.12182493
9	0x00000000	0.0
10	0x00000000	0.0
11	0x00000004	6e-45
12	0x3d8f52a7	0.069981866
13	0x00000000	0.0
14	0x3ec828d5	0.39093652
15	0x3ed0c811	0.4077764
16	0x00000000	0.0
17	0x3ecec029	0.40380982
18	0x3e98bf81	0.29833606
19	0x3f066165	0.5249236
20	0x3e9d414e	0.30713886
21	0x3ece9be8	0.40353322
22	0x3de030aa	0.10946782
23	0x3ee7d148	0.45276856
24	0x3e993229	0.29921082
25	0x3dd38142	0.10327388
26	0x00000000	0.0
27	0x3dadfdf5	0.08495704
28	0x3d71cbb3	0.059032153
29	0x00000000	0.0
30	0x00000000	0.0
31	0x3dbccc02	0.09218599
32	0x3e96216c	0.29322374
33	0x00000004	6e-45
34	0x3d332ec5	0.043745775
35	0x00000000	0.0
36	0x3ebba98d	0.36652794
37	0x00000004	6e-45
38	0x00000004	6e-45
39	0x00000004	6e-45
40	0x00000004	6e-45
41	0x3d782bb1	0.060588542
42	0x00000004	6e-45
43	0x3e7b8422	0.24562123
44	0x3d45a6b4	0.048254684
45	0x3eb80d5c	0.35947692
46	0x3efd1499	0.49429777
47	0x3eefa67f	0.46806714
48	0x00000000	0.0
49	0x00000000	0.0
50	0x00000004	6e-45
51	0x3eb33241	0.34999278
52	0x3f04341e	0.51642025
53	0x00000004	6e-45
54	0x3ed505cd	0.41605988
55	0x00000000	0.0
56	0x00000004	6e-45
57	0x00000004	6e-45
58	0x00000000	0.0
59	0x3e9da875	0.30792585
60	0x3e962ce7	0.29331133
61	0x3ed2957a	0.41129667
62	0x00000000	0.0
63	0x3d5bb022	0.05363477
64	0x3ead8ea1	0.3389788
65	0x00000004	6e-45
66	0x3ea80c2e	0.32821792
67	0x00000000	0.0
68	0x3e9bbe4e	0.30418628
69	0x3f1cf004	0.61303735
70	0x3ef93131	0.48670343
71	0x00000000	0.0
72	0x00000004	6e-45
73	0x3ebee113	0.37281093
74	0x00000000	0.0
75	0x00000000	0.0
76	0x00000004	6e-45
77	0x00000000	0.0
78	0x3ef1e010	0.4724126
79	0x3ed5b28b	0.4173778
80	0x3d58df46	0.052947305
81	0x00000000	0.0
82	0x00000000	0.0
83	0x00000004	6e-45
84	0x00000000	0.0
85	0x00000000	0.0
86	0x00000004	6e-45
87	0x3cec0aa5	0.02881367
88	0x3eb36565	0.35038295
89	0x3eaefb35	0.3417603
90	0x00000004	6e-45
91	0x3ecb6c0c	0.3973087
92	0x3d97fca1	0.07421232
93	0x00000004	6e-45
94	0x00000000	0.0
95	0x00000004	6e-45
96	0x3ed0f37c	0.40810764
97	0x3d07b586	0.0331321
98	0x3ee046a8	0.43803906
99	0x00000000	0.0
100	0x00000000	0.0
101	0x00000004	6e-45
102	0x00000000	0.0
103	0x00000000	0.0
104	0x00000000	0.0
105	0x00000004	6e-45
106	0x00000004	6e-45
107	0x00000000	0.0
108	0x00000004	6e-45
109	0x3dabe630	0.08393514
110	0x3dd8c8c9	0.10585172
111	0x00000000	0.0
112	0x3e8daca1	0.27670768
113	0x00000000	0.0
114	0x3ee0f949	0.4394019
115	0x3d5fdf86	0.054656528
116	0x3e87b1f8	0.26502967
117	0x3d9703ae	0.07373749
118	0x00000000	0.0
119	0x3eca411e	0.39502805
120	0x3d47c156	0.048768364
121	0x3ed244c4	0.4106809
122	0x3eaf0572	0.34183842
123	0x00000004	6e-45
124	0x00000000	0.0
125	0x00000004	6e-45
126	0x00000004	6e-45
127	0x3ee09964	0.43867028

encoder.2.running_var f4 [128]
0	0x00000004	6e-45
1	0x3c84f822	0.0162316
2	0x3cec64c7	0.028856648
3	0x00000004	6e-45
4	0x00000004	6e-45
5	0x3bc9d997	0.006159972
6	0x00000004	6e-45
7	0x3bf0053b	0.0073248423
8	0x3c00bdb7	0.007857732
9	0x00000004	6e-45
10	0x00000004	6e-45
11	0x00000004	6e-45
12	0x3c612385	0.013741379
13	0x00000004	6e-45
14	0x3ce97c80	0.028501749
15	0x3c57e815	0.013177891
16	0x00000004	6e-45
17	0x3bd1d0dc	0.006403072
18	0x3c56b918	0.013105653
19	0x3d0a8796	0.03382071
20	0x3c08570a	0.008321533
21	0x3c87123f	0.016488193
22	0x3c3515a1	0.01105252
23	0x3c404ba2	0.011736782
24	0x3c387700	0.011258841
25	0x3b608efe	0.0034264917
26	0x00000004	6e-45
27	0x3b6b4ee4	0.0035905177
28	0x3b1250bb	0.002232595
29	0x00000004	6e-45
30	0x00000004	6e-45
31	0x3b74b96c	0.0037341965
32	0x3ce50829	0.027957993
33	0x00000004	6e-45
34	0x3b8184f9	0.003952619
35	0x00000004	6e-45
36	0x3d116be5	0.035503287
37	0x00000004	6e-45
38	0x00000004	6e-45
39	0x00000004	6e-45
40	0x00000004	6e-45
41	0x3b8d0ad1	0.004304268
42	0x00000004	6e-45
43	0x3cb7d996	0.02244262
44	0x3b987b4b	0.0046533695
45	0x3d3c1baf	0.04592484
46	0x3d0422fd	0.03225993
47	0x3c2e5b51	0.010641889
48	0x00000004	6e-45
49	0x00000004	6e-45
50	0x00000004	6e-45
51	0x3c9651db	0.018349579
52	0x3caeb74d	0.021327639
53	0x00000004	6e-45
54	0x3c8b5479	0.017008053
55	0x00000004	6e-45
56	0x00000004	6e-45
57	0x00000004	6e-45
58	0x00000004	6e-45
59	0x3bc5a311	0.006031402
60	0x3d0357af	0.032066043
61	0x3c7664b2	0.015038656
62	0x00000004	6e-45
63	0x3c26c6ec	0.010179263
64	0x3d04ca37	0.03241941
65	0x00000004	6e-45
66	0x3be4eeb5	0.006986464
67	0x00000004	6e-45
68	0x3c8e9478	0.01740478
69	0x3d6e3958	0.058160156
70	0x3d2a8d49	0.041638646
71	0x00000004	6e-45
72	0x00000004	6e-45
73	0x3bff7f49	0.007797156
74	0x00000004	6e-45
75	0x00000004	6e-45
76	0x00000004	6e-45
77	0x00000004	6e-45
78	0x3c7611f7	0.015018932
79	0x3d188f59	0.037246082
80	0x3b1f6e46	0.0024327203
81	0x00000004	6e-45
82	0x00000004	6e-45
83	0x00000004	6e-45
84	0x00000004	6e-45
85	0x00000004	6e-45
86	0x00000004	6e-45
87	0x3b433dbf	0.0029791442
88	0x3cd1f6e3	0.02563042
89	0x3c4b86f1	0.012422309
90	0x00000004	6e-45
91	0x3c9a792b	0.018856606
92	0x3b4e494d	0.0031476796
93	0x00000004	6e-45
94	0x00000004	6e-45
95	0x00000004	6e-45
96	0x3c0b1680	0.008489251
97	0x3b564289	0.0032693467
98	0x3cdde0f5	0.027084807
99	0x00000004	6e-45
100	0x00000004	6e-45
101	0x00000004	6e-45
102	0x00000004	6e-45
103	0x00000004	6e-45
104	0x00000004	6e-45
105	0x00000004	6e-45
106	0x00000004	6e-45
107	0x00000004	6e-45
108	0x00000004	6e-45
109	0x3c7bb816	0.015363714
110	0x3b8127cf	0.003941513
111	0x00000004	6e-45
112	0x3be6622d	0.0070307464
113	0x00000004	6e-45
114	0x3c5ca1af	0.013466283
115	0x3c04cf46	0.008106058
116	0x3cca7f3e	0.024718877
117	0x3b8e2ded	0.004338971
118	0x00000004	6e-45
119	0x3c2102bf	0.009827315
120	0x3b8c03c5	0.0042729103
121	0x3ca3804f	0.019958643
122	0x3c0e543c	0.008687075
123	0x00000004	6e-45
124	0x00000004	6e-45
125	0x00000004	6e-45
126	0x00000004	6e-45
127	0x3c623e64	0.01380882

encoder.4.weight f4 [16, 128]
0	0x3f1ab4f8	0.60432386
1	0x3cfcd047	0.030861033
2	0x3f35e8da	0.7105843
3	0x3d9fad5c	0.077967376
4	0x3e0e9121	0.1392255
5	0xbcd7d2d5	-0.02634565
6	0xbe829a77	-0.25508472
7	0x3e73f949	0.23825563
8	0x3da18e10	0.078884244
9	0xbe8f63b7	-0.28005764
10	0x3e0e1ad6	0.13877425
11	0xbd9c9530	-0.07645643
12	0x3f0b24b5	0.54352885
13	0x3ec4f929	0.38471344
14	0x3e0479e3	0.12937121
15	0xbfeee5ef	-1.866392
16	0x3ee56855	0.44806162
17	0x3eaf0018	0.3417976
18	0x3ef66fa7	0.4813206
19	0x3de40c9a	0.11135216
20	0xbf460ced	-0.77363473
21	0xbdb95722	-0.090498224
22	0x3f05740d	0.52130204
23	0xbeb9b103	-0.36267862
24	0xbe81b606	-0.25334185
25	0xbe975489	-0.29556683
26	0x3e0c1f78	0.1368388
27	0x3f25267c	0.6451185
28	0x3ec5534a	0.38540107
29	0x3ecf972f	0.4054503
30	0xbed5bb3b	-0.41744408
31	0x3e67985c	0.22616714
32	0xbe12aeac	-0.14324445
33	0x3d87d985	0.066332854
34	0x3e9b9db2	0.3039375
35	0x3eed759e	0.46378797
36	0x3df52edb	0.119718276
37	0x3d839310	0.06424534
38	0x3e0349d3	0.1282113
39	0x3e61b03e	0.22039887
40	0xbd9dfc81	-0.07714177
41	0xbf17d069	-0.59302384
42	0x3e9ad0a0	0.30237293
43	0xbd9b71a3	-0.07590034
44	0x3d101adb	0.03518186
45	0xbe8a02a4	-0.2695514
46	0xbe61bb60	-0.22044134
47	0x3f3dd8ce	0.7415894
48	0x3eba9a24	0.36445725
49	0xbea2cb33	-0.31795654
50	0x3e9039c6	0.28169078
51	0x3f314f06	0.69261205
52	0xbdde0bac	-0.1084207
53	0xbdcaccc3	-0.099023364
54	0xbf0ec5e6	-0.5577072
55	0xbe6b48ac	-0.22976941
56	0x3d888e34	0.06667748
57	0x3e8415bc	0.25797832
58	0xbefc9d54	-0.49338782
59	0xbedde38b	-0.43337664
60	0xbf570b79	-0.8400188
61	0xbd671a50	-0.056421578
62	0x3eb82795	0.359677
63	0xbe1aeee2	-0.15130189
64	0x3e8e9dd7	0.27854797
65	0xbdc25218	-0.094883144
66	0xbf3004ad	-0.68757135
67	0xbccddffe	-0.025131222
68	0x3d1b35ae	0.03789299
69	0xbcde942d	-0.027170265
70	0x3df188fd	0.117937066
71	0x3d8dfb04	0.06932643
72	0xbdf84419	-0.121223636
73	0xbec92f69	-0.39293984
74	0xbea16fb1	-0.31530526
75	0x3d83d21f	0.06436562
76	0xbe0264d4	-0.12733775
77	0xbed3b1ad	-0.41346493
78	0xbebf5cad	-0.37375394
79	0xbde5c3b8	-0.11218971
80	0xbf1b2c0a	-0.60614073
81	0x3db72882	0.08943273
82	0x3ee638b9	0.4496515
83	0xbc9710b6	-0.018440586
84	0xbedca32b	-0.43093237
85	0x3ec3f617	0.3827369
86	0xbcf5367f	-0.029933212
87	0x3eb5f652	0.3553949
88	0xbe0c802a	-0.13720766
89	0x3b857286	0.00407249
90	0x3e2379e6	0.1596447
91	0xbd3e8d4b	-0.046521466
92	0x3f2feafe	0.68717945
93	0x3d854b72	0.06508531
94	0x3ec925d0	0.3928666
95	0xbe2388ca	-0.1597015
96	0x3e96fae7	0.29488298
97	0xbe9e97b5	-0.30975118
98	0xbf66c679	-0.90146595
99	0xbeff3818	-0.49847484
100	0x3e0c7557	0.13716637
101	0x3db4cc39	0.08828015
102	0x3eccecc0	0.40024376
103	0x3ec6998b	0.3878902
104	0xbe9ca736	-0.30596322
105	0x3d55cfe6	0.05220022
106	0x3d446ed7	0.047957268
107	0x3ea10e26	0.31456107
108	0xbe8605e8	-0.2617638
109	0xbe8408bf	-0.25787923
110	0xbf0829e0	-0.53188896
111	0x3ebbbeac	0.3666891
112	0x3ed83444	0.42227376
113	0x3efba228	0.49147153
114	0x3efdb1c9	0.49549702
115	0xbe44b5e6	-0.19210014
116	0xbedb3b8e	-0.42818874
117	0x3f5ecc53	0.87030524
118	0x3f224e34	0.6340058
119	0xbd33b7eb	-0.04387657
120	0x3e03c7f2	0.12869242
121	0xbde6e32f	-0.112738006
122	0xbd684366	-0.0567049
123	0x3e7e4201	0.24829866
124	0x3db7b8a9	0.08970768
125	0x3cd5cdb3	0.026099062
126	0xbd37e1f5	-0.044893224
127	0x3e7b13cf	0.24519275
128	0x3eadafdc	0.33923233
129	0x3d83beba	0.064328626
130	0x3da62e14	0.081142575
131	0x3d98e83f	0.074661724
132	0x3e4f8cb6	0.2026852
133	0xbc3a30c7	-0.0113641685
134	0xbe4ba341	-0.19886495
135	0xbd3a75ee	-0.045522623
136	0x3ea18627	0.31547663
137	0xbe9efe4c	-0.31053388
138	0x3e91ca0a	0.28474456
139	0x3d5febac	0.054668114
140	0xbd6ea470	-0.05826229
141	0x3ece5152	0.40296417
142	0x3e7a7461	0.24458458
143	0x3ce45351	0.02787176
144	0x3e7467ab	0.23867671
145	0xbf00ae7e	-0.50266254
146	0x3e8673b5	0.26260152
147	0x3de0a9e2	0.109699026
148	0xbd44b4eb	-0.0480241
149	0x3d0b4348	0.03399971
150	0x3e6eef51	0.2333348
151	0x3c7fb50b	0.015607129
152	0x3d871152	0.065951005
153	0x3f0470b2	0.5173446
154	0x3e8ecd2a	0.27890903
155	0xbd9ebacb	-0.07750472
156	0x3eb0fb2d	0.34566632
157	0x3ea88097	0.32910606
158	0xbec11f17	-0.37719032
159	0x3d0c33e2	0.034229167
160	0xbc31f9fc	-0.010862824
161	0x3ccc1b3b	0.024915328
162	0xbe1f17db	-0.15536444
163	0x3eb5778c	0.3544277
164	0x3db7ab52	0.08968224
165	0x3d9b6100	0.07586861
166	0x3da50d7c	0.080592126
167	0x3e25a0bb	0.16174595
168	0xbdb00e40	-0.08596468
169	0x3ea0bf2b	0.3139585
170	0x3e846203	0.25856027
171	0xbce7ffae	-0.02832016
172	0xbeb59a5f	-0.35469338
173	0xbdb56ced	-0.088586666
174	0x3c16046e	0.00915633
175	0xbd1d3f47	-0.038390424
176	0x3ebf5d72	0.3737598
177	0xbe9b3f45	-0.30321708
178	0x3e9ca559	0.305949
179	0xbdf0868d	-0.117444135
180	0x3e5de064	0.2166763
181	0xbdb27417	-0.08713549
182	0xbe563a03	-0.20920567
183	0xbe25975a	-0.16171017
184	0x3d0b4532	0.034001537
185	0x3eaba989	0.33527783
186	0xbea70fac	-0.32629144
187	0xbea05d0a	-0.31320983
188	0xbc8dfd65	-0.017332742
189	0xbf23a628	-0.6392541
190	0x3edb0abc	0.42781627
191	0x3d1b0013	0.037841868
192	0xbd646c6f	-0.055767473
193	0xbe37d9e0	-0.17954206
194	0x3d0c42f9	0.034243558
195	0x3bc69a58	0.0060608797
196	0x3f308671	0.6895514
197	0x3d4624f7	0.048375096
198	0x3e861932	0.26191097
199	0x3d695316	0.056964003
200	0xbe18afb9	-0.14910783
201	0xbedc5c76	-0.43039292
202	0xbe6d971e	-0.23202178
203	0x3e34c378	0.1765269
204	0xbac9f5a0	-0.0015408285
205	0xbe7974c9	-0.24360956
206	0xbe100aa8	-0.14066565
207	0xbcc11561	-0.023569765
208	0x3e93b42f	0.28848407
209	0x3de232b6	0.110448286
210	0x3ebf244d	0.37332383
211	0x3bb4d316	0.0055183275
212	0xbed4f6d1	-0.41594556
213	0x3e79f8ad	0.24411269
214	0xbccc4a8c	-0.02493789
215	0x3ea41223	0.32045087
216	0x3e13a9cb	0.1442024
217	0x3fdae278	1.7100363
218	0x3e8a3213	0.2699133
219	0x3cc12d30	0.023581117
220	0xbe5209ec	-0.20511597
221	0x3e19bbd2	0.15013054
222	0x3ec4fcab	0.3847402
223	0xbddbb03e	-0.10726975
224	0xbf372b25	-0.7155021
225	0xbfddc6a9	-1.7326251
226	0xbe1fdf95	-0.15612634
227	0xbee02419	-0.4377754
228	0x3e60b804	0.21945196
229	0x3e3241ea	0.17407957
230	0x3ebcd4e5	0.36881176
231	0x3ec4512a	0.38343173
232	0xbe8cc39d	-0.2749299
233	0xbde74cff	-0.11293983
234	0xbd5bac6d	-0.053631235
235	0x3eb6759e	0.3563661
236	0xbe8016b0	-0.2501731
237	0x3c80614b	0.015671393
238	0x3e3ea6ee	0.18618366
239	0x3e9999c8	0.30000138
240	0x3eddd880	0.4332924
241	0x3ebd78e5	0.37006298
242	0xbd6010f1	-0.054703657
243	0x3eae60f7	0.34058353
244	0x3d974f8c	0.07388219
245	0xbe80456d	-0.25052968
246	0x3e9a4752	0.30132538
247	0xbe2a9454	-0.16658145
248	0x3ecf841c	0.4053048
249	0xc01210f1	-2.282284
250	0x3ead0285	0.33790985
251	0x3e464d10	0.19365335
252	0x3dc21377	0.09476369
253	0x3cbd71a1	0.023125472
254	0xbd92f7ac	-0.07176146
255	0xbe36e7bd	-0.17861839

encoder.4.bias f4 [16]
0	0x3e3665fd	0.17812343
1	0x3e909c86	0.28244418
2	0x3d67f798	0.05663261
3	0x3e08a993	0.13345937
4	0x3e42ad54	0.19011432
5	0x3e958a16	0.29206914
6	0x3e74e281	0.2391453
7	0x3dd22120	0.10260224
8	0x3ea787cf	0.327208
9	0x3e304eb7	0.17217527
10	0x3ebeb64f	0.37248465
11	0x3df1508d	0.11782942
12	0x3e043bbc	0.12913412
13	0x3efa6d41	0.4891148
14	0x3d418a42	0.047250994
15	0x3e8a0589	0.26957348

encoder.6.weight f4 [16]
0	0x3ef5088a	0.47858077
1	0x3f9b3f5f	1.2128714
2	0x3f8d3946	1.1033103
3	0x3faf55f8	1.369811
4	0x3f014faf	0.5051221
5	0x3fe82a64	1.8137937
6	0x3f3657ac	0.71227527
7	0x3f2df547	0.6795239
8	0x3f81cca0	1.0140572
9	0x3fba7392	1.4566519
10	0x40014e9e	2.0204234
11	0x3fb1beef	1.3886393
12	0x3fad922b	1.3560232
13	0x3f1ba743	0.60802096
14	0x3f8822ef	1.0635661
15	0x3ec7fdda	0.3906086

encoder.6.bias f4 [16]
0	0xbcf5bbff	-0.02999687
1	0x3f72f903	0.9491121
2	0xc03be332	-2.935742
3	0x4013ae56	2.3075156
4	0xbe21c35b	-0.15797178
5	0x402437ea	2.5659127
6	0xbf5fe8e1	-0.8746472
7	0x3eb4a3a2	0.35281092
8	0xbf963c21	-1.17371
9	0xc014e98c	-2.3267546
10	0xc02cd0ce	-2.7002444
11	0x3fa09539	1.2545539
12	0x3fbdafa4	1.4819226
13	0xbe0c784c	-0.13717765
14	0xc0308376	-2.7580237
15	0xbf3f3ae9	-0.74699265

encoder.6.running_mean f4 [16]
0	0x418c0c0a	17.505878
1	0x4184676d	16.5505
2	0x414728b6	12.447439
3	0x4172ad17	15.167258
4	0x418a1b2e	17.263271
5	0x41aee5e7	21.862257
6	0x41c7bdc3	24.967657
7	0x413d01b7	11.812919
8	0x41c54d6b	24.662802
9	0x419c7553	19.557287
10	0x420b4007	34.812527
11	0x4160301e	14.011747
12	0x416526cc	14.321972
13	0x41edf542	29.744755
14	0x41479deb	12.476054
15	0x41b95715	23.16752

encoder.6.running_var f4 [16]
0	0x41a8fbcb	21.122946
1	0x41f414de	30.51019
2	0x42535d29	52.840977
3	0x42670e0f	57.76373
4	0x417ba0ae	15.726728
5	0x429d24b6	78.5717
6	0x42416901	48.352543
7	0x420904d3	34.25471
8	0x422c91d0	43.142395
9	0x42dc074c	110.01425
10	0x424e2eff	51.545895
11	0x425edf9c	55.71837
12	0x428eafdd	71.34348
13	0x4218aa7e	38.166496
14	0x42548b42	53.135994
15	0x4218279e	38.03869

decoder.0.weight f4 [128, 16]
0	0x3f32d9f6	0.6986383
1	0x3d437f05	0.047728557
2	0xbefc4512	-0.49271446
3	0x3f4b2e5c	0.79367614
4	0x3e7f3fda	0.24926701
5	0xbbe51ef5	-0.0069922158
6	0xbf4852ab	-0.7825114
7	0xbeae0ad7	-0.33992645
8	0xbe002b8b	-0.1251661
9	0xbc812ca2	-0.015768353
10	0xbf30133d	-0.68779355
11	0x3f15af06	0.5847019
12	0x3efe6d14	0.49692595
13	0x3f05d762	0.52281773
14	0x3d52c980	0.051461697
15	0x3ebcce16	0.3687598
16	0x3da97c88	0.082757056
17	0xbde5954c	-0.11210117
18	0x3cd45010	0.025917083
19	0x3e4936ce	0.19649813
20	0xbd86ef14	-0.06588569
21	0xbe3c377c	-0.1838054
22	0x3c2e2f00	0.010631323
23	0x3d1010d8	0.035172313
24	0x3e399708	0.1812402
25	0xbe1e571c	-0.15462917
26	0xbe596a3c	-0.21231931
27	0xbe7ade44	-0.2449885
28	0xbe1a8662	-0.15090325
29	0x3e18bf0c	0.14916629
30	0x3e406ef0	0.1879232
31	0xbe00edf8	-0.12590778
32	0xbca2355a	-0.01980083
33	0xbe8c95b3	-0.2745796
34	0xbe87038c	-0.26369894
35	0x3ccb07d1	0.024784
36	0x3d241c82	0.04006625
37	0x3e290974	0.16507512
38	0xbe547a57	-0.20749794
39	0xbe17d17e	-0.14826009
40	0xbe3c724b	-0.18402974
41	0xba317d88	-0.000677072
42	0xbe1ea9ed	-0.15494509
43	0xbe7a7687	-0.24459277
44	0xbd1a2cda	-0.03764043
45	0xbe568f6a	-0.20953146
46	0xbe96cfb1	-0.2945533
47	0xbe6256f3	-0.22103481
48	0x3e2e86c7	0.17043601
49	0x3f3d43ec	0.73931766
50	0x3e187bf8	0.1489104
51	0xbdbf8958	-0.09352368
52	0x3e26ae87	0.16277514
53	0x3ec288bf	0.37994954
54	0x3ebc4e5d	0.36778536
55	0xbd9b4d9d	-0.07583163
56	0x3d66faa3	0.05639137
57	0xbe5c1253	-0.21491365
58	0x3cc52da4	0.024069615
59	0xbec9e688	-0.39433694
60	0xbe4eae09	-0.20183577
61	0x3fba760b	1.4567274
62	0x3e5c7374	0.21528417
63	0xbf0ca096	-0.54932535
64	0x3f308680	0.6895523
65	0x3d756eb2	0.05992002
66	0x3c062f59	0.0081899995
67	0xbf1ee39e	-0.62066066
68	0x3e1f58a9	0.15561165
69	0x3d5d9e3f	0.054105993
70	0xbfe82ef2	-1.8139327
71	0xbeb74c83	-0.3580056
72	0xbde539e8	-0.11192685
73	0xbdbdeab4	-0.09273282
74	0xbef00084	-0.46875393
75	0x3f0f787f	0.5604324
76	0x3de5fd90	0.11230004
77	0x3eda8f83	0.42687616
78	0x3d79df1b	0.061003786
79	0x3ebb9d48	0.36643434
80	0xbd2ed484	-0.04268314
81	0xbe496067	-0.19665681
82	0x3d4bc729	0.04975048
83	0xbd9594c0	-0.073037624
84	0xbe790a9d	-0.24320455
85	0xbdc46cd2	-0.09591068
86	0xbe8dba9c	-0.27681434
87	0x3d88ec40	0.06685686
88	0xbc8d23b3	-0.017228937
89	0xbd9e6255	-0.07733599
90	0xbdb21d07	-0.08696943
91	0xbdbc4691	-0.09193147
92	0xbe4e29e4	-0.20133168
93	0x3e3bd251	0.18341948
94	0xbe647e58	-0.22313821
95	0xbd042d55	-0.032269794
96	0x3ba20540	0.0049444735
97	0xbd6df580	-0.058095455
98	0xbe13a272	-0.14417437
99	0xbe59b038	-0.21258628
100	0xbe6b34c8	-0.22969353
101	0x3e51817e	0.20459554
102	0xbe32b1a8	-0.17450583
103	0x3e16e13e	0.1473436
104	0x3db52c28	0.08846313
105	0xbd060f30	-0.032729328
106	0xbe6cdcfe	-0.23131177
107	0xbde20a54	-0.11037126
108	0x3d9b5750	0.07585013
109	0x3cfd8d60	0.030951202
110	0xbe1da48c	-0.15394801
111	0x3e6e4a62	0.23270562
112	0x3e4e763e	0.20162293
113	0x3e4f6d93	0.20256643
114	0xbeed4b87	-0.46346685
115	0x3f03c08e	0.5146569
116	0x3bfbb361	0.0076812957
117	0x3de325e5	0.11091212
118	0x3fd00285	1.6250769
119	0x3cbf1ff8	0.023330674
120	0xbd7e92ad	-0.0621516
121	0xbdbfc4aa	-0.093636826
122	0xbebddd47	-0.37082884
123	0x3e9e8281	0.30958942
124	0x3f4b1dfc	0.7934263
125	0x3e2f37a6	0.17111072
126	0xbeef73c0	-0.46767998
127	0x3e4d220e	0.20032522
128	0x3c7a98c6	0.015295213
129	0xbc779072	-0.015110122
130	0xbc34b3ab	-0.011029164
131	0x3b332aeb	0.0027338814
132	0x3c35537e	0.011067269
133	0x3f988e38	1.1918402
134	0x3cd0565d	0.025431806
135	0xbb296764	-0.002584898
136	0xbc15df20	-0.009147435
137	0xbc9d131b	-0.01917415
138	0xbb8efd77	-0.0043637115
139	0xbd65d4cf	-0.056111153
140	0xbc07f734	-0.008298684
141	0xbd462229	-0.04837242
142	0xbbd11603	-0.006380798
143	0xbcfbab99	-0.030721473
144	0x3e8a2044	0.26977742
145	0x3eb63cb3	0.35593185
146	0xbbf66969	-0.00751989
147	0xbc34aebd	-0.011027989
148	0x3de4e4ea	0.111764744
149	0xbf60cd55	-0.8781331
150	0x3e921156	0.2852885
151	0x3dcaa457	0.098946266
152	0xbd23e0fc	-0.040009484
153	0x3d5c68d1	0.0538109
154	0x3d4b751f	0.049672242
155	0x3f0fb6ac	0.5613811
156	0xbecb707c	-0.39734256
157	0x3f2d6f98	0.67748404
158	0x3dd64275	0.104618944
159	0x3f4d5304	0.80204797
160	0xbcbb4783	-0.022861248
161	0x3b9954e7	0.0046793106
162	0x3d473b29	0.048640404
163	0x3c038e1e	0.008029489
164	0xbd6ab924	-0.05730547
165	0x3c0d68b2	0.008630918
166	0x3b474bc9	0.0030410162
167	0xbdaaaf49	-0.08334214
168	0x3aed4dba	0.0018104829
169	0x3bea1915	0.0071441033
170	0xc09f2bfc	-4.974119
171	0x3cfc8898	0.030826852
172	0xba833195	-0.0010009283
173	0x3d0bec44	0.034160867
174	0x3d272df9	0.040815327
175	0xbd6ece5d	-0.058302272
176	0x3e68eda8	0.22746909
177	0xbdaefc56	-0.08544223
178	0x3f896803	1.0734867
179	0xbec6bffa	-0.38818341
180	0x3de1d360	0.11026645
181	0xbe1ab080	-0.15106392
182	0x3ef16b11	0.47151998
183	0xbf094811	-0.5362559
184	0x3d46d709	0.048544917
185	0x3cb1b8fb	0.02169465
186	0x3e81072a	0.25200778
187	0x3eb46af8	0.3523786
188	0x3f166d77	0.5876078
189	0x3e01ac0f	0.12663291
190	0x3f6a63fd	0.9155882
191	0x3d429d62	0.047513373
192	0xbe6f27f8	-0.2335509
193	0x3e3f3c54	0.18675357
194	0x3fa608a6	1.2971389
195	0x3eea14c0	0.45718956
196	0xbde2898c	-0.11061391
197	0xbe07dccd	-0.13267823
198	0xbf53e6b4	-0.827739
199	0x3dee0dbd	0.11623714
200	0xbe97d9a0	-0.29658222
201	0x3df349b7	0.11879294
202	0xbf5d2daf	-0.8639783
203	0xbcd39d51	-0.02583185
204	0x3b9c66c3	0.0047729923
205	0x3c5011c0	0.012699544
206	0xbf43bd27	-0.764605
207	0x3ee84c3d	0.45370665
208	0x3d06a978	0.03287646
209	0xbd011440	-0.031513453
210	0xbe20dae6	-0.15708503
211	0xbd9cb670	-0.07651985
212	0xbe6bfd46	-0.23045835
213	0x3dbe4840	0.09291124
214	0xbde2fe78	-0.11083692
215	0xbdbc3b14	-0.09190956
216	0xbe445076	-0.19171318
217	0xbe729ad8	-0.2369188
218	0x3df0a4c8	0.117501795
219	0xbe5170ac	-0.20453137
220	0x3d602d40	0.054730654
221	0xbd2f27c0	-0.042762518
222	0x3e24e290	0.16102052
223	0xb9a14c00	-0.00030764937
224	0x3bc5f3eb	0.00604104
225	0xbe8181ac	-0.25294244
226	0x3e38017c	0.17969316
227	0x3dfaf84c	0.1225439
228	0xbd49413d	-0.04913448
229	0x3e098b91	0.13432147
230	0xbe787e32	-0.2426689
231	0xbe4284e9	-0.18996014
232	0xbe41d2c8	-0.18928063
233	0xbdb32b6b	-0.08748516
234	0x3e238e3e	0.1597223
235	0x3c23b738	0.009992413
236	0xbdc17687	-0.094464354
237	0xbd7f0673	-0.06226201
238	0xb9b1298e	-0.00033791031
239	0xbdbce242	-0.09222843
240	0x3e7c7149	0.2465259
241	0xbdfd9dbd	-0.12383602
242	0x3ea6b2e9	0.32558373
243	0x3e8bbead	0.27293912
244	0xbe855d51	-0.26047757
245	0xbeb736c9	-0.35783985
246	0x3f1177bb	0.5682332
247	0x3e0a4bfc	0.13505548
248	0x3e37337c	0.17890733
249	0xbefc363d	-0.4926013
250	0x3e870ed4	0.263785
251	0x3f394f42	0.7238656
252	0xbf24c150	-0.6435747
253	0x3eceb211	0.4037023
254	0x3f836e10	1.0267963
255	0x3f0fa295	0.56107455

decoder.0.bias f4 [128]
0	0x3e3da5c2	0.18520263
1	0xbe5c2b1c	-0.2150082
2	0x3e2532d0	0.16132665
3	0x3dc2ed9b	0.09517976
4	0xbe042ea6	-0.1290842
5	0x3d8c7d07	0.068597846
6	0xbe78a2c6	-0.24280843
7	0x3e1421d4	0.1446603
8	0xbf808e1d	-1.004337
9	0xbe5034b9	-0.20332612
10	0x3e84d19b	0.25941166
11	0xbcb88a30	-0.02252683
12	0x3f3177ce	0.6932343
13	0xbc082160	-0.0083087385
14	0xbe9636ac	-0.29338586
15	0xbeb705b3	-0.35746536
16	0x3eb4047d	0.35159674
17	0x3e03491d	0.12820859
18	0xbe7be585	-0.24599274
19	0xbdc974f8	-0.09836763
20	0x3f38eea4	0.72239137
21	0x3f8a8f2d	1.0824944
22	0x3f2dfb7b	0.67961854
23	0x3f71434d	0.9424332
24	0x3e7bd1b8	0.2459172
25	0x3de05552	0.109537736
26	0x3f0972ed	0.5369099
27	0x3e402802	0.18765262
28	0x3ca7953b	0.0204569
29	0x3f34046c	0.7031925
30	0x3f31f427	0.6951317
31	0x3ec7ad92	0.3899961
32	0xbe47fb6f	-0.19529508
33	0x3f95f956	1.1716716
34	0xbbc5df6a	-0.006038596
35	0xbe1af355	-0.15131886
36	0x3ba6082a	0.005066891
37	0x3e76642f	0.24061655
38	0x3e3c067d	0.1836185
39	0xbd00a7a0	-0.03140986
40	0xbd8f149f	-0.06986355
41	0x3ddd3595	0.108012356
42	0x3ef6b79c	0.48186958
43	0x3e02ba55	0.12766393
44	0xbef93a37	-0.48677227
45	0x3f49632f	0.7866697
46	0x3e4e85ee	0.20168278
47	0x3fa896a6	1.3170974
48	0x3f8705c1	1.0548631
49	0xbf479d61	-0.77974516
50	0xbde21189	-0.11038501
51	0xbd9862ec	-0.07440743
52	0x3ea0776d	0.31341115
53	0xbe77b7d5	-0.2419122
54	0x3ebb9b40	0.36641884
55	0xbd3efd14	-0.046628073
56	0x3e68a6a2	0.22719815
57	0x3dea00d1	0.11425937
58	0xbd8d06fa	-0.06886096
59	0xbe03b4e2	-0.1286197
60	0x3dee02e7	0.11621647
61	0xbe052737	-0.1300324
62	0xbd6ea158	-0.05825934
63	0x3eadce44	0.3394643
64	0xbd32dd05	-0.043667812
65	0xbdd4009f	-0.10351681
66	0x3e959943	0.29218492
67	0x3d334dce	0.043775372
68	0x3f041d0b	0.51606816
69	0xbe808f26	-0.25109214
70	0x3e3dcd7e	0.1853542
71	0x3ee2a48c	0.44266164
72	0xbe0caec4	-0.13738543
73	0xbecb1f5d	-0.39672366
74	0x3eab1c48	0.33420014
75	0x3fa44a9b	1.2835268
76	0x3ff6a2d1	1.9268438
77	0xbe44f6a0	-0.19234705
78	0x3f51d240	0.8196144
79	0xbf33c5a0	-0.70223427
80	0x3e2b08ef	0.16702627
81	0xbc946797	-0.018115802
82	0xbeb3bf4d	-0.35106888
83	0xbdac4584	-0.084116966
84	0x3fb6c56e	1.4279001
85	0x3e6a88cd	0.22903748
86	0xbd169cd6	-0.036770664
87	0xbe155350	-0.14582562
88	0xbdf14f98	-0.117827594
89	0x3f48f596	0.78499734
90	0xbe2f2bc1	-0.17106535
91	0xbd89c85f	-0.06727671
92	0xbe09d061	-0.13458396
93	0x3ee6f078	0.45105338
94	0xbf59ccad	-0.85077935
95	0xbf5aa6da	-0.85410845
96	0x3f98e8e8	1.1946077
97	0xbe81f743	-0.25383958
98	0x3e18e78f	0.14932083
99	0xbe914c9b	-0.28378758
100	0xbe803c7b	-0.25046143
101	0x3d700ea6	0.05860772
102	0x3f45aa6c	0.7721317
103	0xbe1b8c28	-0.15190184
104	0x3cac7e9c	0.021056466
105	0x3ede2000	0.4338379
106	0xbe7803b5	-0.24220164
107	0x3e1eae7b	0.15496247
108	0x3f788692	0.9708034
109	0x3f941ee9	1.1571933
110	0xbe0d2548	-0.13783753
111	0xbe476d40	-0.1947527
112	0x3d83cf98	0.0643608
113	0x3eace701	0.33769992
114	0x3fde4152	1.7363684
115	0xbe21aad3	-0.1578782
116	0x3f21a613	0.63144034
117	0x3da78f8e	0.08181678
118	0x3e2eb266	0.17060241
119	0x3f33321d	0.6999834
120	0xbe5a459c	-0.21315616
121	0xbe05ee74	-0.13079244
122	0xbd4b648a	-0.04965643
123	0xbe70d0b6	-0.23517117
124	0xbe13761e	-0.14400527
125	0x3feac248	1.834054
126	0x3e234d29	0.15947403
127	0xbe8a8d7f	-0.27061078

decoder.2.weight f4 [128]
0	0x3ea0bbd9	0.31393316
1	0x3f800000	1.0
2	0x3f68a08c	0.90869975
3	0x3efc28bb	0.49249825
4	0x3ec57070	0.38562346
5	0x3f78504e	0.96997535
6	0x3f800000	1.0
7	0x3ed6b6ba	0.41936284
8	0x3f3ff739	0.74986607
9	0x3e7e1264	0.24811703
10	0x3ebb8d8a	0.36631423
11	0x3e3ee1c0	0.18640804
12	0x3e88da52	0.26729065
13	0x3f800000	1.0
14	0x3f738ac9	0.95133644
15	0x3e896c98	0.26840663
16	0x3ecb6291	0.39723638
17	0x3f7de8a6	0.9918312
18	0x3f763e3d	0.9618872
19	0x3f800000	1.0
20	0x3e2ba321	0.16761447
21	0x3ec912d6	0.39272183
22	0x3f3d59a2	0.73964894
23	0x3ed704df	0.41995904
24	0x3e095a2c	0.13413304
25	0x3e3b1594	0.1826995
26	0x3eb1149b	0.34586033
27	0x3e676adc	0.22599357
28	0x3e44eca1	0.19230892
29	0x3e4ca481	0.19984628
30	0x3ea84fb6	0.32873315
31	0x3eefd01c	0.46838462
32	0x3ebf167e	0.37321848
33	0x3eb5e6bd	0.35527602
34	0x3f141c44	0.5785563
35	0x3f78a974	0.97133565
36	0x3e8d1db0	0.27561712
37	0x3ea9d0ab	0.33167014
38	0x3e8e6a37	0.2781541
39	0x3f74a388	0.9556203
40	0x3f706c6d	0.93915445
41	0x3eb4d3ce	0.35317844
42	0x3e799e6b	0.24376838
43	0x3e9cd525	0.30631366
44	0x3eb68da8	0.3565495
45	0x3e1de9c8	0.15421212
46	0x3e5317f9	0.20614614
47	0x3f0665fd	0.5249937
48	0x3e9e333b	0.3089846
49	0x3ebc0d5e	0.36728948
50	0x3eec4d7d	0.4615287
51	0x3f800000	1.0
52	0x3ea378cb	0.31928095
53	0x3f7eec75	0.99579555
54	0x3e317aa1	0.17331935
55	0x3e4414b4	0.19148523
56	0x3ec9e50f	0.3943257
57	0x3e85b6f8	0.26116157
58	0x3f606140	0.8764839
59	0x3f6fb003	0.9362795
60	0x3eba3b57	0.36373398
61	0x3f77dfec	0.9682605
62	0x3f800000	1.0
63	0x3e6882bb	0.2270612
64	0x3eb7ba8f	0.3588452
65	0x3f69532e	0.9114255
66	0x3ea485d5	0.32133356
67	0x3e890028	0.26757932
68	0x3e941f29	0.28930023
69	0x3f744a71	0.9542609
70	0x3f77efce	0.9685029
71	0x3ec6565a	0.38737756
72	0x3f800000	1.0
73	0x3ee3bce7	0.4448006
74	0x3eac32d4	0.3363253
75	0x3e893245	0.26796165
76	0x3e88776f	0.2665362
77	0x3f7a56a9	0.9778848
78	0x3edce9ba	0.4314707
79	0x3eb8ac5c	0.36069
80	0x3f3e6e69	0.7438722
81	0x3e6ed5b2	0.23323706
82	0x3ea31fd6	0.31860226
83	0x3f71b1e7	0.9441208
84	0x3e5b700d	0.21429463
85	0x3ebbe919	0.36701277
86	0x3e8deafa	0.27718335
87	0x3f800000	1.0
88	0x3f800000	1.0
89	0x3e7e04de	0.24806544
90	0x3f7ea1b6	0.994655
91	0x3f751aa8	0.957438
92	0x3eca8f11	0.39562276
93	0x3ed2c4cb	0.41165766
94	0x3ed0f856	0.40814465
95	0x3eea8db1	0.45811227
96	0x3e294bc8	0.16532815
97	0x3e8e6efb	0.27819046
98	0x3eac0d2a	0.33603793
99	0x3f794983	0.97377795
100	0x3f7d980a	0.9906012
101	0x3ebfbe2d	0.3744978
102	0x3eddda5b	0.43330655
103	0x3f800000	1.0
104	0x3f7e3e53	0.9931385
105	0x3e90e779	0.283016
106	0x3f367c69	0.71283585
107	0x3ea2dac2	0.31807524
108	0x3e981911	0.29706624
109	0x3ee3e62d	0.44511548
110	0x3f800000	1.0
111	0x3f7e0d78	0.992393
112	0x3f7ec5bf	0.99520487
113	0x3ea5b063	0.32361135
114	0x3eb1bf4c	0.3471626
115	0x3f7a043a	0.976627
116	0x3eb081ec	0.34474123
117	0x3e597d78	0.21239269
118	0x3e521181	0.2051449
119	0x3e2aa2b3	0.16663627
120	0x3e17b87b	0.14816467
121	0x3f6d424b	0.9267928
122	0x3f785a79	0.9701305
123	0x3f800000	1.0
124	0x3f7887d9	0.9708229
125	0x3f38ad4b	0.72139424
126	0x3ef578ce	0.4794373
127	0x3f7d8f6f	0.9904699

decoder.2.bias f4 [128]
0	0x3d032e8f	0.032026824
1	0xbe62cc70	-0.22148299
2	0xbd430af8	-0.047617882
3	0xbe2773f5	-0.16352828
4	0x3e043420	0.12910509
5	0xbe7ab9e2	-0.24484971
6	0x3e88e8c0	0.26740074
7	0x3e6ad8c6	0.22934255
8	0x3e991d6b	0.29905257
9	0xbd65002c	-0.055908367
10	0x3d4030e8	0.04692164
11	0x3bf9828e	0.0076144403
12	0xbe89f363	-0.26943502
13	0x3e7a62fd	0.24451824
14	0x3d3e7a36	0.04650327
15	0xbd76c860	-0.060249686
16	0xbec77f6d	-0.38964406
17	0x3e4d2ed3	0.20037393
18	0xbe4f20ba	-0.20227328
19	0xbe8582fd	-0.260765
20	0x3d988bda	0.074485496
21	0x3c609312	0.013706939
22	0x3effe713	0.49980983
23	0x3d1369e2	0.03598965
24	0xbd09feff	-0.03369045
25	0xbd2c7995	-0.042108137
26	0x3e736fcd	0.23773117
27	0x3caa814d	0.020813609
28	0xbd127d1f	-0.035763856
29	0x3d0f471b	0.03497992
30	0x3e036fd4	0.12835628
31	0xbda94d34	-0.082666785
32	0x3e00eb00	0.12589645
33	0xbe9e762d	-0.30949536
34	0xbee7e848	-0.45294404
35	0x3e9b4229	0.30323914
36	0x3d7a8e7a	0.061171032
37	0x3c47600e	0.012168897
38	0xbab947c7	-0.0014135771
39	0xbded7cdd	-0.115960814
40	0xbe3dda9a	-0.18540421
41	0x3e122339	0.14271249
42	0xbcd5f6ce	-0.026118662
43	0x3d91fced	0.0712832
44	0x3d84571d	0.06461928
45	0x3d17a842	0.037025698
46	0xbe614105	-0.21997459
47	0xbc8b6212	-0.017014537
48	0x3e83b165	0.2572128
49	0x3d9b3ead	0.07580314
50	0x3eee6854	0.4656397
51	0x3e4de3d2	0.20106438
52	0xbe82dee7	-0.25560686
53	0x3e8d565e	0.27604955
54	0xbd90ae13	-0.07064452
55	0xbd92cd11	-0.071680196
56	0x3d68d211	0.05684096
57	0x3cc2c10d	0.023773694
58	0x3a5f1495	0.0008509842
59	0xbcfd3ae4	-0.03091187
60	0xbe239094	-0.15973121
61	0xbe7fa7ff	-0.24966429
62	0xbe1e96c0	-0.15487194
63	0x3d3b9a48	0.04580143
64	0xbeb1b359	-0.34707144
65	0xbb0e675f	-0.0021729094
66	0xbdae65d0	-0.08515513
67	0xbdda1f47	-0.10650497
68	0xbe8e9140	-0.27845192
69	0x3da64cc0	0.08120108
70	0xbe615c06	-0.2200776
71	0x3e7e8617	0.24855839
72	0x3e45e136	0.19324192
73	0xbeca3483	-0.39493188
74	0x3e83d81c	0.25750816
75	0xbd04615f	-0.032319423
76	0xbd9bfa3d	-0.076160885
77	0xbe84b098	-0.2591598
78	0xbe61501f	-0.2200322
79	0x3d3fdcef	0.046841558
80	0x3dd244f2	0.102670565
81	0xbd0919cd	-0.03347187
82	0x3d0640e1	0.032776717
83	0xbb69331e	-0.0035583447
84	0xbdd87d94	-0.10570827
85	0xbe41a2c6	-0.1890975
86	0xbaa7623f	-0.0012770368
87	0x3e7c942e	0.24665901
88	0xbe9021db	-0.2815083
89	0x3d078df7	0.033094373
90	0xbe5bf8fc	-0.21481699
91	0xbd8f9007	-0.07009893
92	0xbe0e9591	-0.13924243
93	0x3e16727c	0.1469211
94	0x3dc11b9b	0.094290935
95	0x3d87fa78	0.0663957
96	0x3c56af41	0.013103307
97	0xbe4097f1	-0.18807961
98	0xbdac1c71	-0.08403862
99	0x3e628142	0.2211962
100	0xbe6a8f91	-0.22906329
101	0x3e223483	0.15840344
102	0x3e422f98	0.18963468
103	0xbe572aa4	-0.2101236
104	0xbe7aaa8a	-0.24479118
105	0x3e95c72e	0.29253525
106	0x3e84625f	0.258563
107	0x3e7ac9e9	0.24491085
108	0xbd000208	-0.031251937
109	0x3dfe3cc6	0.12413935
110	0x3e873fa1	0.26415733
111	0x3df79d94	0.120906025
112	0xbe4357ca	-0.19076458
113	0x3e7595dc	0.23982948
114	0x3e2ea279	0.17054166
115	0xbe41c485	-0.18922623
116	0xbd61c2fd	-0.055117596
117	0xbc2a0c61	-0.010378928
118	0x3d6b52cd	0.05745201
119	0x3cec6b65	0.028859803
120	0xbd58ad03	-0.05289937
121	0x3e016a4d	0.12638207
122	0xbe6ef27c	-0.23334688
123	0x3e45475c	0.19265503
124	0x3e84f37e	0.2596702
125	0xbe1248d6	-0.14285597
126	0x3e12e841	0.1434641
127	0xbea75754	-0.32683814

decoder.2.running_mean f4 [128]
0	0x3ff187dd	1.8869587
1	0x00000000	0.0
2	0x00000004	6e-45
3	0x3f93c04e	1.1543062
4	0x3d361524	0.044453755
5	0x00000004	6e-45
6	0x00000000	0.0
7	0x400ef095	2.233434
8	0x3d38b138	0.045090884
9	0x3ea99cb8	0.3312738
10	0x3d6c87ac	0.057746574
11	0x3eeb495a	0.459544
12	0x3f3cc707	0.7374119
13	0x00000000	0.0
14	0x00000004	6e-45
15	0x3ea47b7a	0.32125455
16	0x3eada235	0.33912817
17	0x00000004	6e-45
18	0x00000004	6e-45
19	0x00000000	0.0
20	0x3ee8e984	0.45490658
21	0x3f7c5fe5	0.98583823
22	0x3ea704ef	0.32620952
23	0x3e8797bc	0.26482952
24	0x3e10d7b7	0.14144789
25	0x3efefefc	0.49803913
26	0x3d3e922b	0.046526115
27	0x3e36a324	0.1783567
28	0x3f5c995e	0.8617152
29	0x3ec26166	0.37964934
30	0x3f46a281	0.7759171
31	0x3f8e8360	1.1133842
32	0x3e0613e5	0.13093527
33	0x3f1afb72	0.60539925
34	0x3f90b67f	1.1305693
35	0x00000004	6e-45
36	0x3f605e8f	0.87644285
37	0x3ee12689	0.43974712
38	0x400b41b0	2.1758842
39	0x00000004	6e-45
40	0x00000004	6e-45
41	0x3d43c0d7	0.04779133
42	0x3eb6cea4	0.3570453
43	0x3f814e9d	1.0102116
44	0x3da673a8	0.081275284
45	0x3e576e5a	0.2103819
46	0x3f9f2851	1.2434179
47	0x3f978da4	1.18401
48	0x3f9dae9b	1.231891
49	0x3e93ea2a	0.2888959
50	0x3df4cc49	0.11953027
51	0x00000000	0.0
52	0x3e9c34bc	0.30508983
53	0x00000004	6e-45
54	0x3f949d30	1.161047
55	0x3f2117ca	0.62926924
56	0x3e3253a7	0.17414723
57	0x3fa0c607	1.2560433
58	0x00000004	6e-45
59	0x00000004	6e-45
60	0x3fc44901	1.5334779
61	0x00000004	6e-45
62	0x00000000	0.0
63	0x3e73e96c	0.23819512
64	0x3f99e256	1.2022197
65	0x00000004	6e-45
66	0x3ff171b6	1.8862827
67	0x3f44d730	0.7689085
68	0x3f5b6544	0.85701394
69	0x00000004	6e-45
70	0x00000004	6e-45
71	0x3e15c7d8	0.14627016
72	0x00000000	0.0
73	0x3f435069	0.7629457
74	0x3cf2d6ef	0.029643504
75	0x3e8c998c	0.27460897
76	0x3eacebaa	0.33773547
77	0x00000004	6e-45
78	0x3f38ec2f	0.7223539
79	0x3da60d86	0.08108048
80	0x4032306b	2.7842052
81	0x3fa7ba71	1.3103772
82	0x3d8e123a	0.0693707
83	0x00000004	6e-45
84	0x3f9ed83a	1.2409737
85	0x3f40a3ab	0.7524974
86	0x3e443214	0.19159728
87	0x00000000	0.0
88	0x00000000	0.0
89	0x3f761387	0.96123546
90	0x00000004	6e-45
91	0x00000004	6e-45
92	0x3ff234c2	1.892235
93	0x3ec5361a	0.3851784
94	0x3d9d8037	0.07690471
95	0x3d624fdc	0.05525194
96	0x3f022b47	0.50847286
97	0x3e8c3720	0.27385807
98	0x3ffed12a	1.9907582
99	0x00000004	6e-45
100	0x00000004	6e-45
101	0x3bfca8f0	0.0077105686
102	0x3d98bbf5	0.07457725
103	0x00000000	0.0
104	0x00000004	6e-45
105	0x3f533465	0.8250182
106	0x3e616e28	0.22014678
107	0x3d03589e	0.032066934
108	0x3f13e76b	0.5777499
109	0x3f18ea31	0.5973235
110	0x00000000	0.0
111	0x00000004	6e-45
112	0x00000004	6e-45
113	0x3f6c0cc0	0.92206955
114	0x3fb7307d	1.4311672
115	0x00000004	6e-45
116	0x3ed94b95	0.42440477
117	0x3fa6596f	1.2996043
118	0x3f442522	0.7661916
119	0x3ecead85	0.4036676
120	0x3f0e8431	0.5567046
121	0x00000004	6e-45
122	0x00000004	6e-45
123	0x00000000	0.0
124	0x00000004	6e-45
125	0x3f75278b	0.9576346
126	0x3f52ee23	0.8239462
127	0x00000004	6e-45
