rl-manager/mnt/autoencoders/AE_5hosts_and_10hosts_64_BN.pth (torch, 245549 bytes, 20 tensors)

encoder.0.weight f4 [128, 161]
000000 f7 d3 68 bc 4c 34 5d bd 01 2c 9c 3d 72 25 5e bd
       -0.014210693 -0.054004952 0.076255806 -0.05423493
000010 9f f7 56 3c 75 dd 6a bd c8 fd 80 bd 2d 25 1d bd
       0.013120561 -0.057340104 -0.06298405 -0.03836553
000020 66 a5 7f bc e8 a8 54 3d f9 3b 5c bd 6f 3c d2 3c
       -0.015603399 0.051918894 -0.053768132 0.025663583
000030 93 df e5 3a af a8 b4 bb f9 22 63 bd c3 b1 6b bd
       0.0017537944 -0.0055132727 -0.055453274 -0.057542574
000040 48 d0 8d 3d 58 13 b0 bc 2a 4e 6b 3d 32 7e 89 bd
       0.06924492 -0.021493599 0.05744759 -0.06713523
000050 4d 6a 88 bd 04 69 56 bc 5b 81 04 3d 34 14 6e bd
       -0.066609 -0.013086561 0.032349925 -0.058124736
000060 5a 99 1d bd ef a7 9e 3d 71 eb e2 3c 66 07 96 bd
       -0.038476326 0.077468745 0.027700158 -0.0732563
000070 ed ca 05 3d 00 42 d8 bc 94 6a 96 bd 60 bf 24 3d
       0.03266423 -0.026398659 -0.07344547 0.040221572
000080 39 ae 8e bd 82 00 53 bd b4 f1 88 3d bc 5a 4f 3d
       -0.06966824 -0.051514156 0.06686726 0.05062364
000090 b4 4a 39 3d d8 38 24 3d 41 c5 5a bd c8 c9 9f 3d
       0.045237258 0.040093273 -0.053410772 0.078021586
0000a0 83 f0 d6 3c 03 fd 5a 3d ed 58 ee 3b 40 81 4c 3d
       0.026237732 0.053463947 0.0072737844 0.04992795
0000b0 7e 6d 14 bd 70 0c a3 bc 9b 5e 91 3d 17 be 80 3d
       -0.036237232 -0.019903392 0.07098123 0.06286257
0000c0 e0 05 8d bd 5e c5 36 bc d8 46 3c bd 80 89 f6 bc
       -0.06885886 -0.011155454 -0.045966 -0.030094862
0000d0 c9 b2 76 bd 7c b2 49 3d f6 04 3f bd 70 82 18 bd
       -0.060229097 0.04924248 -0.04663559 -0.03723377
0000e0 11 d0 8f bd 26 d4 17 3d f7 da 7d 3d dc fb 56 bd
       -0.070221074 0.037067555 0.0619764 -0.052486286
0000f0 82 96 b9 3c 06 6e 98 bd f0 46 57 bd 8f 2f bb bc
       0.022654776 -0.0744286 -0.052557886 -0.022849826
000100 5c 39 75 3d ca 1b 1b bd cf 60 48 3c 4d 3e 0c 3d
       0.059869155 -0.0378683 0.012230112 0.034239102
000110 ad a6 6e bc fe e2 00 bc ac 66 84 bd 22 6c 9b 3d
       -0.014566106 -0.007866619 -0.064648956 0.07588984
000120 ad 4f 92 bc 72 5a 91 bd 0a ee 77 3d da 9a 6a 3d
       -0.017860258 -0.07097329 0.060529746 0.057276584
000130 88 27 8e bc 2e 8e 4a bd c7 3f 96 bd a1 0d 2c bd
       -0.017352834 -0.049452 -0.07336383 -0.042005185
000140 2c 60 14 bd 91 0c cd bc db d3 87 bd 02 93 36 bc
       -0.03622453 -0.025030406 -0.06632205 -0.011143448
000150 3e 6c 93 bb 7b 5e 6f 3d 0e 01 d9 bc f3 98 00 3c
       -0.0044989875 0.058439713 -0.02648976 0.007848966
000160 90 c9 53 bd 2f 89 0b bd bf da 3a 3d 55 77 95 bd
       -0.051705897 -0.034066375 0.04561877 -0.072981514
000170 66 64 41 bd c1 ec 8e 3d d7 11 51 3b e0 30 2e 3d
       -0.047214888 0.06978751 0.0031901503 0.04252708
000180 4a df 25 bd 12 71 bb 3c f0 f3 88 3c ff 8b 34 bb
       -0.04049615 0.022881065 0.016717881 -0.0027549264
000190 f6 c5 21 3d 4d 5e 37 3c e3 61 27 bd d4 26 92 bd
       0.03949543 0.011191917 -0.040864836 -0.07136312
0001a0 6d b6 93 3c 02 e4 26 3d ac 12 0a bd 03 b4 35 bc
       0.018031323 0.04074479 -0.033709213 -0.011090281
0001b0 f9 81 94 bb 25 f1 45 3d 77 06 ae bb 77 28 91 bd
       -0.0045320955 0.048325676 -0.0053108293 -0.07087796
0001c0 b6 b5 76 3c 19 90 9b 3d e8 fd d7 3c 5e 58 0c bd
       0.015057972 0.07595844 0.02636619 -0.03426396
0001d0 c4 97 97 3d 33 a8 26 bd 0c f9 00 3d cd 77 0d bc
       0.07401994 -0.04068775 0.03148751 -0.00863452
0001e0 70 3d 45 3d 7b 50 8a 3c c9 b6 ad 3c 02 c7 77 3d
       0.048154294 0.01688408 0.021205323 0.060492523
0001f0 62 ed 95 bd 3d 85 ef bc dd 77 8f 3d 98 db 39 3d
       -0.07320668 -0.029238338 0.07005284 0.045375437
000200 ef 64 80 3b f2 64 69 bd 62 9d 49 bd 00 c3 72 3d
       0.003918282 -0.056981035 -0.049222358 0.059267998
000210 36 09 07 bd 81 4c 82 bd 0f 13 4e bd 0c 59 8d bd
       -0.03296777 -0.06362248 -0.050311144 -0.0690175
000220 2a cc 1a 3c 97 fe e4 3c 93 d3 e6 3b db 08 56 bd
       0.009448091 0.02795343 0.0070442646 -0.05225454
000230 bf 40 c0 3c 96 84 65 bc 47 be d1 bc 87 22 7c bd
       0.023468373 -0.014008662 -0.025603427 -0.061556365
000240 e6 d5 27 bd e8 aa e6 3b b0 83 58 3c 7a 08 71 bb
       -0.040975474 0.0070394166 0.0132149905 -0.0036778734
000250 0f be 8f 3d ec 8d 06 bd e6 b1 59 3d 84 2a 61 3c
       0.07018673 -0.03285019 0.053148173 0.013743047
000260 13 47 93 bd 85 7e 25 bd 82 6f 7c bd 93 77 35 3d
       -0.07191291 -0.04040386 -0.06162978 0.044303488
000270 40 26 6e 3c 0a 93 93 bc 0c 14 60 bd 72 f8 ec 3c
       0.014535487 -0.01801445 -0.05470662 0.028927062
000280 db 2a 6c bd 6d 3b 80 bd 2c e9 97 3c 79 e4 55 3d
       -0.057658058 -0.062613346 0.018543802 0.05221984
000290 f6 9c ab bc f0 09 f9 bc a3 da 61 bd 38 34 6a 3d
       -0.020948868 -0.030400246 -0.05514015 0.057178706
0002a0 8e be 96 3c 01 e7 21 3c 02 2e 2d bc b5 97 c4 3b
       0.01840141 0.009881736 -0.010570051 0.00599953
0002b0 cc 9f be b9 2b 9e 32 bd 68 82 4e bc f8 99 33 bd
       -0.00036358682 -0.043607872 -0.012604333 -0.043848008
0002c0 ea 24 54 bd c7 47 6d bd bb 5f a7 3c e3 94 71 bd
       -0.051793016 -0.05792978 0.02043139 -0.05897988
0002d0 29 40 8d 3d b5 1f 91 bd da 34 c7 bc 85 aa 45 3d
       0.06897003 -0.07086126 -0.024317194 0.048258323
0002e0 c3 83 51 bd b6 50 96 bc 06 02 92 3d 23 86 86 3d
       -0.05115105 -0.018349033 0.07129292 0.06568553
0002f0 2b b3 4c bd ab 7d c9 bb 8f a1 1e bd a7 b1 76 3b
       -0.049975555 -0.006149014 -0.038728293 0.003764251
000300 e0 76 3d 3d 30 05 43 bd c0 9c 6c 3d d4 6f e1 3b
       0.046255946 -0.04761237 0.057766676 0.006879786
000310 4f 1c eb bc 45 a5 53 bd 61 9a 83 3c ef 6c f4 bc
       -0.028700022 -0.051671285 0.016064825 -0.0298371
000320 67 46 19 bc 06 49 9b bd c0 dc 3d 3d 03 69 bb 3a
       -0.009355164 -0.075822875 0.0463531 0.0014298264
000330 26 c5 11 3d 15 92 4d bd 7c 5d 94 3b 3a af bd 3c
       0.035588406 -0.050188143 0.004527746 0.023154844
000340 c3 6f 64 bc e7 23 80 bd 07 f3 02 3c a3 fc 03 3d
       -0.013942662 -0.06256848 0.007992513 0.032223355
000350 20 f2 d6 3c 6c d8 26 bd 4f ee 40 3d 55 6d 59 bd
       0.026238501 -0.04073374 0.04710227 -0.053082783
000360 08 dd c9 bc 29 17 90 bd 55 d0 e1 bc b6 80 6d 3c
       -0.024641529 -0.070356674 -0.02756516 0.014496019
000370 6e f1 23 3d 9b 48 2f bd 4b 2e 46 bb 80 6b 28 bd
       0.040025167 -0.04279385 -0.0030239995 -0.041118145
000380 3b d9 c8 3c 91 c2 28 bd 65 a9 47 bd a6 79 97 bd
       0.024517646 -0.041201178 -0.04874553 -0.073962495
000390 55 37 27 3d 5b 42 b9 3c 08 61 57 bc 5f c9 2e 3d
       0.040824253 0.022614649 -0.013145693 0.04267251
0003a0 97 9c 33 bd 6d 33 02 bd 67 69 82 3d f1 ad d2 3b
       -0.043850508 -0.031787325 0.0636776 0.006429427
0003b0 61 12 53 3d 55 d9 9f 3c 02 64 2b bd 00 32 94 bc
       0.0515312 0.019512812 -0.04184342 -0.018090248
0003c0 67 97 57 3d ee 93 5f bd 95 2e 27 bd 28 1a 69 3d
       0.052634623 -0.054584436 -0.04081591 0.05690971
0003d0 27 14 95 bd 1b c9 72 bc dd 6f 38 bd ee 20 e5 bb
       -0.072792344 -0.014818455 -0.045028556 -0.006992451
0003e0 bc d5 73 bd 67 0b 83 3d ea a2 5f bd b8 23 79 3d
       -0.059530005 0.06398659 -0.054598726 0.06082508
0003f0 9a 8f 97 3d 40 7f 98 3d 4c 4b 95 3c 15 90 ea 3c
       0.07400437 0.07446146 0.01822438 0.028633157

encoder.0.bias f4 [128]
000000 c8 02 59 bd 8d a5 db 3b 77 1b 9b 3d 17 55 a0 bd
       -0.052981168 0.006703085 0.07573598 -0.078287296
000010 e9 fc 8e 3d 84 51 9a bd 44 a0 fd 3d 51 5c 82 3e
       0.069818325 -0.07535079 0.12384084 0.25461057
000020 fe f0 97 bd 73 10 c8 bd 0e 24 a6 bd b4 c7 4b 3e
       -0.074190125 -0.097687624 -0.08112346 0.199004
000030 f6 23 37 bd 9d de 85 3e 90 d7 92 3e af ac 8c 3c
       -0.04471203 0.26146403 0.28680086 0.017172186
000040 27 f7 86 bd d8 53 94 3e 10 53 a2 3b 33 ce 33 bd
       -0.06590109 0.28970218 0.0049537495 -0.04389782
000050 c7 7a 56 3f 6d e0 83 bd 3e e3 17 3f 90 3c 90 3e
       0.83781093 -0.0643929 0.5933112 0.28171206
000060 9f 02 54 bd 8b 6b 5e 3f 8a 9f a3 3f 52 4b b1 3e
       -0.051760312 0.8688285 1.2783062 0.34627777
000070 ce 15 59 bc 1f 2b 51 3b 52 ea 5e 3e b1 b8 cc bc
       -0.013249828 0.0031916571 0.21769074 -0.024990411
000080 0a 9f 30 3d 98 56 6e bd 57 c2 e2 3d 6a 61 3c 3f
       0.04312042 -0.05818805 0.11072224 0.7358614
000090 0e 63 51 bd f6 b8 df bc a0 15 37 bd 65 8a 7f bd
       -0.051119857 -0.027309876 -0.044698358 -0.062387843
0000a0 88 d2 04 bd 0e a5 75 3f 91 74 d7 3d d5 fa b1 3e
       -0.03242734 0.9595498 0.1052028 0.34761682
0000b0 fc ca 76 3f 57 ae dd 3d cd 68 8e 3e b4 6f bd bc
       0.9640348 0.10824268 0.27814332 -0.023124553
0000c0 bd e8 9d bd d2 f4 87 3c ea 50 74 bc 34 1f 4a bd
       -0.07710407 0.016596232 -0.01491187 -0.049346164
0000d0 0a 3f 31 bc 01 3c 83 3e c2 85 ac bb 0d 6b bc 3e
       -0.010818252 0.25631717 -0.0052649686 0.36800423
0000e0 d8 f7 00 3f d8 4d 1c bb 5a 62 69 3d 44 e0 8b bd
       0.5037818 -0.002385011 0.05697856 -0.06829885
0000f0 98 4c 43 3f f8 0d 8c bd 53 3b 63 bd 3e 23 b4 3e
       0.7628875 -0.06838602 -0.055476498 0.35183138
000100 96 46 91 bd d5 6e b7 bc 13 95 bd 3e ad dd 9e 3e
       -0.07093541 -0.022391716 0.37027797 0.310285
000110 40 82 79 3c 6d 83 cd 3d 06 f7 23 bd 6b 5e 99 bd
       0.015228808 0.10034833 -0.0400305 -0.07488712
000120 f8 cd 9b bd a7 ec 6b 3f b2 c8 fb bc 82 ca 88 bd
       -0.07607645 0.9215798 -0.030735347 -0.0667925
000130 be aa 42 3e 46 b0 46 bd 76 44 94 bd 42 44 ac 3e
       0.19010445 -0.04850795 -0.072396204 0.33645827
000140 b7 eb 82 bd f1 df 2e 3f 0f ff 5c 3f 65 11 58 3f
       -0.06392615 0.6831046 0.8632669 0.8440154
000150 1f 3d 4f bd 89 f8 99 bd 73 ae 68 bb f0 cf 27 3d
       -0.0505954 -0.075181074 -0.003550437 0.04096979
000160 75 e7 e4 bc 44 1b ff 3e 64 09 1d 3e 4e 43 0a 3f
       -0.027942399 0.4982549 0.15335613 0.5400895
000170 1a 99 8a bd 59 18 9c bd 05 f1 eb 3d 1a ab 56 3f
       -0.06767483 -0.076218314 0.1152058 0.8385483
000180 84 6f 6c 3b b8 33 9c bc de 6f 44 3e 29 e5 0b bd
       0.003607721 -0.01906763 0.19183299 -0.03415409
000190 b4 91 ab 3e 92 6d 1e bd de 5e f2 3d c7 0f c1 bd
       0.335096 -0.038678713 0.11834501 -0.094268374
0001a0 2b 8c c1 3e 51 c1 24 3f 91 c4 1a 3f f7 27 14 bd
       0.37802252 0.6435748 0.60456187 -0.036170926
0001b0 fc ff 60 3d 4f 79 ad 3c ae 6a 19 bd 42 64 e6 bc
       0.054931626 0.021176009 -0.037455253 -0.028123979
0001c0 89 ed af 3e cd 9b 99 bc b7 c1 97 bd ad 98 4f 3f
       0.34360912 -0.01875105 -0.07409995 0.8109234
0001d0 fb 0b 7b bd 7d c6 1a 3b 9c de 6e bd 96 66 1a 3f
       -0.061290722 0.0023616843 -0.058317766 0.60312784
0001e0 04 89 01 3f 6d 9d ac 3e 76 43 2a bd 38 81 9b 3e
       0.50599694 0.33713856 -0.041568242 0.30372024
0001f0 62 25 07 3f ed 43 f4 3e 3c a7 87 3e c3 f9 60 bd
       0.52791417 0.47708073 0.26494777 -0.05492569

encoder.2.weight f4 [128]
000000 00 00 80 3f 00 00 80 3f 47 9f b1 3f 4d ca 7d 3f
       1.0 1.0 1.3876733 0.9913681
000010 e1 d0 b9 3f 00 00 80 3f e2 8d cd 3f 85 da 97 3f
       1.451687 1.0 1.6058924 1.1863562
000020 00 00 80 3f 00 84 7a 3f e2 f9 15 40 27 b0 85 3f
       1.0 0.97857666 2.3433766 1.0444382
000030 00 00 80 3f 7f ae 89 3f 7e 59 82 3f fb a0 75 3f
       1.0 1.0756377 1.0183561 0.9594876
000040 ea 8e 73 3f 3c 08 6f 3f f0 54 7e 3f 00 00 80 3f
       0.95139945 0.9337194 0.99348354 1.0
000050 e1 c0 79 3f 00 00 80 3f 5f f4 44 3f 36 4c 81 3f
       0.97559935 1.0 0.7693538 1.0101383
000060 00 00 80 3f 98 9b 85 3f a4 78 b6 3f 3f 4b a8 3f
       1.0 1.0438108 1.4255567 1.3147963
000070 00 00 80 3f 23 6f 7f 3f eb 7b ad 3f 00 00 80 3f
       1.0 0.99778956 1.3553442 1.0
000080 48 21 62 3f 00 00 80 3f 0b ea 6e 3f 3b f9 9c 3f
       0.88332033 1.0 0.9332587 1.2263559
000090 00 00 80 3f ff f4 79 3f 00 00 80 3f 00 00 80 3f
       1.0 0.9763946 1.0 1.0
0000a0 00 00 80 3f 1d 59 a5 3f 4b a3 88 3f 17 80 0a 3f
       1.0 1.291782 1.0674833 0.541017
0000b0 a0 28 20 3f 56 21 62 3f 33 3c 67 3f 00 00 80 3f
       0.6256199 0.88332117 0.9032623 1.0
0000c0 00 00 80 3f f5 83 7d 3f 00 00 80 3f 00 00 80 3f
       1.0 0.99029475 1.0 1.0
0000d0 4b 94 fb 3f 02 02 b0 3f 5d 91 7e 3f e0 25 9d 3f
       1.965463 1.3750613 0.99440557 1.2277184
0000e0 10 a1 20 3f 94 f5 f4 3f e8 e5 9f 3f a7 57 7c 3f
       0.6274576 1.9137444 1.2492037 0.98571247
0000f0 11 37 7b 3f 00 00 80 3f 4c 25 7a 3f 2a 6b 92 3f
       0.981309 1.0 0.9771316 1.1438954
000100 00 00 80 3f 00 00 80 3f 10 f0 1d 3f dc cd 3c 3f
       1.0 1.0 0.6169443 0.73751616
000110 72 e5 d2 3f 4c 1e 93 3f 7e f1 7c 3f 00 00 80 3f
       1.6476271 1.1493621 0.9880599 1.0
000120 00 00 80 3f 66 d8 81 3f 00 00 80 3f d2 48 7a 3f
       1.0 1.0144165 1.0 0.97767365
000130 72 36 7d 3f ce 8b 7d 3f 00 00 80 3f 27 5f a9 3f
       0.989112 0.9904145 1.0 1.3232163
000140 00 00 80 3f c4 3a e7 3f 08 70 94 3f cb 91 78 3f
       1.0 1.8064809 1.1596689 0.9709746
000150 00 00 80 3f 00 00 80 3f d7 fa 7c 3f 7a ba 68 3f
       1.0 1.0 0.9882025 0.9090954
000160 44 85 c5 3f b8 99 26 3f 10 cf 2e 3f b3 a9 43 3f
       1.5431294 0.65078306 0.682847 0.76430815
000170 00 00 80 3f 95 17 6f 3f 97 da 87 3f c9 e5 a8 3f
       1.0 0.9339536 1.0613583 1.3195125
000180 8d b2 7e 3f 00 00 80 3f f0 59 22 3f dc 65 07 40
       0.99491197 1.0 0.63418484 2.115592
000190 0b 50 4c 3f 00 00 80 3f 03 94 23 3f fc ba 7e 3f
       0.79809636 1.0 0.6389772 0.99504066
0001a0 da f8 62 3f 62 8a 8a 3f 21 e5 92 3f 2e bb 78 3f
       0.8866097 1.0823481 1.1476175 0.97160614
0001b0 61 5f 89 3f 72 1c a3 3f 17 55 18 40 fd 2f 7e 3f
       1.0732232 1.2743056 2.3801935 0.99291974
0001c0 e0 fe 92 3f 09 e4 c3 3f da 58 7c 3f f6 77 fa 3f
       1.1484032 1.5303966 0.98573077 1.9567859
0001d0 00 00 80 3f 4c d3 7d 3f 00 00 80 3f 82 ac 17 3f
       1.0 0.9915054 1.0 0.592476
0001e0 a6 27 31 3f 04 b1 9f 3f 00 00 80 3f c1 34 8f 3f
       0.69201124 1.2475896 1.0 1.1187974
0001f0 8e ef 94 3f 27 e8 80 3f 5a 2b 06 3f 00 00 80 3f
       1.1635606 1.0070847 0.524099 1.0

encoder.2.bias f4 [128]
000000 61 64 c3 3e bc ac 01 3f 05 de 92 3d 1f ee 3d bc
       0.3816252 0.50654197 0.07171253 -0.011592417
000010 13 88 2e bf 30 14 10 3f 67 c1 42 3c 96 61 22 3e
       -0.6817638 0.56280804 0.011886931 0.15857539
000020 5d a0 c9 3e b6 dc d0 b9 96 48 69 bf f8 8d bb 3e
       0.3938016 -0.00039837294 -0.9112638 0.3663175
000030 37 ba a4 3b 84 2f 05 3f eb 9a cc 3d 94 5a d9 3b
       0.0050270814 0.5202563 0.09990486 0.006633112
000040 7a 36 5d bc 0e da 24 3e 33 fc ce 3e b0 ee 1d 3f
       -0.013501758 0.16098806 0.40426788 0.61692333
000050 62 ff db be 8c bd 95 be c1 62 82 3d 5c aa 97 3d
       -0.4296828 -0.29246175 0.06366492 0.0740554
000060 60 c1 06 bf 40 d8 0d bb 0a a3 01 3f 61 09 fd 3e
       -0.52638817 -0.0021643788 0.506394 0.49421218
000070 bd 79 be be db 9c 38 3f b7 65 12 3f 11 04 fb 3e
       -0.37202254 0.7211434 0.57186455 0.4902654
000080 fc 4e 50 bc d7 5a 08 3f 9b 29 f4 3d 32 d2 2b be
       -0.012714144 0.5326361 0.11921998 -0.16779402
000090 30 ac 04 3c c1 42 aa 3c 9f 53 e2 3e 80 ac c0 3e
       0.008097693 0.020783784 0.44204423 0.37631607
0000a0 29 ba 01 3f 54 ba c0 bc 2a af 5a 3e 69 e2 42 be
       0.5067468 -0.023526348 0.21355882 -0.19031681
0000b0 c5 0b a8 be a3 1f 15 3e 14 a3 a9 bc ec b4 95 be
       -0.3282148 0.1456285 -0.020707645 -0.29239595
0000c0 20 d7 f7 bb a8 24 68 3c f1 36 14 3f 1a b5 25 bf
       -0.0075634867 0.014168896 0.57896334 -0.64729464
0000d0 4e 03 1d be b9 17 cc 3e 31 07 b7 3e 3e bf 1a 3f
       -0.15333292 0.3986185 0.35747674 0.6044806
0000e0 62 25 55 3c e9 cd 28 bf fa 0b c8 3c f9 56 76 bb
       0.013009401 -0.65939194 0.024419773 -0.003758846
0000f0 33 8e 7e be 2b ee 03 3d 11 55 1f 3f 0a 3b ee be
       -0.24858932 0.032209557 0.62239176 -0.46529418
000100 c6 47 08 bf a6 0f 91 3e bf 06 31 3e 3f 70 40 3e
       -0.5323452 0.2833225 0.1728773 0.18792818
000110 8d a4 05 bf bc 23 22 3e a8 83 fc bb b0 b4 f3 be
       -0.5220421 0.15833944 -0.0077061243 -0.4759879
000120 f1 00 25 bf 09 cf 91 3c 01 40 d5 3e 89 88 58 3b
       -0.6445456 0.017798917 0.41650394 0.0033040366
000130 80 76 2c be f3 ab bb 3b 5e 6e a3 3e e4 59 25 bd
       -0.16842079 0.005727285 0.3192014 -0.04036893
000140 f5 c8 8a be 6a 92 86 3e 64 4b b8 bb b7 0b fa be
       -0.27106443 0.2628358 -0.0056242216 -0.48837063
000150 18 5f 3f bd fe cc 09 bf 41 25 15 be db b0 15 bd
       -0.046721548 -0.5382842 -0.14564992 -0.036545616
000160 0c 8c de be 18 d0 50 3e 83 0a 1f 3f 37 a6 53 3f
       -0.43466222 0.20391881 0.62125415 0.826755
000170 33 38 cb 3e 73 a2 44 bc 9f 8a 56 3e 89 88 48 be
       0.39691314 -0.012001622 0.20951317 -0.19583334
000180 c7 58 c2 3b af 2a d8 be 48 d3 a0 be 5a 4e c1 bc
       0.0059309932 -0.42220065 -0.31411195 -0.023596931
000190 1f 03 8a 3e 4d 91 ba 3e ca 8f 32 3e 18 8d b4 3e
       0.26955506 0.3643898 0.17437664 0.35263896
0001a0 4b 38 fc 3e 64 2e 99 be bf 57 2b bf 0a 6e 0c 3f
       0.49261698 -0.29918206 -0.66930765 0.54855406
0001b0 b0 3d b1 bc 00 e2 5b be 4a d4 c7 be d1 e4 40 3b
       -0.02163586 -0.21472931 -0.3902915 0.002943326
0001c0 0f 66 52 bd 8d bf 01 be b9 9b 90 3e fb db 4e 3e
       -0.051366862 -0.12670727 0.28243807 0.20201103
0001d0 b6 e2 e4 be 98 f5 e7 bc 2a 3d 81 be c0 f9 74 3e
       -0.44704217 -0.02831535 -0.25241977 0.23923397
0001e0 35 34 40 3c d8 12 42 be c3 dc 07 3f 94 02 d8 3e
       0.011731197 -0.18952501 0.5307123 0.42189467
0001f0 dc ed 1c 3e b6 6b 90 3d ca e2 e7 3d cb 85 87 3e
       0.15325111 0.07051794 0.113225535 0.26469263

encoder.2.running_mean f4 [128]
000000 00 00 00 00 00 00 00 00 1b 12 13 3f 04 00 00 00
       0.0 0.0 0.574495 6e-45
000010 6b 91 51 3e 00 00 00 00 52 01 39 3d f2 3d cf 3e
       0.20465629 0.0 0.045167275 0.40476948
000020 00 00 00 00 04 00 00 00 03 bf 74 3d 53 9f 20 3f
       0.0 6e-45 0.059752475 0.6274311
000030 00 00 00 00 cc b8 df 3e 39 c5 07 3f 04 00 00 00
       0.0 0.43695676 0.5303531 6e-45
000040 04 00 00 00 01 4c f6 3e 04 00 00 00 00 00 00 00
       6e-45 0.4810486 6e-45 0.0
000050 0c e2 29 3f 00 00 00 00 b9 a9 ea 3e 76 19 d0 3e
       0.66360545 0.0 0.45832613 0.40644425
000060 00 00 00 00 3e 9b 10 3f 35 f0 2a 3f d8 76 12 3f
       0.0 0.5648688 0.66772777 0.5721259
000070 00 00 00 00 04 00 00 00 85 f6 e4 3e 00 00 00 00
       0.0 6e-45 0.4471933 0.0
000080 04 00 00 00 00 00 00 00 0a ba 0d 3f ed ac b7 3e
       6e-45 0.0 0.55362 0.3587412
000090 00 00 00 00 04 00 00 00 00 00 00 00 00 00 00 00
       0.0 6e-45 0.0 0.0
0000a0 00 00 00 00 c1 02 18 3f 00 dc 26 3f 8e 9a 18 3f
       0.0 0.593792 0.65179443 0.5961083
0000b0 40 23 1b 3f dd 26 0e 3e bf f2 ed 3e 00 00 00 00
       0.6060066 0.13882013 0.46474263 0.0
0000c0 00 00 00 00 04 00 00 00 00 00 00 00 00 00 00 00
       0.0 6e-45 0.0 0.0
0000d0 3c d0 94 3f 5d 87 0d 3f 04 00 00 00 a7 52 02 3f
       1.1626048 0.5528467 6e-45 0.5090737
0000e0 b4 5c ee 3e f2 f7 42 3d e5 f3 12 3f 04 00 00 00
       0.46555102 0.04759974 0.57403404 6e-45
0000f0 f1 4d 29 3f 00 00 00 00 04 00 00 00 e3 f4 93 3f
       0.66134554 0.0 6e-45 1.1559108
000100 00 00 00 00 00 00 00 00 10 9f 2e 3f c5 cc 0d 3f
       0.0 0.0 0.6821146 0.5539058
000110 4b fb 39 3f 0d 6b 20 3f 04 00 00 00 00 00 00 00
       0.7264907 0.62663347 6e-45 0.0
000120 00 00 00 00 76 e7 01 3f 00 00 00 00 04 00 00 00
       0.0 0.50743806 0.0 6e-45
000130 9f 48 f2 3d 04 00 00 00 00 00 00 00 e1 f7 20 3f
       0.118302576 6e-45 0.0 0.62878233
000140 00 00 00 00 b0 6b db 3e b2 2f 29 3f 20 3d 23 3f
       0.0 0.42855597 0.660884 0.63765144
000150 00 00 00 00 00 00 00 00 04 00 00 00 70 08 2d 3f
       0.0 0.0 6e-45 0.67591
000160 e6 30 4f 3f f2 c4 33 3f 77 5d f8 3e ee d9 11 3f
       0.8093399 0.7022239 0.48508808 0.5697316
000170 00 00 00 00 04 00 00 00 44 4a 57 3f ed 9b 07 3f
       0.0 6e-45 0.84097695 0.529723
000180 04 00 00 00 00 00 00 00 99 6b 4d 3e ca 2e 87 3f
       6e-45 0.0 0.20060576 1.0561154
000190 d9 52 20 3f 00 00 00 00 ca c1 02 3f 04 00 00 00
       0.62626415 0.0 0.5107695 6e-45
0001a0 be d0 2e 3f e0 04 04 3f 23 a3 fc 3e 04 00 00 00
       0.68287265 0.5156994 0.49343213 6e-45
0001b0 04 00 00 00 7f e2 45 3f 4d f8 8f 3f 04 00 00 00
       6e-45 0.7729873 1.124765 6e-45
0001c0 0f f9 23 3f 6d c4 10 3f 04 00 00 00 f3 2a 76 3f
       0.6405191 0.5654972 6e-45 0.96159285
0001d0 00 00 00 00 04 00 00 00 00 00 00 00 66 1e 16 3f
       0.0 6e-45 0.0 0.58640134
0001e0 32 83 2d 3f ab 96 44 3f 00 00 00 00 bb 3c fe 3e
       0.67778313 0.767924 0.0 0.4965571
0001f0 6c 91 1b 3f 4e 0c 08 3f f0 26 c5 3e 00 00 00 00
       0.6076877 0.53143775 0.3850627 0.0

encoder.2.running_var f4 [128]
000000 04 00 00 00 04 00 00 00 ef b9 01 3d 04 00 00 00
       6e-45 6e-45 0.03167146 6e-45
000010 f8 94 cf 3c 04 00 00 00 87 7f 9c 3b fb e6 eb 3c
       0.025339589 6e-45 0.0047759446 0.028796664
000020 04 00 00 00 04 00 00 00 9a dd 63 3b ac 4f c6 3c
       6e-45 6e-45 0.0034769536 0.024207912
000030 04 00 00 00 ee ca 7c 3c e2 9d 91 3c 04 00 00 00
       6e-45 0.015429242 0.01777548 6e-45
000040 04 00 00 00 6b 78 6a 3c 04 00 00 00 04 00 00 00
       6e-45 0.014310936 6e-45 6e-45
000050 aa 07 95 3c 04 00 00 00 36 40 b9 3c a8 28 0a 3d
       0.018192131 6e-45 0.022613626 0.03373018
000060 04 00 00 00 8f 56 f4 3c f0 cb 79 3d 8b 52 24 3d
       6e-45 0.02982643 0.060985506 0.04011778
000070 04 00 00 00 04 00 00 00 2d 83 dd 3c 04 00 00 00
       6e-45 6e-45 0.027040089 6e-45
000080 04 00 00 00 04 00 00 00 86 a3 d3 3c 72 4e 23 3d
       6e-45 6e-45 0.02583481 0.039869733
000090 04 00 00 00 04 00 00 00 04 00 00 00 04 00 00 00
       6e-45 6e-45 6e-45 6e-45
0000a0 04 00 00 00 3a 8d 08 3d e9 37 17 3d 88 04 1e 3c
       6e-45 0.03333781 0.036918554 0.009644635
0000b0 41 7d 76 3c 92 f8 9f 3b f1 86 3f 3c 04 00 00 00
       0.015044511 0.004881927 0.011689887 6e-45
0000c0 04 00 00 00 04 00 00 00 04 00 00 00 04 00 00 00
       6e-45 6e-45 6e-45 6e-45
0000d0 ba 0b 14 3e 82 5f ee 3c 04 00 00 00 dc 91 f8 3c
       0.14457598 0.029098276 6e-45 0.030342989
0000e0 bd e1 30 3c e6 77 47 3b 9c a0 f3 3c 04 00 00 00
       0.010796008 0.0030436455 0.02973967 6e-45
0000f0 e6 3c 07 3d 04 00 00 00 04 00 00 00 22 34 ac 3d
       0.03301706 6e-45 6e-45 0.08408381
000100 04 00 00 00 04 00 00 00 7f 4b 56 3c 2d e8 7c 3c
       6e-45 6e-45 0.013079523 0.015436214
000110 6e 2e 7e 3d 62 3a f4 3c 04 00 00 00 04 00 00 00
       0.062055998 0.029812995 6e-45 6e-45
000120 04 00 00 00 ad 4a 04 3d 04 00 00 00 04 00 00 00
       6e-45 0.03229778 6e-45 6e-45
000130 55 8f fb 3b 04 00 00 00 04 00 00 00 3c ac 10 3d
       0.0076769986 6e-45 6e-45 0.035320505
000140 04 00 00 00 a4 da 0d 3e 41 57 38 3d 4e a0 05 3d
       6e-45 0.13852936 0.045005087 0.03262358
000150 04 00 00 00 04 00 00 00 04 00 00 00 95 1e 22 3d
       6e-45 6e-45 6e-45 0.039579947
000160 4b e1 9c 3d cb 49 a1 3c 85 15 3e 3c 3e 6b 09 3c
       0.07660159 0.019688508 0.01160181 0.008387385
000170 04 00 00 00 04 00 00 00 d5 f5 23 3d 88 fd e9 3c
       6e-45 6e-45 0.040029366 0.028563276
000180 04 00 00 00 04 00 00 00 63 51 2e 3c 26 d0 29 3e
       6e-45 6e-45 0.010639521 0.16583309
000190 a6 c5 84 3c 04 00 00 00 1a cd 72 3c 04 00 00 00
       0.016207527 6e-45 0.014819408 6e-45
0001a0 70 a6 b8 3c 4b fe ba 3c 5b 2c 12 3d 04 00 00 00
       0.022540301 0.022826334 0.035686832 6e-45
0001b0 04 00 00 00 ac 24 38 3d 58 fe 52 3e 04 00 00 00
       6e-45 0.044956848 0.20604837 6e-45
0001c0 8f 89 39 3d 98 b0 a5 3d 04 00 00 00 39 6f 86 3d
       0.0452972 0.08090323 6e-45 0.06564183
0001d0 04 00 00 00 04 00 00 00 04 00 00 00 bd 60 03 3c
       6e-45 6e-45 6e-45 0.00801867
0001e0 1b e8 81 3c 63 3c a2 3d 04 00 00 00 a7 27 3b 3d
       0.015857747 0.07921674 6e-45 0.045692112
0001f0 d4 9f 0f 3d 85 b1 9d 3c de 31 1a 3c 04 00 00 00
       0.035064533 0.019249687 0.009411303 6e-45

encoder.4.weight f4 [64, 128]
000000 59 07 1f 3c 59 05 be bc f3 ad 65 bd b6 ff 1e bc
       0.009706342 -0.02319591 -0.056074094 -0.009704521
000010 01 d9 ff 3d 61 18 d6 bd f0 9f c1 3f 2a dc b5 be
       0.12492562 -0.10453869 1.5126934 -0.35519534
000020 43 ea 86 3c 09 a8 1c b8 0c 4c 6e 3f 35 c2 64 3c
       0.016469127 -3.7349793e-05 0.9308479 0.013962318
000030 a5 2d 6f 3c f1 3e c1 be 83 58 73 3e ac 9d 3d 3c
       0.014598285 -0.37743333 0.23764233 0.011573236
000040 b3 a2 3e bc 82 08 00 3f 80 ec 4d bc c7 c5 1f bd
       -0.01163547 0.5001298 -0.012568593 -0.039006975
000050 45 73 f2 3e ae 6f 3a bd 83 24 12 bd 92 d5 23 3f
       0.4735357 -0.045516662 -0.03567935 0.6399776
000060 5d 51 e4 3d 4f 01 f6 be 60 71 40 3e 1a f0 06 bf
       0.11148331 -0.48047873 0.18793249 -0.52710116
000070 df 79 91 3b be 6a 8c bd 5f 7c 06 be 2a 5c 97 bd
       0.004439577 -0.06856297 -0.13133381 -0.07390626
000080 91 01 6f bc 3a 3a ad bd 20 3c e0 bd 19 08 ae bf
       -0.014587776 -0.084583715 -0.10948968 -1.3596221
000090 53 2c 7e 3b 53 61 82 3c 00 cc ce 3c 16 d9 b4 bc
       0.0038783744 0.015915548 0.02524376 -0.02207617
0000a0 1a f0 0b bd cf 21 cd be 64 f9 14 be f7 a3 fe 3e
       -0.034164526 -0.40064856 -0.1454826 0.4973447
0000b0 c1 26 36 bc d1 a3 19 40 09 ae 9f be b4 86 a9 bc
       -0.011117638 2.4006236 -0.31187466 -0.020694114
0000c0 81 a9 07 3c fd bc 8a 3c ff 5d 97 bc f0 9c 0e 3e
       0.008280159 0.01693582 -0.018477438 0.13927054
0000d0 51 c7 00 bf fe f8 2c 3e a3 36 9e b8 13 32 e9 3e
       -0.5030413 0.16891858 -7.544204e-05 0.45546016
0000e0 d0 ce 1c 3f 70 24 09 3f 0e 73 8b 3d 2b 52 f6 bb
       0.6125307 0.53571224 0.06809054 -0.0075171194
0000f0 25 6d 59 bf 10 3b 4d 3c 9e ac 59 bd 60 a1 ba 3f
       -0.84932166 0.012526289 -0.053143136 1.4580498
000100 52 5d 5b 3c f6 a3 64 bc 67 c8 31 3f 52 81 48 bf
       0.0133889485 -0.013955107 0.69446415 -0.7832233
000110 96 4a 3c 3d 08 75 f2 be 22 a3 f1 b8 5b 92 64 3d
       0.04596957 -0.47354913 -0.000115221614 0.055803638
000120 6f 73 5a 3d cd 27 16 3e b7 33 d7 bc 6a 9c 4f 3b
       0.053332742 0.1466362 -0.026269777 0.0031678923
000130 c8 71 c1 3e 28 be 0b 3c 72 76 2d 3d c1 71 2d be
       0.3778212 0.0085292235 0.042349286 -0.16937925
000140 fd c7 62 bd 70 d1 83 be e3 b3 26 3f 1c bf c8 3f
       -0.055366505 -0.25745726 0.65118235 1.5683322
000150 d6 95 d1 bc af 9d b4 3d 3b e5 3f bd 4e 9a 25 3d
       -0.025584143 0.08819138 -0.04684947 0.04043036
000160 77 c7 30 be 87 9c ab bf ce ca 9b 3e 1e b6 05 be
       -0.1726359 -1.3407143 0.30428165 -0.13057753
000170 bf 1a d7 3c f2 4f 1e bc 2c 1f 2d 3f be 06 26 3f
       0.02625787 -0.009662615 0.6762569 0.6485404
000180 3f 9f 44 3b 41 5b f9 3c fd 07 64 bd 25 34 8f be
       0.0030002145 0.030439021 -0.05567168 -0.2796947
000190 8c a1 71 bf e7 f5 12 3d c6 be 5b 3e ec ba 11 3b
       -0.94387126 0.035879042 0.21459493 0.0022236658
0001a0 5b 31 de 3e 82 1e c9 3e 58 0d a7 be b9 3a fb bd
       0.4339703 0.39281088 -0.32627368 -0.1226706
0001b0 48 bd 17 3c 23 02 4a be 71 5e 51 be 7c 6d 09 ba
       0.009261437 -0.19727378 -0.20446183 -0.00052424497
0001c0 8f 41 bb be 3c 7b 42 bf 27 29 08 3c 96 06 68 be
       -0.36573455 -0.7596929 0.008310593 -0.22658762
0001d0 81 63 94 bb 17 7f 94 bc d7 76 0d bd fb 1d 44 be
       -0.0045284634 -0.018127007 -0.034537163 -0.19152062
0001e0 85 7e 00 bf 99 79 90 3f 79 d4 e4 bc 26 44 95 be
       -0.50193053 1.1287109 -0.027933346 -0.29153556
0001f0 5e ee 63 3f d6 ae 20 bf 45 ab 82 bf 59 54 e1 3b
       0.89035594 -0.6276678 -1.0208517 0.00687651
000200 49 75 49 3e 76 7d 3b 3e 90 5f 10 bf 97 78 bd bc
       0.19673647 0.18309578 -0.56395817 -0.02312879
000210 93 82 c8 bd 4f 9a 39 3e b6 66 d4 3e 4d 87 72 bf
       -0.0979053 0.1812527 0.41484612 -0.947377
000220 8a 8a 3a 3e 25 8c 90 bb 6d 28 bb 3d e0 e4 81 3e
       0.18216911 -0.004411238 0.0913857 0.2536993
000230 99 71 3a 3b 79 33 45 3e 57 b3 4d 3e 81 1c 13 3c
       0.0028449057 0.19257917 0.20087944 0.008978964
000240 ee 36 94 bc 7e 31 e3 be eb b1 23 3e fd c7 32 3e
       -0.018092599 -0.44373697 0.15985839 0.17459102
000250 00 fe 84 3d a0 cd 2d be e1 e1 40 3e c1 09 7c ba
       0.06493759 -0.16972971 0.18836166 -0.00096144906
000260 7e ca 64 be 29 6b cc 3e a1 32 a7 3f 34 d6 34 bf
       -0.2234287 0.39925507 1.3062326 -0.7063935
000270 04 6a 1a be b6 0f 64 3e a0 68 f0 3e b8 b8 0e 3e
       -0.15079504 0.22271618 0.46954823 0.13937652
000280 81 98 10 bc d2 54 79 3e 9a db 43 3e 51 95 08 3f
       -0.008825422 0.24348763 0.1912674 0.5335284
000290 3d 46 bf 3b 8e 68 d2 3c 6f 5d 3c 3e 83 01 7d 3e
       0.0058372305 0.025684621 0.18395017 0.24707608
0002a0 c3 e0 0d 3e e1 de be be 8c 60 4f 3c 8b cf 1a bd
       0.13855271 -0.37279418 0.012657296 -0.037795585
0002b0 b5 b7 79 be 83 af 0e 3f a0 4c d0 be bf 60 e1 bd
       -0.24386485 0.5573656 -0.4068346 -0.11004781
0002c0 ac 31 33 bc c3 03 57 3c ab 7a 2a 3e f7 1a d5 bd
       -0.010937136 0.013123455 0.16648357 -0.10405534
0002d0 6b ae 88 3f 09 79 ea 3d 19 20 38 3e 10 cb bf 3e
       1.0678228 0.11448867 0.17980994 0.37459612
0002e0 34 f0 38 bf c0 aa 25 be 37 c9 fb 3e 90 f8 04 bc
       -0.7224152 -0.16178417 0.49176952 -0.008115903
0002f0 29 00 41 3e 9b 82 ac 3c 52 25 4e 3e bc 5b 1a be
       0.18847717 0.021058371 0.20131424 -0.15074056
000300 c1 fe 44 be 73 26 3f 3e 44 37 9a bf d0 ae 86 3e
       -0.19237806 0.18667011 -1.2048116 0.26305246
000310 d2 f8 0f 40 06 cc 08 bf 53 ef 96 bb fa e4 56 be
       2.2495618 -0.53436315 -0.0046061664 -0.20985785
000320 06 e4 71 be 81 e7 61 3f 82 8c 6b 3e 92 39 b7 3b
       -0.2362214 0.8824387 0.23002818 0.0055915797
000330 fe a7 5b 3f 33 69 cd ba 4c 1e 2a 3e 79 96 96 3e
       0.8580321 -0.0015671611 0.1661312 0.29411677
000340 2c 09 08 be 38 48 a5 bd 69 1d e8 bc 9f f8 99 be
       -0.13284749 -0.08070415 -0.028334336 -0.30072495
000350 74 c8 4f bd 6a f3 7e be 26 e5 19 be 5d a3 28 3f
       -0.050728276 -0.24897543 -0.1502882 0.6587427
000360 4a 5f b3 be 95 b0 62 bf bf ec 7a 3f 73 bb 94 bf
       -0.35033637 -0.8855069 0.98017496 -1.1619705
000370 7d 43 76 3e e9 d7 59 bc 78 02 20 3e 84 1a ab 3e
       0.24049182 -0.013296106 0.15625942 0.33418667
000380 26 7c 48 3c 19 8d 34 be 34 ff b5 be 73 2c b0 be
       0.012236631 -0.1763195 -0.35546267 -0.34408912
000390 09 c3 0d 3f 5e e0 2f 3e 85 a9 d6 3e d3 49 78 3e
       0.55375725 0.17175433 0.41926208 0.24246912
0003a0 cb c1 14 3f 80 ef ca be 86 a0 f2 bd 42 92 45 3e
       0.58108205 -0.3963585 -0.11847024 0.19294074
0003b0 04 31 26 bd b3 01 dc 3f 58 3b 64 3f 97 46 b5 3b
       -0.04057409 1.7188019 0.8915305 0.0055320966
0003c0 b8 49 32 3f dd d2 1b 3f 9c 62 58 3e 72 66 cf bf
       0.69643736 0.60868627 0.21131366 -1.6203139
0003d0 13 d9 36 be 5c b0 dd bc 58 ea 12 be 64 18 0d bf
       -0.17856245 -0.027061634 -0.14347208 -0.5511534
0003e0 6b 9b ce be b5 c7 de bd 2d b5 54 3e 0b 3d 0f 3f
       -0.4035295 -0.10877935 0.20772238 0.5595252
0003f0 b8 37 96 be e7 30 19 be 2a b0 1d 3e f9 54 e4 3d
       -0.29339385 -0.14960061 0.15399233 0.1114902

encoder.4.bias f4 [64]
000000 5f 7d 49 be 9a 20 64 3e cf 88 d3 3e fb a8 a8 3e
       -0.19676732 0.22278062 0.41315314 0.32941422
000010 62 93 f1 3e eb 3f 08 bd c8 8e 8d 3d d0 30 d5 3c
       0.47182757 -0.033264082 0.06911999 0.026024252
000020 2a 63 eb 3e 6b 7a 15 3f 05 0b 2a bf 02 d8 94 3f
       0.45974094 0.5838992 -0.66423064 1.162842
000030 d1 ec 6b 3d ab 42 34 40 20 e8 f8 3e a6 93 4f 3e
       0.057598893 2.816569 0.48614597 0.20271167
000040 78 f5 b8 be 62 06 26 be ee 5c d9 3f 29 11 e8 3f
       -0.36124778 -0.16213372 1.6981485 1.8130237
000050 06 24 0d 3f 20 98 d7 bd 5d c7 e4 3f 86 f4 f5 3e
       0.5513309 -0.105270624 1.7873341 0.4803812
000060 6d 3b 41 3f 9a be 03 3f 61 c9 a3 be 62 20 ae 3e
       0.754813 0.5146271 -0.31989577 0.3400908
000070 84 50 af 3e a7 f5 78 be 6a 2d 85 3f da a4 84 3e
       0.34241116 -0.24312459 1.0404484 0.25907022
000080 1f 6e e5 3e ac c2 a0 be 89 91 d3 be 2d 53 91 be
       0.44810578 -0.31398523 -0.41321972 -0.2838377
000090 54 08 47 3f 38 73 c4 3e 46 a0 1c 3f d9 29 bd 3f
       0.7774708 0.38369155 0.6118206 1.4778396
0000a0 b1 62 42 3f b9 5d 0d 3f 4a 3c a9 be 19 65 e2 3e
       0.7593184 0.55221134 -0.3305381 0.44217756
0000b0 fa b3 46 3f 08 19 01 40 7b c2 0c 40 70 68 a9 3e
       0.7761837 2.0171528 2.1993701 0.33087492
0000c0 72 27 1f 3e 4c 12 10 3f 01 90 64 3e ad 92 e4 3f
       0.15542391 0.5627792 0.22320558 1.7857262
0000d0 2f fd 32 40 69 c8 15 3f be 65 8e be 90 c4 44 40
       2.796703 0.58508927 -0.27811998 3.0744972
0000e0 f7 3b a9 3f 10 ba ae 3f 01 c2 7d be ac bf d1 3d
       1.3221425 1.3650532 -0.24781038 0.10241637
0000f0 a2 36 2f 3f f1 bc ff 3f aa 0f 0a 3f e0 f9 30 40
       0.6844274 1.9979535 0.5393015 2.7652512

encoder.6.weight f4 [64]
000000 33 0a 1c 40 53 8c b5 3f 8b 5c 9b 3f db 3b e4 3f
       2.4381225 1.4183449 1.2137617 1.7830766
000010 41 89 54 3f 25 25 23 40 5b 8f cf 3f 63 a0 87 3f
       0.8302193 2.5491421 1.6215624 1.0595821
000020 f0 54 9b 3f 5d 40 92 3f 4a b5 51 3f c7 25 87 3f
       1.2135296 1.1425892 0.8191725 1.0558404
000030 e9 26 9e 3f ef b0 7d 3f 46 43 5a 3f d0 3f 13 3f
       1.2355624 0.99098104 0.852589 0.57519245
000040 74 c1 f0 3e f5 45 8b 3f 06 3f 8e 3f a5 29 3b 3f
       0.47022593 1.0880724 1.1112983 0.7311042
000050 3c 56 02 40 7b 54 74 3f 73 de a7 3f 17 5c 4c 3f
       2.0365133 0.95441407 1.3114761 0.7982802
000060 d6 42 2f 3f 94 67 11 40 76 92 40 3f de d3 ca 3f
       0.6846136 2.271947 0.7522348 1.5845907
000070 d9 4a 5e 3f 37 16 7f 3f 11 f0 10 40 c2 fb 8b 3f
       0.8683296 0.9964327 2.2646525 1.0936205
000080 ff ce 7a 3f 85 06 b1 3f 74 fc 69 3e b3 be 79 3f
       0.979721 1.3830115 0.2285021 0.9755661
000090 d4 02 ab 3f 6a 4c 74 3f 2f 76 20 40 9b 50 f6 3f
       1.3360238 0.954291 2.5072134 1.9243349
0000a0 59 01 2a 3f fe 3a 25 3f 28 dd a9 3f 43 a9 aa 3f
       0.66408306 0.6454314 1.3270617 1.3332905
0000b0 6a 81 86 3f 3e 1e f8 3e 84 1f c2 3f f1 85 57 3f
       1.0508244 0.48460573 1.5165868 0.84188753
0000c0 1a 11 95 3f b5 36 ac 3f d3 83 97 3f 4b 17 7f 3f
       1.1645844 1.3454195 1.1837105 0.9964492
0000d0 a2 71 91 3f 7f 47 ad 3f ce 07 a1 3e 05 9b ad 3f
       1.1362803 1.3537444 0.31451267 1.3562933
0000e0 09 f6 91 3f 4b a7 ae 3f ee 56 3b 3f cb a8 96 3f
       1.1403209 1.3644804 0.7317952 1.1770262
0000f0 47 82 d6 3f b4 91 d5 3f 05 ae ae 3f c0 5c d0 3e
       1.6758507 1.668509 1.3646857 0.40695763

encoder.6.bias f4 [64]
000000 ab 80 89 bf ea f8 a7 bf 05 41 2a c0 d8 18 96 be
       -1.0742391 -1.3122838 -2.6602185 -0.2931583
000010 98 7c 71 c0 f1 d0 4e 3f d8 6f 2d c0 75 b0 11 c0
       -3.7732296 0.8078757 -2.7099514 -2.276395
000020 ab dd ef 3f de 9d 18 bf 2b 67 68 c0 a2 67 3b c0
       1.8739523 -0.59615886 -3.6312969 -2.9282002
000030 3c c2 2e c0 a6 00 3f c0 f5 a5 94 bf 2d c9 be bf
       -2.7306051 -2.9844146 -1.1613146 -1.4905144
000040 6e 00 af 3d f4 2a 42 bf 61 21 48 c0 95 06 db bf
       0.08545004 -0.7584679 -3.1270373 -1.7111384
000050 e1 4f 1c c0 ac 6c 19 c0 3c 94 52 3f 03 ca 16 c0
       -2.4423754 -2.3972578 0.8225744 -2.3560798
000060 f6 ba a6 bf 3e 52 c5 bf 02 ee 31 bf ca 03 2f c0
       -1.3025806 -1.5415723 -0.69503796 -2.7346063
000070 4b 5b 08 c0 f9 02 2a bd 30 bf da bf 5c 70 ce bf
       -2.130572 -0.04150674 -1.7089596 -1.6128039
000080 cf 28 3b c0 3d 41 f2 bf c9 b3 2d bf cb b8 2a c0
       -2.9243658 -1.8926159 -0.67852455 -2.6675289
000090 c3 ad 2a 3f 5c 3e 86 bf 93 37 c9 bf 26 12 4e c0
       0.6667139 -1.048778 -1.5720085 -3.2198577
0000a0 3c 5c c4 bf ec a1 c5 bf 04 56 63 c0 c4 d1 3d c0
       -1.5340648 -1.544004 -3.552125 -2.965928
0000b0 9d 44 58 3f 76 16 2f 3f 53 72 dd bf 32 25 76 be
       0.84479696 0.6839365 -1.7300514 -0.24037626
0000c0 44 67 2a 3e f6 29 93 be df e1 fb bf 96 1f d6 3f
       0.16640955 -0.2874295 -1.9678305 1.6728389
0000d0 3b 1a f0 bf aa 69 00 40 13 a5 95 bf 0f b0 29 c0
       -1.8758005 2.0064492 -1.1691002 -2.6513708
0000e0 3b 32 46 c0 96 30 68 3f b5 8e 93 bd a8 89 13 c0
       -3.0968158 0.90699136 -0.072049536 -2.3052769
0000f0 33 fd c0 3f 3b 99 e1 3f 26 93 2a c0 73 05 23 3f
       1.507727 1.7624887 -2.6652312 0.6368019

encoder.6.running_mean f4 [64]
000000 2f 4a 99 40 63 9e 72 40 cd 0e e7 40 ed 8e 35 41
       4.7903056 3.7909172 7.2205567 11.347394
000010 00 9f ad 40 21 19 31 40 7c 26 03 40 36 86 07 41
       5.425659 2.7671587 2.049224 8.470266
000020 11 a4 0b 41 40 97 2c 41 04 00 00 00 f1 5d 76 41
       8.727555 10.786926 6e-45 15.397935
000030 5a d0 1b 41 c0 2c b4 41 ee c4 d8 40 0b cb 9b 40
       9.738367 22.52185 6.7740393 4.8685355
000040 ae e4 87 40 ce 60 97 40 80 aa 63 41 df 48 b2 41
       4.246665 4.730567 14.229126 22.285582
000050 38 5c 06 41 de f0 6c 40 18 85 61 41 db e9 d1 40
       8.397514 3.7022014 14.094994 6.559797
000060 aa b5 37 41 0e 93 84 41 04 00 00 00 8e 03 b8 40
       11.481852 16.571804 6e-45 5.750434
000070 43 ac b6 40 04 00 00 00 b8 e6 81 41 70 49 67 40
       5.708528 6e-45 16.237656 3.6138573
000080 7d 06 82 40 c8 97 4b 40 04 00 00 00 04 00 00 00
       4.063292 3.181139 6e-45 6e-45
000090 83 2e 23 41 f1 5c 0e 41 0e 96 5c 41 fe 32 6f 41
       10.198855 8.897691 13.786634 14.949949
0000a0 30 11 37 41 a5 ca 20 41 27 3a 1a 40 ab 6a 05 41
       11.441696 10.049474 2.4097993 8.338542
0000b0 de 65 37 41 2a ac 75 41 8d e8 c3 41 7d 07 8b 40
       11.46237 15.354532 24.48855 4.344664
0000c0 74 34 41 40 9a 80 20 41 fc 50 e7 40 80 4f 85 41
       3.0188265 10.031397 7.228636 16.663818
0000d0 2e 6f cc 41 ed 43 1c 41 30 3e 10 40 f3 e8 c9 41
       25.554287 9.766583 2.2537956 25.238745
0000e0 20 e8 59 41 bf 71 58 41 04 00 00 00 1e cf 0e 41
       13.619171 13.52777 6e-45 8.925566
0000f0 6e 13 2a 40 79 c9 c6 41 c3 61 33 41 41 ae b5 41
       2.657436 24.848375 11.211368 22.710085

encoder.6.running_var f4 [64]
000000 4d 11 2f 42 be ab ec 41 d8 a6 a2 42 1d ff e5 42
       43.766895 29.583858 81.32587 114.99827
000010 2e 0f 17 42 41 3b 0c 42 ad a6 0b 41 99 b0 ee 42
       37.764824 35.057865 8.728192 119.34492
000020 8d e3 8a 42 09 c2 01 42 04 00 00 00 bd 40 03 43
       69.444435 32.439487 6e-45 131.25288
000030 e9 94 12 43 32 3e 54 42 1d d9 8d 42 a7 f5 2c 42
       146.58168 53.060738 70.92405 43.239895
000040 dc df a0 41 8e 0c dc 41 a9 22 d9 42 dd 65 38 42
       20.109306 27.50613 108.567696 46.099476
000050 fc c6 8a 42 b2 86 2c 41 a0 76 0a 42 1b 00 c8 41
       69.38864 10.782885 34.615845 25.000051
000060 08 1c 1f 42 0a b4 66 43 04 00 00 00 c2 39 15 42
       39.777374 230.70328 6e-45 37.306404
000070 f9 ee 18 42 04 00 00 00 e9 af 48 43 0f 5e 18 42
       38.23337 6e-45 200.68715 38.091854
000080 82 c3 38 42 67 b2 27 41 04 00 00 00 04 00 00 00
       46.190926 10.481055 6e-45 6e-45
000090 59 25 9e 41 57 c8 84 42 1b 2e 23 43 14 59 36 42
       19.768236 66.39129 163.1801 45.58699
0000a0 8b f2 19 42 13 30 2c 42 84 fe 8e 41 03 0e d2 42
       38.48686 43.046947 17.874275 105.02737
0000b0 1c 47 87 41 61 da 3d 42 18 59 34 42 df da 0b 42
       16.909721 47.46326 45.087006 34.96374
0000c0 12 fa 9b 41 69 1a f9 41 93 7a 21 42 06 be 45 42
       19.497105 31.137896 40.3697 49.43557
0000d0 7c aa 84 42 2a a9 86 42 4b 81 92 40 4b f4 91 42
       66.33298 67.3304 4.578283 72.977135
0000e0 cc 03 e9 42 d0 de 06 42 04 00 00 00 fd cb fe 42
       116.507416 33.71759 6e-45 127.398415
0000f0 0a dc c6 41 db e2 d8 42 ad 92 38 43 9f b8 e3 41
       24.85744 108.44308 184.57295 28.465147

decoder.0.weight f4 [128, 64]
000000 1c ae 01 3e b8 1a 17 bf e8 00 72 bd e7 ae ad 3f
       0.12664074 -0.59025145 -0.059082896 1.3569001
000010 72 ed cf 3e b2 be 34 be 03 9c 15 bd af 90 35 3e
       0.40610844 -0.1765087 -0.036525737 0.17730974
000020 5e 97 a6 bd dd 10 df 3d 56 84 13 be 62 8f 16 3f
       -0.0813434 0.10891888 -0.14405951 0.58812535
000030 4f ab 52 bf 46 77 65 3e d5 31 c1 3e 4d 36 21 be
       -0.82292646 0.2240878 0.3773333 -0.1574337
000040 0a 40 3b 3e 5c dd e7 3e 5a c8 b4 3f b6 8b 53 bf
       0.18286148 0.4528607 1.4123642 -0.82635057
000050 f3 08 a5 3f e8 81 29 37 1d 71 2c 3d 5e 33 6c 3e
       1.2893356 1.0103431e-05 0.04210006 0.2306647
000060 5a bd 69 bd 50 4f c1 3f e3 c3 4c 3e 67 6d f1 3e
       -0.057065345 1.5102329 0.199966 0.4715378
000070 36 a5 bb 3e 9d 07 50 3d 76 d5 a1 3f f1 b6 89 3f
       0.36649483 0.05078851 1.2643268 1.0758954
000080 41 99 9e 3d 75 8e e0 3e 2b d6 6b 3e 3d 5a 9d 3e
       0.077440746 0.43858686 0.23030917 0.3073291
000090 38 68 76 bd 80 d3 33 3f c2 51 65 3f 0d b4 e2 3a
       -0.060157984 0.702446 0.8957788 0.0017296091
0000a0 94 d5 27 3e ed 2c 65 3e 9d e4 64 3e f7 e3 3f bf
       0.16390067 0.22380419 0.22352834 -0.7495722
0000b0 be e0 2a be 4d 9c ce 3e 3e b8 74 3e 50 f7 99 3d
       -0.16687295 0.40353623 0.23898408 0.07517874
0000c0 2d 75 bd 3e 19 77 96 3d 86 cc ca be 59 00 ca 3c
       0.3700346 0.07346935 -0.39609164 0.024658369
0000d0 e8 f9 1e 3e c7 19 97 bd 56 f6 82 3e 2b b8 8d bd
       0.15525019 -0.073779635 0.25578564 -0.06919893
0000e0 79 05 3e 3f 29 bd 64 bd a2 10 0b 3e cb 28 e2 bd
       0.742271 -0.05584446 0.13580564 -0.11042937
0000f0 42 4f b8 3d eb 1b 97 bc a7 8f 34 bf 70 cb 91 3e
       0.08999492 -0.01844593 -0.70531696 0.28475523
000100 e6 ec b8 3e 29 e2 2d 3f aa 7e fc bd 0c 9c 9e 3f
       0.3611824 0.6792322 -0.12328847 1.2391372
000110 d9 55 a8 3d 2c 37 24 3c b8 bb 87 3d 30 cd e0 3e
       0.08219499 0.01002292 0.066276014 0.43906546
000120 95 e5 20 bf 49 f4 11 3e b9 18 a7 3e b3 4f a7 be
       -0.62850314 0.14253344 0.3263605 -0.32677993
000130 67 b0 f3 be f0 d4 19 bc ca 2b 23 3f 76 49 63 bc
       -0.47595522 -0.009389147 0.6373869 -0.013872495
000140 ca cc bc 3f 31 10 03 3e ce 57 00 bf ea 0d 99 be
       1.4749997 0.12799145 -0.5013398 -0.29893428
000150 30 7b 0e 40 a3 27 4b 3e b3 ba dd 3d 69 8b 59 3e
       2.2262688 0.19839339 0.10826626 0.21244587
000160 88 4c cf 3d 14 ab cf 3f 89 75 99 3e 0e bc d3 3e
       0.10122019 1.6224084 0.29972485 0.41354412
000170 2c 1b 32 be b1 09 81 3e 4d a5 d7 3f 56 b4 22 be
       -0.17393178 0.25202706 1.6847321 -0.15889105
000180 e1 14 21 3c 9f 5e a6 3f 1d f2 8a 3e a2 6d 5c 3d
       0.009831638 1.2997626 0.27137843 0.05381549
000190 c5 4f 48 3c 39 5b 01 40 b7 ff d3 3f 0d 64 ee be
       0.01222605 2.0211928 1.6562413 -0.46560708
0001a0 24 e2 79 3b e1 f2 15 3e 39 79 43 be 16 45 fe be
       0.0038129175 0.14643432 -0.19089212 -0.49662083
0001b0 39 66 17 be d5 11 b7 3e c0 78 a6 3d e6 8d 83 be
       -0.14785089 0.35755792 0.081285 -0.25694197
0001c0 c9 fd 1b be 04 89 84 3c 86 1d 28 3f 2c 89 db be
       -0.1523353 0.016178615 0.6567005 -0.4287809
0001d0 e1 14 3d 3f f8 a2 37 be 86 a5 09 40 b3 d0 c8 3e
       0.73859984 -0.17933261 2.1507277 0.39221725
0001e0 3d 73 2a 3e 8a b9 f5 bd 0a b9 b5 3e eb 24 15 bf
       0.16645522 -0.119982794 0.35492736 -0.5825946
0001f0 7e 25 5f bf f8 12 1f 3e 39 06 0b be 70 90 a8 be
       -0.87166584 0.1553458 -0.13576593 -0.32922697
000200 e5 be 3e 3f ce 64 9b 3e 2d 33 8b be d9 dc a7 bf
       0.7451003 0.30350345 -0.27187482 -1.3114272
000210 e0 31 52 3e 5f e2 b8 be ee 8d cb bc fe 5f 84 bc
       0.20526838 -0.36110207 -0.02484795 -0.016159054
000220 d0 f3 68 3e 82 ba 55 40 0b bf 2b 3f f1 6f a0 be
       0.22749257 3.3395085 0.67088383 -0.31335405
000230 08 ed 9c bd b2 32 0f bf b0 cc 36 3e 64 7f 8d be
       -0.076623976 -0.5593673 0.1785152 -0.27636254
000240 0b 00 b9 bf 3d ee 14 3f f4 39 84 bf f7 43 9d bf
       -1.4453138 0.5817602 -1.0330186 -1.2286366
000250 dc 0b a6 bf 7f 37 87 be 75 40 c4 3e 12 bd 01 bf
       -1.2972369 -0.26409528 0.38330427 -0.50679123
000260 76 63 37 be 1c de 9b 3f da 2e 02 3f ec bf aa 3d
       -0.17909035 1.2177157 0.5085274 0.083373874
000270 26 77 84 be 65 f9 35 3f 5f f7 42 bf 63 10 39 be
       -0.25872153 0.7108367 -0.7615871 -0.18072657
000280 92 3e be be fb b3 7c 3e ac d8 70 3e 83 dd 15 bc
       -0.37157112 0.24678032 0.23520154 -0.009147051
000290 7a ba de 3c 2b bc bd 3e c6 3f 1e bf a1 29 4b bd
       0.027188528 0.37057623 -0.6181606 -0.049600247
0002a0 19 54 43 bd b5 a4 22 be a4 ca 97 3f f3 ec 9b bd
       -0.047687624 -0.15883143 1.1858716 -0.07613554
0002b0 26 f5 ae 3e 3a d4 a7 3e ba 84 94 3d 95 ce 8d 3d
       0.34171408 0.32779104 0.07251878 0.06924168
0002c0 45 fd 03 3b ef 7b d6 bc ce ec a2 3d ce ba 4e 3e
       0.0020139974 -0.026182143 0.07955323 0.20188448
0002d0 eb db d5 be cb 6c 86 be 80 4a 19 3f 0b 73 79 bf
       -0.41769347 -0.26254877 0.598793 -0.97441167
0002e0 55 89 2f be 8c d5 b0 3d 28 5a 37 3f 47 05 ac 3e
       -0.17142232 0.08634481 0.7162194 0.33597776
0002f0 7a a6 89 bd 6e a0 05 3e 40 90 15 bf 55 ae 91 3e
       -0.06721206 0.1304948 -0.58423233 0.28453317
000300 67 a6 6f be b5 65 05 bf da 15 0e be 53 b6 18 bf
       -0.23403321 -0.5210832 -0.13875523 -0.59653205
000310 3c 2e d2 3f cb 2c d2 be 22 6c 09 3f 37 e0 87 bf
       1.642036 -0.410498 0.5368062 -1.06153
000320 3c 80 8f 3d 8e b8 8c 3e 2f 6f d2 3e d6 f4 23 bf
       0.07006881 0.27484554 0.4110045 -0.64045465
000330 6d 67 de 3e 1d 7a 04 be 89 65 eb bd 71 63 e9 3e
       0.43438283 -0.12937208 -0.11493976 0.4558368
000340 3b aa da be bc 20 3b bc 9c fc 0e 40 df 9a be 3f
       -0.42708 -0.011421379 2.234168 1.4891013
000350 7f 9b 3b bf 87 88 8e be 00 d8 47 bd 54 56 9d be
       -0.73284143 -0.27838537 -0.048789978 -0.30729926
000360 61 e9 54 be 3a 16 09 3f 98 a2 c1 3e 17 5f c4 3f
       -0.20792152 0.5354954 0.37819362 1.5341519
000370 52 06 9c bf 0b e2 f3 3e 72 57 64 be aa 44 cd 3e
       -1.2189429 0.47633395 -0.22298983 0.4009145
000380 b7 7b 4c 3e 47 2b 11 be ca 97 a4 3e 59 04 d7 3d
       0.19969068 -0.14176665 0.32147056 0.10498876
000390 c9 23 6e 3e 28 4b a8 bd 70 9f 0b 3d 99 5b 1a be
       0.23255838 -0.0821746 0.0340876 -0.15074004
0003a0 89 54 b6 3d 86 9a 52 3e 7a 81 94 be a6 c8 dc be
       0.089028426 0.20566759 -0.29005033 -0.43121833
0003b0 f8 14 3d 3e 71 32 21 bf 60 85 87 3c bb 8c 15 3f
       0.1846503 -0.6296759 0.01654309 0.5841786
0003c0 a4 e9 23 3e 8e 38 3f bd 78 7c 72 40 ee d6 41 be
       0.16007096 -0.046684794 3.788847 -0.18929645
0003d0 71 96 0c be 16 62 4f bd 88 08 32 3e 7c 83 95 3e
       -0.13729264 -0.05063065 0.17386067 0.29201877
0003e0 5b c9 ad be 76 01 b1 3d e1 ff 16 3f 79 6f 65 bf
       -0.33942685 0.08642857 0.5898419 -0.8962322
0003f0 fb 52 cc bc 9f b2 3b 3d a5 ea 39 3f 38 b4 88 3e
       -0.024941912 0.045824643 0.72623664 0.26699996

decoder.0.bias f4 [128]
000000 1b a9 4c 3d 08 69 c8 3e 4a da 99 3f 64 32 27 3f
       0.04996596 0.39142632 1.2019742 0.65311265
000010 fb bf be 3f a3 f7 8c bd 0a d0 18 3f 1c f3 b4 bc
       1.4902338 -0.068831705 0.5969244 -0.02208858
000020 24 e7 34 bd bc 19 86 3f e1 28 42 3d 2e 55 70 3d
       -0.044165745 1.0476604 0.047402266 0.058674984
000030 80 8b 10 40 c3 06 fb 3f ee 86 b9 bd 7c 38 b7 bd
       2.2585144 1.9611439 -0.09058939 -0.089463204
000040 28 7f dd 3f 8f a2 de 3b 6f e8 ad 3e a4 1a 1b be
       1.730443 0.006794281 0.33966395 -0.15146881
000050 57 6e 99 bd 31 96 93 3f 26 7e 80 3f 89 ea 99 3f
       -0.07491749 1.153021 1.0038497 1.20247
000060 30 5b d5 3f 55 4c 3f bd da 57 29 3d ef 58 9f 3d
       1.6668453 -0.046703655 0.041343547 0.077806346
000070 78 95 47 3f 5e 74 7f 3b ba 9f 88 bb 0c d9 09 40
       0.77962446 0.0038979272 -0.0041694315 2.1538725
000080 63 80 c2 3c a7 e9 31 3f 17 ce 16 3f a4 e9 5f 40
       0.02374286 0.6949715 0.5890822 3.4986353
000090 48 9b 90 bd 8e 7b 8d bd 8b de ff 3f e5 ea 1a 40
       -0.070608675 -0.06908332 1.998979 2.4205868
0000a0 35 5e ef 3f fb e9 8d 3d 25 de b9 bd 48 f2 99 3f
       1.8700625 0.06929394 -0.09075574 1.2027063
0000b0 61 72 b4 bd f4 c3 8e 3d fc 10 dc ba 2c 3a e3 3c
       -0.088108785 0.06970969 -0.001678973 0.0277377
0000c0 22 e4 14 40 4f bf b1 3f 1e 19 dc 3e 37 f6 1e be
       2.3264241 1.3886508 0.42987913 -0.15523611
0000d0 64 d5 f9 3e 31 9e dc 3f bb d8 f1 3f e7 0e e7 3d
       0.48795617 1.7235776 1.8894266 0.11282139
0000e0 71 80 1b be b0 88 be 3f a2 8c a0 3e f9 04 3a 3e
       -0.15185715 1.4885464 0.31357294 0.1816596
0000f0 c0 e5 ff bc ce ba 74 bc b7 be 83 3e 65 8b c7 3e
       -0.031237483 -0.014937116 0.2573144 0.38973537
000100 50 03 0a be 30 54 5a bd 39 9e d2 bc b0 c4 36 3c
       -0.13477826 -0.053302944 -0.025710212 0.011155292
000110 04 06 f6 bd e4 de 42 bd 65 5d 15 40 0d 58 26 bd
       -0.12012866 -0.047575846 2.3338253 -0.040611316
000120 9d 52 8e 3e 56 c3 0a be 0f c2 74 3e 7a dc 33 bd
       0.27797404 -0.13551077 0.23902152 -0.043911435
000130 5f e7 a3 3e 7c 45 b2 3f 7c 4d fa 3c 67 20 03 40
       0.3201246 1.3927455 0.030554526 2.0488527
000140 0b a0 c9 3c 58 4a d7 bd af f5 43 3f c5 1c f0 3c
       0.024612447 -0.10512227 0.7654676 0.029310593
000150 1c 10 9f 3f 3a 1c b1 3f 96 78 15 be eb 91 12 bd
       1.2426791 1.3836739 -0.14596781 -0.03578369
000160 68 2d 15 40 dd 85 29 bc da a3 39 3f 4a f2 93 3f
       2.3308964 -0.010346857 0.7251564 1.1558316
000170 45 54 cb bd 7b 49 e1 bd 0e 17 d1 3f 61 ea 25 40
       -0.099281825 -0.110003434 1.6335161 2.5924304
000180 0b 90 54 3d d8 14 1b 3f 13 03 8b 3e e2 01 c7 ba
       0.051895183 0.6057868 0.27150783 -0.0015183056
000190 53 08 00 bd ef e8 1d be b8 45 6a 3d 40 de b4 3e
       -0.03125794 -0.15420888 0.057195395 0.35325813
0001a0 22 45 58 3f 82 01 44 3f 80 6e 9e 3d 93 84 a0 3f
       0.8448049 0.765648 0.0773592 1.2540458
0001b0 06 25 12 40 67 fb 8e 3d fa 69 22 3d ff cf 71 bd
       2.2835097 0.06981545 0.03965185 -0.05903625
0001c0 fe 67 fc 3f 7f 5f 8b 3f 4a 53 3c 3e 06 18 81 3d
       1.9719236 1.0888518 0.18391147 0.0630341
0001d0 7d 4c c3 3f 91 ae 68 3f 42 e4 ba 3f c1 35 38 40
       1.5257717 0.9089137 1.4600909 2.8782809
0001e0 5b c9 bd 3d 07 8b 29 3d 37 d2 9f 3f 6c de ec 3c
       0.09266921 0.041392352 1.2486027 0.028914653
0001f0 5f b0 31 3d c8 d1 76 bd 47 d8 ac 3f 50 88 02 bc
       0.04338109 -0.060258657 1.3503503 -0.00796707
