rl-manager/mnt/autoencoders/AE_5hosts_64_BN.pth (torch, 245097 bytes, 20 tensors)

encoder.0.weight f4 [128, 161]
00000000: fc41 413d f872 4fbd f6e6 62bd 62d7 9cbd
00000010: 61e3 d03c 89b7 943d 94da ea3b 12fb e9bc
00000020: 35a8 9ebd ad95 0abd 6546 fd3c 955c 213d
00000030: 6dbb b13b 1188 8bbd c24b 9b3a 7aee 533d
00000040: bb89 dabc 4bc6 3f3d 81e5 85bd 6d71 0abd
00000050: 6ff2 083d 4c09 5bbd 6f6d 9cbd d40b 183a
00000060: 1a7e 013d 6a8f 3abd 5b8d d23c b1d6 8e3d
00000070: cf22 5dbd fad4 2e3d c30d ed3a ddb3 263c
00000080: 0e12 d1bc 1d2d 9bbd 05f7 be3c daa6 213c
00000090: 9eb2 06bd a299 9a3d 81a2 e13c f704 e8bc
000000a0: a17b d9bc 8e78 2cbd 8a91 4f3d 10c3 183c
000000b0: 0d77 db3b 67b1 8bbd 11cd 5fbc 25be 37bd
000000c0: 7066 89bd 6475 cb3c 031d 8cbc 3168 233c
000000d0: 0692 b63b 5219 1abd 9e3e 7b3d 7f2a 123c
000000e0: 3b95 4bbc 3452 76bd db2b a1bd d168 693d
000000f0: ab30 453d ec5b 3e3d 4192 af3a fc0c 073b
00000100: c63b 01bd ffd4 d03c 7e18 953d d373 d0bb
00000110: c8bd b6bc 657f 953d f7bc d83c 77bd 5ebd
00000120: e93b 6bbd 656d 86bb 17f7 a6bc d45f a0bd
00000130: c2f1 0ebd 71f5 19bc 41d8 433d dba9 93bc
00000140: beff ae3b a662 8abd f309 a5bc 19e6 eebc
00000150: ccef 54bd 7738 0abc f974 c43c 60c2 b4ba
00000160: c2e8 8abd 19c9 b3bc 3b63 00bd a0e4 05bd
00000170: 2c34 1cbd 970b 90bd 6dc0 383d eda1 9abd
00000180: 6deb 963d bf2b 75bd ac62 5f3d f4b2 7a3d
00000190: 7ed2 5b3d 4d9c 8fbd fd15 e9bc aa16 9dbd
000001a0: f78c d93c 0104 193d 9e6f 913d 39ba 593d
000001b0: 148d 04bd fe75 d9bc 3ab3 8c3d 8da5 523d
000001c0: 6b99 823c 2833 303d 61c9 1d3d 6a6c a13a
000001d0: d906 02bd d483 003b 3683 8cbd bc36 1bbd
000001e0: 1c01 35bb 1364 94bd 5412 8f39 952d 343c
000001f0: 4b89 ad3c 1c46 853d 0c5b 8a3d a610 64bd
00000200: 30bc 8e3d 0938 73bd c000 113d 110f 403d
00000210: 1853 5b3d 86c5 70bd 7ccb 9d3d 3e9f 833d
00000220: d56c a0bd f921 abbc faf0 ffbc 9925 ac3c
00000230: f869 a1bb ebcc 9d3d fd1a f4bc 9bbf 43bc
00000240: dde9 023d 6532 9e3b 37f4 2f3d cd32 e6ba
00000250: 89c0 80bd bf18 56bc f84f 99bd 8d20 7b3d
00000260: 9c3b 863d 07de 00bc 0cb3 60bd 602e 323d
00000270: 5fe2 bf3c afcf 90bd 892b 2e3d 3e7d bdbc
00000280: 6c7e 04bc ccd7 ed3c ae62 3d3d b834 d0bb
00000290: d63e 18bf d6dc d43e 58eb 3abf db82 213e
000002a0: 1b95 c5bc 1e1e d2bd e797 673f 3d1c 763e
000002b0: 2ce8 15bf 7ec4 723d 1e55 2f3f 6fd5 813e
000002c0: fc4d 4abe 84da 0b3e 035c 9c3e 1fe3 343e
000002d0: a199 02bf c046 bdbd 1eaf b53e 1ab0 a33e
000002e0: c568 f23c 9f76 743e bb38 a3be cc0b c73d
000002f0: b8d3 13be b90c b73d c3d0 d1be b778 153e
00000300: 40bf 023d 3e9f 5d3f a698 353e 31ef 1ebf
00000310: f9e8 053d dbae 4d3e 85d6 36bc 0cc3 a83e
00000320: a687 eb3c 5a5b d53b 3c06 f7b9 993d 2fbd
00000330: 0c55 8f3d 9779 e1bd 49fb 983d aa33 6f3d
00000340: 9b94 8ebc fe53 86bd ac22 fe3b c78b 30bd
00000350: 70c0 723c 598f 3d3c cd11 993d df8b 713d
00000360: a6f5 403d c6d9 a0bd 8b9d 2f3d d40a 84bd
00000370: 7a6d 09bd c7a1 69bc 8f62 4ebd eba0 6bbd
00000380: ec9d 05bc 3a25 bdbc 0812 07bd a2da 843d
00000390: 796a 5b3d e2f8 44bc c7fb 8abc 6f8b 12bd
000003a0: 4b0d 193d 71fd 943d 9d84 7a3d a12d 823d
000003b0: d133 cd3c 7431 9abd 90f9 9abd bbb1 503d
000003c0: 6448 2ebd dc91 983d fe6b 723c a633 9f3d
000003d0: 9363 303a d4c6 3a3d b231 3b3d a67c 04bd
000003e0: 9b5e ff3c d3d4 f5b8 dba1 393d 4f76 4ebd
000003f0: 1ce3 263c e6ee 623d 117c 8e3d e548 013c
0.04718207 -0.050646752 -0.055396043 -0.076582685 0.025499048 0.07261569 0.00716717 -0.028562102
-0.07746927 -0.03383415 0.030917356 0.039394934 0.005423954 -0.06813062 0.0011848139 0.0517411
-0.026677003 0.046819966 -0.06537915 -0.033799578 0.033434328 -0.053475663 -0.0763806 0.00058001024
0.0316144 -0.045546927 0.02570217 0.06974543 -0.053988274 0.04268358 0.0018085766 0.010174719
-0.025521304 -0.07576964 0.023311147 0.009866441 -0.032885186 0.075488344 0.027543308 -0.02832268
-0.026548209 -0.042107157 0.050675906 0.00932385 0.0066975416 -0.06820946 -0.0136597315 -0.04485907
-0.067089915 0.02483625 -0.017103678 0.009973572 0.0055716066 -0.037621804 0.061339013 0.008921265
-0.012425716 -0.06013699 -0.07869693 0.056984726 0.048142117 0.046474382 0.0013395027 0.0020607105
-0.031551145 0.02549219 0.07280062 -0.0063614636 -0.022307292 0.07299689 0.026457293 -0.054379907
-0.05743018 -0.0041023963 -0.020381493 -0.07830778 -0.034898527 -0.009396897 0.047813658 -0.01802533
0.0053405454 -0.06757097 -0.020146346 -0.029162453 -0.0519865 -0.008436314 0.023981558 -0.0013790838
-0.06782676 -0.021946477 -0.031344634 -0.032688737 -0.038135692 -0.070334606 0.045105387 -0.07550416
0.07369123 -0.059856173 0.05453746 0.06120582 0.053667538 -0.07012234 -0.028452868 -0.076703385
0.026556475 0.037357334 0.071013674 0.05315611 -0.032361105 -0.02654552 0.06870122 0.051427413
0.015942296 0.043017536 0.038522128 0.0012315635 -0.03174481 0.0019609826 -0.06860964 -0.037893996
-0.002761907 -0.0724565 0.0002728874 0.010997196 0.02118363 0.06507513 0.06755647 -0.05567994
0.06969488 -0.05937961 0.035401106 0.04688937 0.05354604 -0.058782123 0.07704827 0.064268574
-0.07833258 -0.020890223 -0.031242836 0.021014022 -0.0049259625 0.077051006 -0.029798025 -0.011947538
0.03196131 0.004827785 0.04295751 -0.0017562747 -0.06286723 -0.013067423 -0.07485956 0.06131034
0.06554338 -0.007865435 -0.054858252 0.043501258 0.023423372 -0.070708625 0.042521987 -0.02313101
-0.008086782 0.029033564 0.046236686 -0.006353941 -0.5947088 0.41574734 -0.73015356 0.15772574
-0.02411895 -0.10259651 0.9046616 0.2403421 -0.5855739 0.05926942 0.68489254 0.2535815
-0.19756311 0.13657576 0.3053895 0.17664765 -0.5101567 -0.0924201 0.35485166 0.31970292
0.029590974 0.23873375 -0.3187922 0.09719047 -0.14436233 0.089379735 -0.40979585 0.1459683
0.03192067 0.8657111 0.17734012 -0.6208373 0.032692883 0.20086233 -0.011159544 0.3296131
0.028751206 0.006511134 -0.00047116156 -0.042783353 0.06998643 -0.110095195 0.07469804 0.05839888
-0.017404845 -0.06558989 0.007755598 -0.043102052 0.0148163885 0.011569821 0.07474098 0.058971282
0.04710927 -0.07854037 0.042874854 -0.06447378 -0.03355167 -0.014259762 -0.05038696 -0.05752651
-0.008155327 -0.02308904 -0.03297618 0.064870134 0.053568337 -0.012022229 -0.01696576 -0.035777505
0.037366193 0.072749026 0.061161626 0.06356359 0.025049122 -0.07528964 -0.075671315 0.050950747
-0.042549506 0.074496955 0.014796255 0.07773523 0.0006728705 0.045599774 0.04570169 -0.032345437
0.031173041 -0.00011722152 0.045320373 -0.050405797 0.010185983 0.055403613 0.069572575 0.007890915

encoder.0.bias f4 [128]
00000000: 66eb 47bd db07 5c3d c8de f13d a9a7 7d3c
00000010: 1ea6 6ebc 7ccf 8abd cf9d 913d ba90 643d
00000020: a7aa 4cbc 280d 74bd 8263 6abc 218c aebb
00000030: 8ffd 7e3e 546d 213d bc36 9ebd fb71 bd3d
00000040: fcea 12bd 7128 083e 9eaf 1f3e 4eaa 6cbc
00000050: 5ce2 153e 55f7 90bd eeb2 1b3e 1629 af3d
00000060: 9e73 873d f7cc eabc 31b4 3bbc 89a5 8b3d
00000070: ccc5 68bb 3d49 2dbd ada2 a9bc 7a0f 8a3d
00000080: b6ee 153e 1bd1 e9bc dd5b 48bd b630 65bd
00000090: 104c 473b bbad b93c 25bf 8fbd ee4f 31bd
000000a0: 811f 0e3e 938e 9bbd 1e4d 9dbd 14f7 2d3e
000000b0: b9ff 5a3d e261 a1bb 237c aa3d ac08 e0bc
000000c0: 64fd 033d 928b a03d eada a93d 0d71 1b3e
000000d0: 0fcc a2bc 571a 033e c697 593d 200a 1f3e
000000e0: a67b 0abd 5fdd 93bd 2ce5 99bd fa01 793d
000000f0: 57b9 b13d 8a21 8abd 3081 8abd 456b 8d3d
00000100: 43b2 54bd c6af e23d d8be 913c 8b6c b8bc
00000110: 08cb 4b3d 1a2b 29bd 4812 3ebd 0c1d 28bd
00000120: c9ab 39bd 8012 0f3d 16b3 65bc 9d57 f33d
00000130: adf4 92bd 6623 53bd 6bf2 903d fe75 8fbb
00000140: 56c0 5bbd eb41 573e 6685 72bc 305c 48bd
00000150: 1029 b63d 129b 98bd 9ec1 de3d 19c9 95bd
00000160: 865a 1a3d cd49 4fbd e01f 863d f6a6 febc
00000170: 30ff b9bc 4624 e53d 3b23 9c3c b49d 973d
00000180: 8cf6 363e 772a c03c 8319 6d3e f8d6 e7bc
00000190: 7572 083e c857 67bc 1d86 3b3d 4dba 693d
000001a0: 1bc9 333e 6d55 403c 6dfd 403e 5b1e cc3d
000001b0: c11d be3d d8c9 4fbd 5ab9 79bd 6178 9fbd
000001c0: aa40 a33c 400a 01bd 6b8c 9dbd fee1 cc3d
000001d0: 1eb7 f53d 5b96 363c 6d81 89bd aa8b a53d
000001e0: da68 3c3e 2b86 293c 439f 90bd c17a 983d
000001f0: f76e 83bd 298f 2fbd 0296 4cbd 7c9a 8fbd
-0.048808478 0.05371843 0.1181007 0.015481868 -0.014565973 -0.06777856 0.07110178 0.055802085
-0.012491859 -0.05958286 -0.014305951 -0.0053267633 0.24901412 0.039410904 -0.077252835 0.09250256
-0.03586863 0.13296677 0.15594336 -0.014444901 0.1463713 -0.07078425 0.15204975 0.085527584
0.06613849 -0.028662188 -0.011456535 0.06818683 -0.0035518287 -0.042306174 -0.020707453 0.06741233
0.14641842 -0.028542092 -0.048915733 -0.055954657 0.0030410327 0.022665849 -0.0701888 -0.043289118
0.13879205 -0.07595553 -0.076807246 0.16988784 0.053466532 -0.0049249986 0.083244585 -0.027347885
0.032224074 0.07839121 0.08293708 0.15179844 -0.019872693 0.12803017 0.053123258 0.15531206
-0.033809327 -0.072199576 -0.07514414 0.0607929 0.08677929 -0.06744678 -0.06762922 0.06905226
-0.051927816 0.110686824 0.017791197 -0.022512695 0.049754173 -0.04130087 -0.046404153 -0.041043326
-0.045329843 0.034929752 -0.014019748 0.11881945 -0.071755745 -0.05154743 0.070774876 -0.0043780794
-0.053650223 0.2102124 -0.0148023125 -0.04891604 0.08894551 -0.07451452 0.10876773 -0.07313747
0.037683986 -0.05060749 0.065490484 -0.031085473 -0.02270469 0.11188559 0.019059768 0.07403126
0.17867488 0.023457749 0.23154263 -0.028300747 0.13324912 -0.01412005 0.045782197 0.057062436
0.17557184 0.011739117 0.18846674 0.09966727 0.09283019 -0.050729603 -0.06096778 -0.07786632
0.019928295 -0.031503916 -0.07692798 0.10004042 0.119978175 0.011144246 -0.06714139 0.080832794
0.18399373 0.01034693 -0.07061627 0.074452884 -0.06417649 -0.042861138 -0.049947746 -0.070118874

encoder.2.weight f4 [128]
00000000: 0000 803f f4d1 4c3f 1ac0 e83f dca4 7e3f
00000010: cce2 6a3f 0000 803f 1052 a03f 8299 133f
00000020: 21ae 7e3f 0000 803f 244d 813f 0000 803f
00000030: 4662 bd3f fbe0 633f 0000 803f 99e1 913f
00000040: 0000 803f f20e 483f 9cb7 303f 0000 803f
00000050: 0e77 a23f 0000 803f 7887 793f 005f 503f
00000060: 1c7b 2b3f 0000 803f 3174 803f acb1 573f
00000070: 97de 3c3f 0000 803f 0000 803f 91e2 613f
00000080: 7bad 653f 5da2 7e3f 0000 803f 0000 803f
00000090: 0000 803f 981b 203f 0000 803f 0000 803f
000000a0: 3c65 9a3f 0000 803f 0000 803f cf50 ad3f
000000b0: a116 4e3f 32ca f03f 3347 be3f 2838 7d3f
000000c0: 9a54 183f 080a 493f d250 813f 2b97 973f
000000d0: 971a 7c3f f22b 883f d422 b43f 05c6 3d3f
000000e0: 0000 803f 0000 803f 0000 803f 4ddf b03f
000000f0: 3424 e53f 0000 803f 0000 803f 6cc3 333f
00000100: 0000 803f 58cf 6a3f 4774 7e3f 0000 803f
00000110: fb42 c73f 0000 803f 0000 803f 0000 803f
00000120: 0000 803f 2222 2b3f 86a8 7b3f b83e 683f
00000130: 0000 803f 7124 7c3f 77ca 383f 3cb3 7e3f
00000140: 0000 803f c549 ba3f 3ad6 7f3f 0000 803f
00000150: 9fe9 233f 0000 803f 3a8e 713f 0000 803f
00000160: 260f 243f 0000 803f 3f0a a93f 0380 7f3f
00000170: 0000 803f d1d3 943f fe46 7e3f 5d67 ef3f
00000180: bbe8 0140 1748 7e3f 0a53 a53f a494 7e3f
00000190: 307e 3e3f d16d 7b3f ff7c 0a3f 3489 313f
000001a0: 2755 613f 7233 7f3f 53c9 983f 4381 683f
000001b0: e777 363f 634d 0f3f 0000 803f 0000 803f
000001c0: 906b 7e3f 0771 8f3f 0000 803f b3db 6b3f
000001d0: 5973 6f3f 52a8 7d3f 0000 803f c71c ad3f
000001e0: 864f a03f 0000 803f 0000 803f b75d 563f
000001f0: 0000 803f 7c09 7f3f 0000 803f 0000 803f
1.0 0.80007863 1.8183625 0.99470305 0.91752315 1.0 1.2525043 0.5765611
0.9948445 1.0 1.0101666 1.0 1.4795616 0.8901517 1.0 1.1396972
1.0 0.78147805 0.69030166 1.0 1.2692583 1.0 0.97472334 0.8139496
0.66984725 1.0 1.0035459 0.8425548 0.73777145 1.0 1.0 0.8823634
0.89717835 0.99466497 1.0 1.0 1.0 0.62542105 1.0 1.0
1.2062144 1.0 1.0 1.3540286 0.8050328 1.8811705 1.4865478 0.9891381
0.5950409 0.7853093 1.0102789 1.1843008 0.9847807 1.0638411 1.4073129 0.7413028
1.0 1.0 1.0 1.3818146 1.7901673 1.0 1.0 0.70220065
1.0 0.9172263 0.99396175 1.0 1.5567316 1.0 1.0 1.0
1.0 0.6684896 0.9830402 0.907207 1.0 0.98493105 0.72183937 0.9949224
1.0 1.4553763 0.9993626 1.0 0.6402835 1.0 0.94357646 1.0
0.64085615 1.0 1.3206252 0.99804705 1.0 1.1627141 0.99327075 1.8703419
2.0298297 0.9932875 1.2915967 0.9944556 0.74411297 0.9821444 0.5409698 0.6934998
0.8802056 0.99687874 1.1936439 0.9082224 0.71276706 0.5597746 1.0 1.0
0.9938288 1.1206368 1.0 0.9213211 0.9353538 0.9908496 1.0 1.3524407
1.2524269 1.0 1.0 0.8373675 1.0 0.99623847 1.0 1.0

encoder.2.bias f4 [128]
00000000: bebb 6d3f 87f2 9d3c a804 ad3e 18fc 01bf
00000010: 9b12 82bc fd6a 133f bf2a 1b3e 8fb2 b3bd
00000020: a358 c73c 881f 25bf 982c 603f f3e8 02bf
00000030: 47ed bfbe a6ef 943e 0351 93be 4b0f 46be
00000040: 6af1 dc3e cad6 2e3e 2d9a 113d 4c3a b23e
00000050: 8e12 c8be 16f5 43bf f820 f9bd 70ec ccbd
00000060: affb 8ebe b807 073f 9213 d63d d46f 893e
00000070: 8ddd 97be f65e 323e 16b5 fd3e 21a3 2e3e
00000080: 1922 03bd 1cfb 013f 5d7e 943e 51b8 79bf
00000090: de8f 21bf c463 d0bd 2967 e0be 2857 ff3e
000000a0: 8c67 033e 59e4 7bbf 5ab2 2e3f 8b4b af3d
000000b0: 994e 8d3e eb32 6c3e f900 83bd 900f 783d
000000c0: 6c14 5bbd 71d1 13be 69cd 783e 0e5c e7be
000000d0: 2249 823d 4ffa d03e 3c8c 033f f520 3b3e
000000e0: 7f3d 35bf 98ed 13bf c2d9 95be 5001 bd3e
000000f0: 249e 563e 0ca0 5abe 1fdf bd3e 3a51 97be
00000100: 0598 2dbf b43f b4bc 9534 343f 115b 2cbf
00000110: 1cbc a0bc 3afc ad3e 616d 103e 903d d63e
00000120: 9b66 ecbe 0733 8ebd 717a 99bd 5eb2 70be
00000130: 0307 79bf da1f 873e 2957 b0bb 98e9 07bf
00000140: 6bed 44bf 9c91 f3bd da92 e03d e022 debe
00000150: ce03 c43d d865 f53e 559e 03be fa9b 1e3e
00000160: b0bf adbe aa6c 513f 3ef7 ae3e 564e f8bc
00000170: abec 9b3e f932 01be 5da1 e1bb 78b4 123e
00000180: c063 2dbc a3b5 82bc 25b6 9bbe a954 b73e
00000190: dbfa e6be 7c59 40bc ac77 a7b9 053f 723d
000001a0: ff47 52be 5706 dc3d 961c 593e 6699 debd
000001b0: a6a7 3d3e 0f4c 83bb 7204 353f 1bf4 473f
000001c0: eb8f d03e 2ed0 7fbe 1458 e63e 58d7 7abe
000001d0: fe7e d1be dcec 60bd 3bdf 1c3f f51e ed3d
000001e0: aba2 ea3e 6ddb 163f 32a9 89bf 5f76 afbe
000001f0: 02c3 ecbe aca0 3cbc c028 183f 288f 44bf
0.92864597 0.019280685 0.33792615 -0.5077529 -0.015878012 0.57585126 0.15153025 -0.08774292
0.024334257 -0.6450124 0.87568045 -0.511367 -0.37485716 0.29089087 -0.28772745 -0.19341771
0.43152934 0.17074123 0.035547424 0.34810102 -0.39076656 -0.76545846 -0.121644914 -0.100060344
-0.27926394 0.5274615 0.104529515 0.2684313 -0.29661217 0.17419037 0.4955222 0.17054416
-0.03201494 0.5077379 0.29002658 -0.9754687 -0.6311015 -0.10175279 -0.43828705 0.49871182
0.12832469 -0.98395306 0.6824089 0.085593306 0.27599028 0.23066299 -0.0639667 0.060561717
-0.053486273 -0.14435364 0.24297108 -0.4518742 0.06361605 0.4081597 0.51385856 0.18274291
-0.7079696 -0.57784414 -0.292677 0.36915064 0.20958763 -0.21350116 0.3708429 -0.29554158
-0.6781009 -0.022003032 0.70392734 -0.67326456 -0.019620948 0.33981496 0.14104225 0.41843843
-0.46172032 -0.069433264 -0.07494057 -0.23505542 -0.97276324 0.26391488 -0.005381484 -0.5309081
-0.7692477 -0.11893007 0.1096551 -0.43385983 0.09571038 0.47929263 -0.12853368 0.15489188
-0.33935308 0.81806433 0.34173006 -0.030310791 0.30454 -0.12617101 -0.006885691 0.14326656
-0.010582864 -0.015955752 -0.30412403 0.35806778 -0.45113263 -0.011740085 -0.00031941885 0.05914213
-0.20535277 0.10743397 0.21202311 -0.10869102 0.18520984 -0.0040068696 0.7070991 0.7810685
0.407348 -0.24981758 0.44989073 -0.2449621 -0.409172 -0.054913387 0.6127812 0.1157817
0.4582723 0.5892857 -1.0754759 -0.34269997 -0.4624253 -0.011512917 0.5943718 -0.7678094

encoder.2.running_mean f4 [128]
00000000: 0000 0000 6037 193e 4e1f b63d 0400 0000
00000010: 0400 0000 0000 0000 1d74 1c3e 4361 203e
00000020: 0400 0000 0000 0000 0400 0000 0000 0000
00000030: 7954 863e 049b 583e 0000 0000 5695 fc3d
00000040: 0000 0000 c456 df3d b2ed 033e 0000 0000
00000050: 97b1 1a3e 0000 0000 0f9d f63d eba1 6d3e
00000060: d311 153e 0000 0000 0400 0000 c682 1f3e
00000070: ad7d f33c 0000 0000 0000 0000 bed9 283e
00000080: 9dbc 2e3e 0400 0000 0000 0000 0000 0000
00000090: 0000 0000 01ca 843d 0000 0000 0000 0000
000000a0: 76ac 073e 0000 0000 0000 0000 83bb 263e
000000b0: f017 093e fd66 7c3d 6218 d13d 0400 0000
000000c0: 4ebe b73d 8793 e13d 315e 143e ec47 703e
000000d0: 0400 0000 0bfd 1c3e 8830 1a3e a9dc 1a3e
000000e0: 0000 0000 0000 0000 0000 0000 6021 823e
000000f0: bb05 fc3d 0000 0000 0000 0000 aa64 cb3d
00000100: 0000 0000 b5a6 2b3e 0400 0000 0000 0000
00000110: 71c3 163e 0000 0000 0000 0000 0000 0000
00000120: 0000 0000 9668 cb3d 0400 0000 593d 0e3e
00000130: 0000 0000 0400 0000 2b1d 703e 0400 0000
00000140: 0000 0000 7a98 c03d 0400 0000 0000 0000
00000150: 8633 2b3e 0000 0000 2fa2 073e 0000 0000
00000160: 464b 8a3d 0000 0000 1c40 233e 0400 0000
00000170: 0000 0000 6a96 f93d 0400 0000 cd0d 763d
00000180: be1b 613e 0400 0000 9983 063e 0400 0000
00000190: c943 b13d 0400 0000 16e2 d13d bf9c 1f3e
000001a0: f3f2 393e 0400 0000 3c14 ca3d 5205 ea3d
000001b0: 5a92 fe3d 0400 0000 0000 0000 0000 0000
000001c0: 0400 0000 0400 0000 0000 0000 1489 d73d
000001d0: 72c4 1c3e 0400 0000 0000 0000 9e5c 1b3e
000001e0: 0591 393e 0000 0000 0000 0000 9165 173e
000001f0: 0000 0000 0400 0000 0000 0000 0000 0000
0.0 0.1496253 0.0889269 6e-45 6e-45 0.0 0.15278669 0.15662102
6e-45 0.0 6e-45 0.0 0.26236323 0.21152884 0.0 0.12333171
0.0 0.10905221 0.12883642 0.0 0.15106808 0.0 0.12041675 0.23206298
0.1455758 0.0 6e-45 0.1557723 0.029723013 0.0 0.0 0.16489312
0.17064138 6e-45 0.0 0.0 0.0 0.06483842 0.0 0.0
0.13249382 0.0 0.0 0.16282468 0.13388038 0.061621655 0.10209729 6e-45
0.089718446 0.11014467 0.14489056 0.23464936 6e-45 0.15330903 0.15057576 0.15123238
0.0 0.0 0.0 0.25416088 0.123057805 0.0 0.0 0.099313095
0.0 0.16762812 6e-45 0.0 0.14722992 0.0 0.0 0.0
0.0 0.099320576 6e-45 0.1389059 0.0 6e-45 0.23448627 6e-45
0.0 0.094040826 6e-45 0.0 0.16718873 0.0 0.13245462 0.0
0.067526385 0.0 0.15942425 6e-45 0.0 0.12186892 6e-45 0.060071755
0.21983239 6e-45 0.13136138 6e-45 0.08655507 6e-45 0.102482006 0.15587138
0.18159084 6e-45 0.09867141 0.11426796 0.12430258 6e-45 0.0 0.0
6e-45 6e-45 0.0 0.105241925 0.15309313 6e-45 0.0 0.1517205
0.18121727 0.0 0.0 0.14784838 0.0 6e-45 0.0 0.0

encoder.2.running_var f4 [128]
00000000: 0400 0000 6e8a fd38 2041 8e3a 0400 0000
00000010: 0400 0000 0400 0000 013d 1d3a 2d5c 1538
00000020: 0400 0000 0400 0000 0400 0000 0400 0000
00000030: adac 2a3b 4445 233a 0400 0000 fe86 f639
00000040: 0400 0000 c61d 1d39 4bc0 0339 0400 0000
00000050: 39b0 193a 0400 0000 60f5 0a3a 2a37 3b3a
00000060: 12be 3538 0400 0000 0400 0000 16f3 9439
00000070: 702f 8238 0400 0000 0400 0000 8140 ce39
00000080: 837b c039 0400 0000 0400 0000 0400 0000
00000090: 0400 0000 bd1c dd37 0400 0000 0400 0000
000000a0: 8214 9f39 0400 0000 0400 0000 6c03 343a
000000b0: 057f a739 e791 1a3a 3d03 8838 0400 0000
000000c0: a30d 7a37 b92b 8637 9451 1a3a a677 733a
000000d0: 0400 0000 6081 dd39 ecda 963a 828a 2839
000000e0: 0400 0000 0400 0000 0400 0000 f3fb 5e3a
000000f0: 0903 073b 0400 0000 0400 0000 69d0 e537
00000100: 0400 0000 5236 f139 0400 0000 0400 0000
00000110: 0810 343a 0400 0000 0400 0000 0400 0000
00000120: 0400 0000 4533 e137 0400 0000 7a3e ac39
00000130: 0400 0000 0400 0000 237d 243a 0400 0000
00000140: 0400 0000 2a90 463a 0400 0000 0400 0000
00000150: 5465 c939 0400 0000 41c0 c839 0400 0000
00000160: b9c4 1938 0400 0000 2396 703a 0400 0000
00000170: 0400 0000 20d7 c439 0400 0000 b3af 6d3a
00000180: 8fce 973a 0400 0000 1e0e 723a 0400 0000
00000190: 6a9c 9c39 0400 0000 4366 1638 c663 013a
000001a0: cd15 063a 0400 0000 984b 423a f831 8839
000001b0: 7d22 a239 0400 0000 0400 0000 0400 0000
000001c0: 0400 0000 0400 0000 0400 0000 f101 c439
000001d0: c417 8d39 0400 0000 0400 0000 7ecc 343a
000001e0: 3aac 133a 0400 0000 0400 0000 fb5e 063a
000001f0: 0400 0000 0400 0000 0400 0000 0400 0000
6e-45 0.00012089765 0.0010853149 6e-45 6e-45 6e-45 0.0005998165 3.5610214e-05
6e-45 6e-45 6e-45 6e-45 0.0026042864 0.0006228278 6e-45 0.00047021353
6e-45 0.00014983778 0.00012564768 6e-45 0.0005862746 6e-45 0.0005300846 0.0007141704
4.333078e-05 6e-45 6e-45 0.00028409873 6.207719e-05 6e-45 6e-45 0.0003933944
0.00036713117 6e-45 6e-45 6e-45 6e-45 2.6358635e-05 6e-45 6e-45
0.00030342123 6e-45 6e-45 0.0006866965 0.0003194736 0.0005896375 6.4855885e-05 6e-45
1.4904336e-05 1.5994405e-05 0.000588679 0.00092875434 6e-45 0.00042248797 0.0011509336 0.00016073327
6e-45 6e-45 6e-45 0.0008506171 0.0020601174 6e-45 6e-45 2.7395976e-05
6e-45 0.00046007574 6e-45 6e-45 0.0006868844 6e-45 6e-45 6e-45
6e-45 2.6845964e-05 6e-45 0.00032852945 6e-45 6e-45 0.00062747503 6e-45
6e-45 0.00075745827 6e-45 6e-45 0.00038413203 6e-45 0.00038290213 6e-45
3.6661255e-05 6e-45 0.00091776456 6e-45 6e-45 0.00037544314 6e-45 0.0009067014
0.0011581945 6e-45 0.0009233671 6e-45 0.00029871176 6e-45 3.5858026e-05 0.0004935827
0.0005114943 6e-45 0.0007411777 0.0002597717 0.00030924744 6e-45 6e-45 6e-45
6e-45 6e-45 6e-45 0.0003738548 0.00026911322 6e-45 6e-45 0.0006896927
0.0005633269 6e-45 6e-45 0.00051258475 6e-45 6e-45 6e-45 6e-45

encoder.4.weight f4 [64, 128]
00000000: 65a4 103f 5f81 c83d be11 4140 0952 c9be
00000010: af5b 173e 91dd eb3e 0b0d 653d 0d74 7a3d
00000020: fca2 3d3d 9ffe 06bf 705d 2c3f df42 9dbe
00000030: c89f 5a3e f821 1f3e 73fd 82be dde9 1a3f
00000040: 167c d13e 5c93 fcbd 0a74 ecbd b6ba a63e
00000050: f92b eb3d dbb5 0dbf ae73 40be 314c 99bd
00000060: 8dab eb3d 6b09 a53e 78b9 d6bc a1a5 98bd
00000070: c32d f33d fde1 de3d b214 c73e 1073 0fbe
00000080: 668d e03c 0ae2 a93e 4f18 363e 910e 2ebf
00000090: 8525 fdbe 6d6f 523e 6011 bdbe 412b 933e
000000a0: fb72 fdbd a47e 31bf a27e eb3e 2f8d bfbd
000000b0: 082a 4ebe 853a 00bd 0fac 7cbe 2fa1 21bd
000000c0: 8d04 933e 3091 68be 3ecc a4bd 1b75 893e
000000d0: aaba ef3d ee59 6dbe ce34 84be e8a3 c63b
000000e0: ef5f 0fbf 4217 aabe 35ae 84be 8ca5 c33d
000000f0: d842 36bf 1498 5abe e10a 3b3e 965b 73bd
00000100: 76b6 15bf 1e41 ffbb 7b09 153f 4f97 00bf
00000110: 349c 53be 04a3 733e 34c8 0f3e 4f9a 953e
00000120: f7a8 a8be 77d5 813d cec7 e0bd 8a19 c13d
00000130: f955 21bf 5ce1 9c3e 16de 813d 9a43 d9be
00000140: 2072 01bf e1c4 efbe 1aa3 693d f743 c7be
00000150: 5a98 96bd c19e da3e 2d43 bf3e c56b 3e3d
00000160: 679c 6cbd 1488 023f 137c 31be 0092 08be
00000170: a05f 3b3e 7c7c 9f3e 6db5 b5bc 61d7 8c3f
00000180: 4553 3e3e 04e3 cbbd 3dc9 4abe 631e 703e
00000190: 06b2 4bbe 47d5 81bc 94d2 0cbe 576d 7c3e
000001a0: 0925 b3bd a7a9 b13d 7536 77be 96de 95bd
000001b0: 5a94 a1bc 4541 b4bd 4a8c 0b3f 9617 0f3f
000001c0: 5b83 be3e f921 a1be 5c1d 993e 7bc1 abbe
000001d0: cd6f 66be 3426 2ebc b03b f53e 4366 4abd
000001e0: ada5 5abb 9ff4 c43e 8a81 39bf fb38 fabc
000001f0: 7598 92be 30f4 5bbc 49e1 b93e 296a febe
00000200: 181d 08bd 0009 54be 9a54 90bd 5f44 c53d
00000210: afe2 f5bc 77b9 ad3c 06e5 8abe ec4f f7bd
00000220: 8a37 26bd 560a fcbc 65fa 163d 89da e9bb
00000230: e9f5 fd3d 4c8b b33d 5d4a 19bd 18d8 53bd
00000240: cef4 b4bd e3d2 b73d 7fcd a6be cb5f 01be
00000250: dce5 c43c 7073 323d 6723 9a3e 5a1e 73be
00000260: 1817 8b3e 5f48 44bd 7e80 22bd 15c9 9abe
00000270: a10d 323c ec33 303d d23b 63bc 838d 633d
00000280: d303 013f f759 cabd f24e 4e3c 656a e13c
00000290: 730d b53d c81a 973e ef7c 4f3d 6f81 4ebd
000002a0: 97c3 7d3e 808b 2fbd abba 163d e68d 10bf
000002b0: 6d06 f3bd 87a6 f4bc 00a7 643f b9a1 53bd
000002c0: fc9c de3e 927e d13e cc3c 24bc 649e 213e
000002d0: debb c0bd 3011 7fbd 3569 f8be 4ef9 cc3e
000002e0: 113e 71bc 6982 2e3c eb28 19bd d179 cbbd
000002f0: d810 69bd abe7 e3bc 0e2e 84bd 618f 9f3e
00000300: 8ad3 bcbc c498 023e 2cdf 80bd f6e9 363d
00000310: ffde ed3d 684a 5bbd d7eb 1c3d 9e62 cebd
00000320: 8b35 8e3d 8feb ae3c f8d2 b43c 13b0 a83e
00000330: 1256 6f3d eda2 15bd 2573 11be 5782 bdbc
00000340: e969 15ba e072 74bd ff50 a2bd 2963 01bc
00000350: 2656 36be a6bb 05bb c037 99bd 4c6a 47bd
00000360: ad6b 5ebd 4fa1 cabd 912e c2bc 6c57 573d
00000370: c53f 5abd b2b5 493d 06ef 37bc 565a 79bf
00000380: 41b6 b4bd 2845 86bd 78b9 13be 1efb 0dbc
00000390: 1eb7 ac3d 0a0f 903c 78f5 4cbe 754a 98be
000003a0: b09d 39be bf5b 35bd a530 22bd 3ea8 633b
000003b0: 71a1 d8bd c870 093e 54f2 7ebb 11f5 98bd
000003c0: a506 fa3c bb53 073e 5058 efbd 09f9 c23e
000003d0: 6e9e eabd 8ed2 6f3d 0328 bfbd 177f 88bd
000003e0: bbd5 a2be 7d97 f8bd 47b0 ed3d 4461 c3bd
000003f0: d3a2 a1bc 3d80 e93c db66 16bd bb65 753c
0.56500846 0.097903006 3.016708 -0.393204 0.14781068 0.4606748 0.055920642 0.06114583
0.046298012 -0.5273227 0.67330074 -0.3071508 0.21350014 0.15540302 -0.2558399 0.605131
0.40914983 -0.12332794 -0.1154557 0.32564324 0.114829965 -0.55355614 -0.18794128 -0.074852355
0.1150733 0.32233748 -0.026211485 -0.07453466 0.11873963 0.108829476 0.38882977 -0.14008737
0.027411174 0.33180267 0.1778271 -0.67990977 -0.49442688 0.20550318 -0.3692732 0.28743938
-0.123754464 -0.69333863 0.4599505 -0.093531005 -0.20133221 -0.03130581 -0.2467501 -0.039460357
0.2871441 -0.22711635 -0.080467686 0.26847157 0.11705525 -0.23178837 -0.25821537 0.0060620196
-0.5600576 -0.3322087 -0.2591416 0.0955306 -0.71195745 -0.21347076 0.18265869 -0.059413515
-0.5848154 -0.007789745 0.5821759 -0.5023088 -0.20665056 0.23792654 0.14041215 0.2921929
-0.3294141 0.06339543 -0.1097561 0.09428699 -0.6302181 0.30640686 0.06341188 -0.42434388
-0.50564766 -0.46829894 0.05704031 -0.3891904 -0.073532775 0.42699245 0.3735594 0.046489496
-0.057766344 0.5098889 -0.17332487 -0.13336945 0.18298197 0.31149662 -0.022181237 1.1003228
0.18586452 -0.09955409 -0.19803329 0.23449092 -0.1989213 -0.015848769 -0.13752204 0.24651085
-0.08747298 0.08674937 -0.24141867 -0.073178455 -0.01972406 -0.08801512 0.5451094 0.55895364
0.3720959 -0.31471232 0.29905212 -0.3354605 -0.22503586 -0.0106292255 0.478971 -0.04941393
-0.003336291 0.3846788 -0.72463286 -0.030544749 -0.2863194 -0.013424918 0.3630469 -0.4969037
-0.03323087 -0.20706558 -0.070473865 0.096321814 -0.030015318 0.0212066 -0.27127856 -0.12075791
-0.04058031 -0.030766647 0.03685989 -0.007136647 0.12400419 0.08766803 -0.037424434 -0.051719755
-0.08835755 0.0897577 -0.32578656 -0.12634198 0.024035387 0.04356712 0.30105135 -0.23742047
0.27166057 -0.04792058 -0.03967332 -0.30231538 0.010867507 0.043018267 -0.013869243 0.055554878
0.5039646 -0.09880441 0.012592064 0.027516553 0.08840456 0.2951262 0.050656255 -0.050416406
0.24781643 -0.042857647 0.036799114 -0.5646652 -0.1186646 -0.029864563 0.8931732 -0.051667903
0.43479145 0.40916878 -0.010024261 0.15783077 -0.09410833 -0.06227225 -0.48517767 0.40033954
-0.01472427 0.010651209 -0.037392538 -0.09935344 -0.05690083 -0.027820429 -0.06454097 0.31164077
-0.023050088 0.12753588 -0.06292567 0.044656716 0.11614799 -0.053537756 0.038310852 -0.100774035
0.06943806 0.021352557 0.022073254 0.32946834 0.058431692 -0.03653233 -0.1420408 -0.02313344
-0.0005699681 -0.059679866 -0.07925605 -0.007897177 -0.178063 -0.0020406037 -0.074813366 -0.048685357
-0.054301906 -0.098940484 -0.023703845 0.052573606 -0.05328347 0.049245544 -0.011226421 -0.97403467
-0.08823825 -0.06556159 -0.1442622 -0.008665828 0.08433364 0.017585296 -0.20015514 -0.29744306
-0.1812656 -0.04427695 -0.039597172 0.0034737731 -0.105776675 0.13421929 -0.0038901763 -0.07468618
0.030520746 0.13215534 -0.11686766 0.38080624 -0.11455999 0.05855041 -0.093338035 -0.066648655
-0.31803688 -0.12138269 0.11605888 -0.09540036 -0.019730961 0.028503532 -0.036719184 0.014977868

encoder.4.bias f4 [64]
00000000: 485e 733f dd2a 883d 2eb5 0e3f 6bb4 d9bd
00000010: eb82 463e 591e bd3e 501e 523f c302 9e3e
00000020: 14a1 bf3e a2cc 123f e6be 463e 5496 9f3f
00000030: a106 7a3f 032b a53c 9adf 223f d915 c33e
00000040: 653a 063f 8ae8 c33d 42f6 8b3e 230a 79be
00000050: 9120 3b3f f920 df3e d467 813e 0ce9 d13e
00000060: 0edf 143f 9739 2c3f f246 6b3d 4ad4 c63d
00000070: 72fc 80bd 63f0 413f c82b 2a3f 25a1 183e
00000080: 5dfb 9c3c da7f e23c 5f62 3bbe cf33 303f
00000090: fde7 1fbe 4ce2 b1be 79a2 4dbe 51ed d63e
000000a0: 9aa9 8c3e 4878 1a3f 3388 143f 91c6 183e
000000b0: f0b9 63bd 2a7d 3abd 31ce b83d 90c3 343e
000000c0: 6fe8 0f3e 6f35 2fbe b076 c53d 169f 94be
000000d0: 9df7 d9be a3de b63e 854c c0bb 2bc1 c73e
000000e0: 7ed7 2fbd 8525 4d3e 4587 04be 76d0 843e
000000f0: d7b9 2b3f acdb c53e 7b1e 21bd dee0 1e3f
0.95065737 0.066488005 0.5574521 -0.10630115 0.19385879 0.36937216 0.82077503 0.30861482
0.3742758 0.57343495 0.1940876 1.2467752 0.97666365 0.020162111 0.6362244 0.38102606
0.52432853 0.09565838 0.27336317 -0.24320273 0.7309657 0.43579844 0.25274527 0.40998113
0.58152854 0.67275375 0.057440706 0.0970846 -0.0629815 0.75757426 0.66473055 0.14905222
0.019162828 0.027648855 -0.18299244 0.68829054 -0.1561584 -0.34742963 -0.2008151 0.41977933
0.27473146 0.60339785 0.58020324 0.14919497 -0.055597246 -0.045529522 0.09023703 0.17652726
0.1405351 -0.17110227 0.096417785 -0.29027623 -0.42571726 0.35716733 -0.005868497 0.39014563
-0.04293012 0.20033844 -0.12942226 0.25940293 0.67080444 0.3864416 -0.03933571 0.6206187

encoder.6.weight f4 [64]
00000000: 0846 ec3e 445f bd3f 5c1a f03e 0f94 733f
00000010: 9018 1940 c821 7c3f a2d6 193f d64f db3e
00000020: d1d4 393f 2485 c83e f5c6 503f e04c f53e
00000030: 2b4a 0d3f 39ad b83f a64f ee3e b904 013f
00000040: c944 863f 8ad3 363f 3ef6 5040 1258 803f
00000050: cd43 1d3f 864b 3f3f 9412 363f 36bf e43f
00000060: c0d1 263f c034 d23e c9c4 fd3f 0d02 de3f
00000070: d2d7 743f df41 e93e 8320 173f d397 8b3f
00000080: 112c f53f 6890 8c3f 0ab7 d03f 8676 3b3f
00000090: 0392 2140 7012 553f c9bd 803f 61a8 cf3e
000000a0: 256f 1d3f a7cd da3e 7010 7e3f e4d7 f43e
000000b0: c6e5 773f 7e1d 2b3f 19b7 3a3f e573 c53e
000000c0: f98d b83f 2751 e63f eff1 513f ce53 8a3f
000000d0: f960 8a3d 118d 463f c76d 1a40 f730 f23e
000000e0: 78d8 6f3f 2f85 993e f31d 323f 7027 ed3f
000000f0: 5252 1b3f b3d1 f53e 1442 f43f d20f c63e
0.4614718 1.4794698 0.4689511 0.95147794 2.3921242 0.98489046 0.6009313 0.42834347
0.7259036 0.39164078 0.81553584 0.47910213 0.55191296 1.4427863 0.46545142 0.5039783
1.0489742 0.71416533 3.2650294 1.0026877 0.6143158 0.74724615 0.711221 1.7870853
0.65163803 0.4105587 1.9825679 1.7344376 0.95641816 0.45558068 0.59033984 1.0905708
1.9154073 1.0981569 1.6305859 0.7322773 2.5245368 0.8323126 1.0057918 0.4055815
0.6149772 0.42735025 0.9924383 0.4782096 0.9683498 0.66841877 0.72935635 0.38564983
1.4418327 1.7993516 0.82009786 1.0806825 0.06756777 0.77559 2.4129503 0.47302982
0.9368968 0.29984424 0.6957695 1.852766 0.60672486 0.4801155 1.9082665 0.38683945

encoder.6.bias f4 [64]
00000000: 85f9 273f 3e02 53c0 d6a9 2ebf 7933 b33f
00000010: 6ddb 873f b09b 96bf 1979 093e 87bc fbbe
00000020: b6f0 90bf 776e af3d 5919 a2bf 0648 cf3f
00000030: 3f82 0040 84f8 8e3d 640b 1b3f dc43 2c3e
00000040: b4ed 9bbf c132 893e ca55 913f a387 e7bf
00000050: bea1 1bc0 d861 643e dff7 95bf 7ef6 43bf
00000060: 819e 3e3f ec43 87bf 1a2b 0ec0 f869 86be
00000070: ef9a d43f dcb2 32be 76c7 3a3f 2935 18c0
00000080: 7df8 c7bf 7c40 02bf fbf9 8c3f fdac 9b3e
00000090: 1f7a b23f c63b 26c0 9974 d1bf ad4e 0a3f
000000a0: 9b15 043f 0513 ad3e 5800 9fbf a90b 4cbf
000000b0: fa94 953e 8a82 80bf ff1e 9b3f b7f7 94bf
000000c0: c7d6 f5bf 8648 cd3f aee1 42bf 0342 2fc0
000000d0: cb2b 7e3d 4dfb 8fbc 91a3 b0bf ec51 cbbf
000000e0: 858c 763e d160 72be 1126 e63e def2 b9bf
000000f0: 5320 26c0 b7db 0ebf 4b82 63bf de5b 45bc
0.6561511 -3.2970119 -0.682279 1.4000083 1.0613838 -1.1766262 0.13425101 -0.49167272
-1.1323459 0.08565991 -1.2663985 1.6193855 2.0079496 0.06980994 0.60564256 0.16822761
-1.2181916 0.26796535 1.1354306 -1.8088268 -2.431747 0.2230295 -1.1716269 -0.7654799
0.7446061 -1.0567603 -2.2213807 -0.26252723 1.6609782 -0.17451042 0.72960603 -2.3782446
-1.5622708 -0.50879645 1.1013788 0.30405417 1.3943518 -2.5973983 -1.6363708 0.540263
0.5159547 0.33803573 -1.242198 -0.7970529 0.29215223 -1.0039837 1.2118834 -1.1638097
-1.920617 1.6037757 -0.7612561 -2.738404 0.062053483 -0.017575884 -1.3799917 -1.5884376
0.24077041 -0.23669745 0.44950917 -1.4527242 -2.595723 -0.5580401 -0.88870686 -0.012045829

encoder.6.running_mean f4 [64]
00000000: 5d9c 7041 6ba8 a83f 64ed 4e41 0400 0000
00000010: 8117 c440 1348 0941 27d0 7b41 aba0 2240
00000020: 6902 2441 782a 3341 9244 5b40 adf4 b341
00000030: 9888 ab41 9498 1840 c9c9 6041 ec92 0541
00000040: 53ad 4341 038b 5040 9518 b440 8de6 783f
00000050: cebc 5c41 0e0f dc40 2bdb fd40 d249 3e41
00000060: b2ae 5a41 4200 6641 bdac 4b40 a913 7c3f
00000070: 8e57 b63f 6599 8a41 6cdb 8241 110b b63f
00000080: 7c34 5540 61b9 1d40 8ccc be3f e2ae 4d41
00000090: 5c34 9f40 9d95 7100 0400 0000 6cde 4d41
000000a0: 6ae8 eb40 bad4 4941 0371 4341 ebe5 b340
000000b0: d680 bd3f 13c4 a13f cd65 9e40 ac27 ec3f
000000c0: f625 a740 a004 6e40 f019 d540 0400 0000
000000d0: 0400 0000 0a24 0241 2d5b 5040 901c 4441
000000e0: 0400 0000 6003 f740 3526 1040 71d1 0241
000000f0: 31bd 4c41 2240 fc40 2cec 5140 e23e 5341
15.038175 1.3176397 12.932957 6e-45 6.127869 8.580096 15.738318 2.5410564
10.250588 11.197868 3.4260602 22.49447 21.441696 2.3843126 14.049264 8.34837
12.2298155 3.2584846 5.6280007 0.9722679 13.796095 6.8768377 7.933004 11.893023
13.66765 14.375063 3.182418 0.984675 1.424547 17.3249 16.35714 1.4222127
3.3313284 2.4644396 1.4906173 12.855196 4.9751415 1.0431082e-38 6e-45 12.866802
7.372121 12.614435 12.215091 5.621816 1.4804943 1.2637962 4.949927 1.8449607
5.223384 3.7190323 6.659416 6e-45 6e-45 8.133799 3.255565 12.256973
6e-45 7.719162 2.252332 8.176133 12.796189 7.8828287 3.2800398 13.202852

encoder.6.running_var f4 [64]
00000000: f8a5 0042 9a72 7340 5874 ab41 0400 0000
00000010: dc28 1141 7aa1 1741 b5a7 a241 5d22 b340
00000020: 0bfd 9a41 2ffe 1141 69dc 4341 d5e1 0242
00000030: 7a0e d041 b5b2 1541 4bef 9841 f91c 3941
00000040: b2ef 2541 3047 9641 e64a 9f41 a7e9 1440
00000050: 9b62 1342 de58 b041 78ed 4d41 16d8 1341
00000060: 761e 6442 ea19 0f42 cf4b 2441 5563 2f40
00000070: fb92 b240 c3df 6841 710b ba41 081d 9040
00000080: d4f5 1441 c398 d240 7323 a140 71da 6a41
00000090: 934e 3942 3aec 4800 0400 0000 e150 9841
000000a0: cdea 3f42 90f1 a641 2aec 3641 787e 2441
000000b0: 7516 8a40 04a8 6040 dc72 9241 3c8e 1c40
000000c0: a52c ce41 aa2b bc41 5a4f 5b41 0400 0000
000000d0: 0400 0000 9400 a641 a614 ec40 0244 c541
000000e0: 0400 0000 d012 c041 6bd5 d440 9238 1c42
000000f0: 41ad fe41 ce33 3a41 aa80 3141 e7f7 a541
32.16208 3.8038697 21.431808 6e-45 9.072475 9.476923 20.331888 5.5979447
19.373556 9.124557 12.241311 32.72054 26.007069 9.35613 19.116842 11.569573
10.371019 18.78476 19.911572 2.326761 36.846294 22.043392 12.870476 9.240255
57.029747 35.775307 10.268508 2.7404377 5.580442 14.554629 23.255587 4.503544
9.310017 6.5811477 5.0355773 14.67833 46.326733 6.696898e-39 6e-45 19.039492
47.979298 20.86795 11.432657 10.280876 4.3152413 3.5102549 18.306084 2.4461813
25.7718 23.52132 13.706873 6e-45 6e-45 20.750282 7.3775206 24.658207
6e-45 24.009186 6.651052 39.055244 31.834597 11.637648 11.093912 20.746046

decoder.0.weight f4 [128, 64]
00000000: d2dc 763e 89eb cd3e 0b30 063f a665 f83e
00000010: 09c9 5e3f 217d b13e b4f0 213f cbfa f9bd
00000020: fd53 31bf 559c 83be 35f5 1f3e 6e02 353e
00000030: 2185 9b3e 1259 d73e 38ed e33e db7b c2bd
00000040: 732b 08bf 4762 e33e 5140 9bbb 5cbc 713e
00000050: 7f0e d13e 7609 e43e 2573 223f 108c adbf
00000060: ef2a 883e d988 c2bd b1f2 22bf bf46 80bf
00000070: afc1 19bf e160 ccbe b399 15be 73f3 2a3f
00000080: 9e11 a0bc bc60 173f 4908 a53e 788a 493e
00000090: 3496 1c3f fa7a a03e 7e7f 2f3e 3afa 563e
000000a0: a024 3dbf 6d36 973e 9af0 abbe 5a21 1ebd
000000b0: ea09 bd3e cf02 f43d 7075 efbe 3898 2c3e
000000c0: 05d9 c53e c17f b73e 8fab e43d ee39 393e
000000d0: 85af 57bc b420 1e3e 18dd 9b3e e2e9 4abe
000000e0: 6351 a63e e8f5 90be 6d3a c0ba 95c1 e83d
000000f0: e5bd 43be 03a5 ed3e 719b be3e 5ba2 dbbd
00000100: 2c09 20be 2581 45bf 431e 81bd ec46 0b3f
00000110: 961c 99bb 9b0e d93c c713 e0bd d57c 8c3e
00000120: f960 83be 77ae c93d 2108 963e 9a44 8cbe
00000130: 3cea 0b40 a613 813d 385f 01be dff1 f33e
00000140: 4f85 283d 1a06 9ebd 314a 9dbd 572a 16bf
00000150: e4fb 12bf 1c06 043b c382 71bc 131e d73d
00000160: 03ae 1dbe e5ce 623f f831 0e3f c39c d93d
00000170: c244 9f3e ad70 bfbe 4a42 ec3e d122 18bf
00000180: 91c9 083e 2908 933e 52ba 23bd 6f56 e6bd
00000190: 84e2 34bc f67a 06bf 2c8c c8bd 112a 0dbe
000001a0: 7443 df3d fd96 01be c55e 12be 6510 9bbd
000001b0: a8e5 efbe 605a b4bd 3de4 b93e df2a ca3e
000001c0: 938c 8dbe 7228 8d3d ccea 873d fa61 cabe
000001d0: 606b 0e3e 50f1 3bbd ea67 9d3e 46b7 7abf
000001e0: ce77 7d3e 2659 f63d 0627 013e 3f7a 393e
000001f0: f4f6 9e3f 176c a83d fb89 2abe 69ac 9d3e
00000200: e6d2 a9be c022 93bf cfd1 66be 7996 6c3e
00000210: 7803 373e 9de8 e03d bb6b 813c 8406 7fbe
00000220: 235a 053f 6640 70be b157 b3bf f79c 2c3e
00000230: f197 0b3e 1917 633f 5d2e 95be 8398 103e
00000240: 348c 8cbe 3675 d1be 2a07 12be 509d 983f
00000250: 0255 31be fee2 213e 877b d13e faf6 353e
00000260: 44e0 0fbe 1713 ac3d 81df aa3e 69fc 373f
00000270: 4e8a 2cbf ea36 1bbe 66ad 2d3f 2bab 8dbf
00000280: 5ae0 d93e eccb 183f c217 80bf 61ca 57be
00000290: 1a6f 7bbe 9be8 713e 5320 ddbd 41a5 823e
000002a0: 6ed7 f9bd 121a 0a3e 9ab0 56be f958 16be
000002b0: 4be3 1ebf 134e 8cbf e4b5 873d fe1e 163e
000002c0: 0028 de3f f33b 5a3f f67c 5e3e e2a1 d8be
000002d0: 0192 6d3e 9a74 873d ee93 a83e 664d babe
000002e0: a809 3f3c feda ee3c 2912 a8be 0293 fe3d
000002f0: 276b e2be 9d43 41bf fdb9 f2bc f478 1f3e
00000300: e19e 1a3e 873e 25bf a2ac 4c3f 55b1 1f3f
00000310: d666 5dbe aef6 b43f 6b03 3d3f 8286 4cbe
00000320: d43c 9e3d cff2 a5bd 49eb 1c3f 7413 1fbe
00000330: e7d3 913e 3148 12bf 8071 d4be 614d 9ebe
00000340: e69f 4cbe 4742 51be 9f0a 9a3e 826c f2be
00000350: df68 3b3d 0954 073f 7a1d edbd fb82 443e
00000360: f335 82be 4aca 26be eb6d 30bd 60e0 863d
00000370: 2c08 ac3d 044d 65be 96fe fb3e b2c5 eabe
00000380: 9186 c7be f27c 203d 8c6e 9cbe eaf6 49be
00000390: 1f62 6f3e cc10 b4be 290e ddbd 117b 21bf
000003a0: a276 5dbf 5341 a83e 8847 b0be 5a10 703d
000003b0: 1656 20bf 792c 2abf f32e 4ebe ffed d6be
000003c0: 6f30 e9bd 236d 60be c802 723e 3fa5 58be
000003d0: 7604 5c3e 442a 843e 4039 083f 56c6 233f
000003e0: 18e3 3a3e 8ce1 76be 1656 653f bddd 373f
000003f0: 0fe6 b93e 614a 9dbc ed48 ad3e 1655 603f
0.24107674 0.40218762 0.5241706 0.48515052 0.87025505 0.34665778 0.6325791 -0.12206038
-0.6926878 -0.2570521 0.15620883 0.17676708 0.30375007 0.42060143 0.4451692 -0.0949628
-0.531913 0.44410917 -0.0047378917 0.2360701 0.40831372 0.44538468 0.63456947 -1.3558369
0.26595256 -0.09498758 -0.6365157 -1.002159 -0.6006116 -0.39917663 -0.14609413 0.66777724
-0.01953965 0.5913198 0.32232884 0.19681728 0.6116669 0.31343824 0.17138478 0.20993891
-0.7388401 0.2953371 -0.33582002 -0.038606025 0.36921626 0.11914598 -0.46769285 0.16854942
0.38642135 0.35839656 0.11165535 0.18088505 -0.013164406 0.15442163 0.3044212 -0.19815782
0.32483968 -0.28312612 -0.001466585 0.11365048 -0.19115408 0.46414956 0.37227967 -0.10724326
-0.15628499 -0.77150184 -0.063046 0.54405093 -0.004672597 0.026496222 -0.10941272 0.2743899
-0.25659922 0.0984773 0.29303077 -0.2739609 2.1861715 0.06302576 -0.1263398 0.4764547
0.041142758 -0.077160075 -0.076801665 -0.58658355 -0.57415605 0.0020145243 -0.014740649 0.10503783
-0.15398411 0.88596946 0.55544996 0.10625603 0.31107146 -0.37390652 0.46144325 -0.59428126
0.13358141 0.28717163 -0.03997261 -0.11246955 -0.011040334 -0.52531374 -0.09792361 -0.13785578
0.109015375 -0.12655254 -0.14293964 -0.075714864 -0.468549 -0.088063 0.36306944 0.39485833
-0.27646312 0.0689248 0.06636581 -0.39527875 0.13908148 -0.04588443 0.30743343 -0.97935903
0.24752733 0.120287225 0.12612543 0.1811304 1.2419114 0.082237415 -0.16654198 0.307956
-0.33168715 -1.149498 -0.22540973 0.23104276 0.17872417 0.109818675 0.01579844 -0.2490483
0.5209066 -0.23462066 -1.4011136 0.16856752 0.1363218 0.8870712 -0.29136935 0.14120679
-0.27450716 -0.40909737 -0.14260545 1.1923008 -0.17317584 0.15809247 0.40914556 0.17769995
-0.14050394 0.084020786 0.33373645 0.7186952 -0.67398536 -0.15157667 0.6784271 -1.1067861
0.4255398 0.5968616 -1.000725 -0.21073295 -0.245541 0.23623888 -0.10797181 0.25516704
-0.12199293 0.13486508 -0.20965806 -0.14682378 -0.6206557 -1.0961326 0.0662649 0.1466026
1.7355957 0.85247725 0.21727356 -0.42311007 0.23200227 0.06614037 0.3292536 -0.36387175
0.011660017 0.029157158 -0.32826355 0.12430383 -0.44222376 -0.75493795 -0.029629702 0.15573484
0.1509967 -0.64548534 0.79950917 0.6237996 -0.2162126 1.4137781 0.7383334 -0.19973186
0.07726446 -0.08102953 0.61296517 -0.15534765 0.2848198 -0.57141405 -0.41492844 -0.3091841
-0.19982871 -0.20435439 0.30086228 -0.4734841 0.04575431 0.528626 -0.11577888 0.1919059
-0.25431785 -0.16288105 -0.043073576 0.06585765 0.08399996 -0.2239266 0.4921767 -0.45853955
-0.38969854 0.039181657 -0.3055309 -0.19723096 0.23377274 -0.35169065 -0.107937165 -0.6307841
-0.86509144 0.32862338 -0.34429574 0.058609344 -0.62631357 -0.6647411 -0.20135097 -0.41978452
-0.11386191 -0.21916632 0.23633873 -0.21156786 0.21486077 0.25813496 0.53212357 0.6397451
0.18250692 -0.24109477 0.8958448 0.7182272 0.36308333 -0.019200506 0.338447 0.8762983

decoder.0.bias f4 [128]
00000000: 4670 243f d39a 493f 1c02 3c3e 18c6 503f
00000010: 3698 00be ea7f bbbd 483d c73e 43e8 febb
00000020: 138b 863d 94a0 9b3c ff21 753f 2e02 b4bd
00000030: e82e e0bd 75dd 143f 0d10 9e3f c52c e2b9
00000040: 4643 0dbe 9910 783c 285f 573f f71d 5bbd
00000050: 6340 683e c163 823f 332a 07be f95f 903e
00000060: 4ef5 613f deaf bfbd 0e29 813e 81e5 78bb
00000070: fdd3 173f 5152 043e 88d3 f33c 2894 45bd
00000080: 8212 6ebd 30b1 6fbd f502 b63f 2ace e73e
00000090: 6587 d33d 704f a2bc 32f9 003f d27e b8bd
000000a0: 184f 083f 8886 983d 7a25 0b3e 64c0 763e
000000b0: 0f1f 923e 3127 fabc 6466 133f 92dc 773c
000000c0: 5af5 d8bc b4be 173f 4521 db3c 5e0d 16be
000000d0: bddc a63e 2cb2 9f3f e1e8 4e3f 714d 83bd
000000e0: e59a a93e abaa b23f c25c 0e3f a6c3 16be
000000f0: c3e3 00be 8036 1ebd fa3b 5a3f 94a9 debd
00000100: 9d88 b9bd 3bee 6b3d 3cab c23e 10d8 363c
00000110: 5bb8 06bd b79a 463f c026 6b3f 59a8 023d
00000120: 2430 f23c 9b14 f33d 300e 943c 72a8 833f
00000130: f301 7e3f 1d0a a53e d70b af3d b6f6 f5bc
00000140: d511 90be d684 753d f37a f4bd d747 01be
00000150: 802e ca3e 91f1 a93c bee9 9a3e 334d 1e3f
00000160: 8c45 3f3f fb43 0abe 5544 d03e 5c13 e1bd
00000170: 8ce6 8a3d fa34 99bd 96d4 a53e 7e97 573f
00000180: 6c88 a63e 8db8 d63a 3124 453e 5f68 2c3e
00000190: ec1f ec3c 27cb cebd d0e4 6a3d b686 5a3f
000001a0: 57b5 3a3f 2b64 10be a0bc a6bd be09 fbbd
000001b0: df64 e7bd e6f0 c83b 64e2 65bd 9629 563f
000001c0: 577a 143f d819 003f 5aca fb3e 5ca9 b4bc
000001d0: a050 dfbb e179 6c3f d587 683d e909 713f
000001e0: 8dfa 0dbe fe9f 5a3f 4a74 88bd 90af 893f
000001f0: 8a5e f7bd 96ac b0bd 173b af3f fe32 f1bd
0.64233816 0.7875187 0.1836018 0.8155227 -0.12558064 -0.09155257 0.3891394 -0.0077791526
0.06569495 0.018997468 0.95755 -0.08789478 -0.10946447 0.58150417 1.2348648 -0.00043139435
-0.13795194 0.015140676 0.8412957 -0.053495374 0.22680812 1.0186692 -0.13199691 0.2819822
0.8826493 -0.09359716 0.25226635 -0.0037978592 0.59307843 0.12922026 0.029763952 -0.048236996
-0.05812312 -0.05851859 1.4219652 0.45274478 0.10328559 -0.01981327 0.5038024 -0.09008564
0.5324569 0.07447535 0.13588515 0.24096829 0.2853932 -0.030536266 0.5757811 0.015128272
-0.02648418 0.59275365 0.026749263 -0.14653537 0.32590285 1.2476249 0.80824095 -0.06411255
0.33125988 1.3958334 0.5561029 -0.14723071 -0.12586884 -0.038626194 0.85247767 -0.10872188
-0.0905926 0.05760024 0.38021266 0.011159912 -0.03289066 0.77579826 0.91856 0.03189883
0.02956397 0.118691646 0.018073171 1.028578 0.99221724 0.32234278 0.0854718 -0.030024868
-0.28138605 0.059941135 -0.11937513 -0.12625061 0.39488602 0.02074507 0.30256456 0.61836547
0.74715495 -0.13502495 0.40677133 -0.10990021 0.067822546 -0.074808076 0.32388753 0.84215534
0.32525957 0.0016381905 0.19252087 0.1683669 0.028823815 -0.10097342 0.05734712 0.853618
0.7293295 -0.14100711 -0.08141446 -0.122577175 -0.112985365 0.006132233 -0.056124106 0.83657205
0.57999176 0.50039434 0.4917782 -0.022053413 -0.006815031 0.9237347 0.056770165 0.94155747
-0.13865109 0.8540038 -0.066628054 1.0756702 -0.12078579 -0.08626668 1.3689908 -0.11777304

decoder.2.weight f4 [128]
00000000: f2ed 883e 616f b13e d7bd 5f3e 2ee0 323e
00000010: cf25 593f aae0 733f 461c b73e f7fa 773f
00000020: e8da 483e 7185 0e3e 2941 603e 0000 803f
00000030: 586b 7e3f ca33 663e 66e8 313e bb4e 7b3f
00000040: a9e3 773f 5002 7d3f 0af3 d83d 71b1 7c3f
00000050: 9ab5 253f 5de3 223e b31b 783f 6562 1d3e
00000060: 5652 e23d 2f72 7a3f 0a65 393e d0c6 7a3f
00000070: 62c5 1f3f 438a 803e 0273 783f 0000 803f
00000080: 4beb 723f a23a 753f e513 833e 4343 463d
00000090: 8b81 9b3e 0000 803f 8bc5 5c3e 3fad 7a3f
000000a0: fbde c03e 8a0d 793f b875 4d3e 6765 123e
000000b0: 0065 ab3e 9ea9 7e3f d51c 4b3e 4266 c53e
000000c0: 5975 763f e5a3 413f 7018 7c3f 7e77 783f
000000d0: e70d e83e c0bb 1e3e 6fc3 3c3e 72c7 ba3d
000000e0: 230e 9e3e c2c1 623f 1828 f23e 6b55 783f
000000f0: 63c7 793f 0000 803f d9c4 2b3e 0000 803f
00000100: 595b 783f 089c 7e3f 6b71 173f 0000 803f
00000110: ab0f 793f 01b1 8a3e c81e d13e 4b89 763f
00000120: b809 783f 0d0f e93e 0000 803f f560 3c3e
00000130: cc51 223e 6086 c13e 5236 7d3f fb8a 783f
00000140: e469 a93e ff6a 3f3e aa18 3d3f aff3 773f
00000150: 755b d73e 215d 7a3f e1c7 2c3e 42f0 8c3e
00000160: fc9d 703e c329 7a3f b885 fc3e 7533 7d3f
00000170: 2c06 1f3e 0779 753f 4e95 1e3f 3d88 833e
00000180: 9ad7 6a3e 32a4 753f 2378 243e 09ff 983e
00000190: aa2b 373e 88d6 763f a654 783f aacd 693e
000001a0: 478d 1c3e 08fc 773f 81d8 7d3f 4c59 783f
000001b0: 174c 763f 9d8a 9c3e 0000 803f f904 a03e
000001c0: 24f2 173e 61ca a13e cdee 553e fae2 773f
000001d0: 0000 803f bf21 213e 785b 343f 5ed3 163e
000001e0: d87d a23e dd32 013f 639b 793f 18db d03e
000001f0: b9b6 7c3f 3385 7e3f ff69 cd3e 0000 803f
0.26744038 0.34655288 0.21849762 0.1746833 0.84823316 0.95264685 0.35763758 0.96867317
0.19614756 0.13918091 0.21899857 1.0 0.99382544 0.22480693 0.17373809 0.9816701
0.96831757 0.98831654 0.10593231 0.98708254 0.64730227 0.15907045 0.96917266 0.15369566
0.110508606 0.9783048 0.1810495 0.97959614 0.6241056 0.25105485 0.9705049 1.0
0.9489028 0.9579259 0.25601116 0.04840399 0.3037227 1.0 0.21559732 0.979206
0.3767012 0.97286284 0.20064437 0.14296494 0.33475494 0.99477565 0.19835217 0.3855458
0.9627281 0.7564071 0.9847479 0.9705733 0.45323107 0.15501308 0.18433927 0.091200724
0.3087016 0.885769 0.47296214 0.9700534 0.97569865 1.0 0.1677431 1.0
0.97014385 0.99456835 0.5915744 1.0 0.9728953 0.27088168 0.40843797 0.9630324
0.9688983 0.45519295 1.0 0.18396361 0.15851516 0.37797832 0.9891101 0.9708707
0.330886 0.1869316 0.7386576 0.96856207 0.42061964 0.97798353 0.16873123 0.27527052
0.23497766 0.97719973 0.4932077 0.9890664 0.15529698 0.958878 0.6194657 0.2568988
0.22933808 0.9595367 0.16061454 0.29882076 0.1788775 0.964211 0.97004163 0.22832361
0.15288268 0.96868944 0.99158484 0.97011256 0.96209854 0.30574504 1.0 0.31253794
0.14838463 0.31599715 0.20891877 0.96830714 1.0 0.1573553 0.7045207 0.14729068
0.31736636 0.50468236 0.97502726 0.40792155 0.9871631 0.99421996 0.4011993 1.0

decoder.2.bias f4 [128]
00000000: 03ad a63c 0e6c bebd 7e9e edbc c1a2 07bd
00000010: 8cbd 223b 064d 0cbb 9af8 bd3d 894b 26bb
00000020: 60a8 213d d5d6 08bc 898a 5dbd 759f c33c
00000030: e1d5 593e 7ed8 a73c fc49 9fbd da98 223b
00000040: d83c 6d3d 58c7 67bb 1b57 d3bc b015 9a3b
00000050: f8d0 823e 8873 12bd 71da 25be 7282 113d
00000060: 5dfe debc 6efb 0f3b be33 883c e3c7 7fbe
00000070: c2cb a63e c258 e83c 7297 923d 1cad a0be
00000080: ac40 1bbb 81b2 9b3e a678 9b3c a88a e6bb
00000090: c036 34bc 4608 32bb 6d6d 9ebc d972 36bb
000000a0: ffba 263d d3ce 853d 3ae0 a2bc c9ee 87bc
000000b0: 78bb 08bd acca 733e 541f 6bbd 80ed 5c3e
000000c0: 58b4 83bd 8775 3abd d646 973e ff29 6f3d
000000d0: e646 293c a61d 11bd 099b 10bd 0d88 07bc
000000e0: bb0b f13c d15a 4abe 02f7 e2bc 184f 28bb
000000f0: 2661 8d3e f026 d23d 9387 e8bc 4b68 213b
00000100: 9406 96be 5ce0 1bbe 3e47 26bd 2492 14bd
00000110: 6112 d5bd f92f 00bd ce29 453c 7aeb 63be
00000120: e27e b3be 0a1b 543e 247a 973e bbf4 3dbd
00000130: cd38 8cbc 4fc2 e33c 953e 2f3b 2ba7 043e
00000140: 8cf1 ae3d 40dd 8ebc 8466 95ba 5821 d7bd
00000150: 05a0 1439 1685 cbbd d1b9 423c 0f9b dabd
00000160: 62f1 3fbd 3e6e 113f e11e ecbd 5a8e 823e
00000170: 0fe4 83bc 4dc7 25be 8171 7abe 3407 7bbd
00000180: 92ac a7bb 0faf 29bb 2cfc 97bc de80 f8bc
00000190: f1d8 15bc 413c a7be f8e1 9c3e 1f41 fd3c
000001a0: 8679 d0bc e5c5 1abb 14c5 713b 8411 93be
000001b0: 6a75 963e 4617 9e3d f335 4ebb 971f cdbc
000001c0: c0e7 7bbc 5343 cfbc c98c 1cbd 3195 64be
000001d0: 183b a3be 0d3c f5bc 4421 2c3f af52 27bd
000001e0: dc30 103c 1226 bc3c cfe2 b73b 7d6a 02bf
000001f0: e2fb 2dbb f9e7 1dbe 001d 2cbf aa33 ac3e
0.02034617 -0.092979535 -0.029006239 -0.0331142 0.0024832217 -0.0021408214 0.092759326 -0.0025374612
0.039467216 -0.008352001 -0.054087196 0.023879746 0.21272995 0.020488974 -0.07777783 0.0024810345
0.057919353 -0.003536662 -0.025798371 0.0047022924 0.25550056 -0.03575471 -0.1619661 0.035524793
-0.0272209 0.0021969932 0.016626235 -0.24978594 0.3257733 0.028362636 0.07157792 -0.31382072
-0.002368967 0.30409625 0.018978428 -0.007035572 -0.010999382 -0.0027165576 -0.019339288 -0.002783945
0.040705677 0.06533589 -0.01988231 -0.016593354 -0.03338191 0.23807782 -0.057402924 0.21574974
-0.06430882 -0.04552224 0.2954623 0.05838966 0.010331845 -0.035428666 -0.035304103 -0.008272183
0.029424539 -0.19761206 -0.027705673 -0.002568191 0.2761318 0.10261333 -0.02838496 0.0024628814
-0.29301894 -0.15222305 -0.040595286 -0.036272183 -0.10403896 -0.03129575 0.012033893 -0.22257796
-0.3505774 0.2071344 0.29585373 -0.04637597 -0.017116928 0.027802614 0.0026740183 0.12954395
0.08542165 -0.017439485 -0.001139835 -0.10504407 0.00014173992 -0.099374935 0.011885122 -0.10674106
-0.04686106 0.5680884 -0.11529327 0.2549923 -0.016099958 -0.16189308 -0.24457361 -0.061286166
-0.0051170075 -0.0025891697 -0.018552862 -0.030334886 -0.009145961 -0.32663158 0.3064115 0.030914841
-0.025448572 -0.002361649 0.003689115 -0.287243 0.29386455 0.07719283 -0.0031465262 -0.025039477
-0.015375078 -0.025300657 -0.0382202 -0.22322537 -0.31881022 -0.029935861 0.6723826 -0.040850338
0.0088007115 0.022967372 0.0056117545 -0.5094374 -0.002654784 -0.15420522 -0.6723175 0.33633167
