rl-manager/mnt/autoencoders/AE_64.pth (torch, 235304 bytes, 8 tensors)

encoder.0.weight f4 [128, 161]
000000 66 d9 06 3d 3a e0 c5 3d ab 77 f0 bc 14 ba 5b bf
       0.03292217 0.096619084 -0.029353937 -0.8583081
000010 50 b1 3a 3f 92 95 0f 3e c2 d2 e9 bd 0f f5 04 3f
       0.7292681 0.140219 -0.11417152 0.5193643
000020 dc fc 18 bc bf c0 bd 3e 88 fd 99 be 2d d6 f7 3c
       -0.00933763 0.37061116 -0.30076241 0.030253494
000030 d5 38 38 be e5 1f 70 3f 49 72 78 3e 80 03 a8 bd
       -0.1799043 0.9379867 0.24262346 -0.082037926
000040 d3 a4 3b bf f8 db 88 bf 31 b6 8b 3f 69 d4 07 3f
       -0.73298377 -1.0692129 1.0914975 0.5305849
000050 f4 0f 04 3f b8 80 23 be e0 04 e9 3e 35 d1 af bf
       0.5158684 -0.15967071 0.45511532 -1.373572
000060 50 f6 83 3b 19 45 49 3f cd 02 3b 3f f0 c0 13 3f
       0.0040271655 0.7862106 0.7305115 0.57716274
000070 f7 45 3f bf 60 1c 25 bf 0e 02 50 3f 07 ee 67 3e
       -0.7471613 -0.6449642 0.81253135 0.22649394
000080 40 c8 e7 be d6 18 62 3f 1a e9 e6 3e a2 78 ad be
       -0.45269966 0.88319147 0.45099717 -0.33881098
000090 6a b9 a0 be 0f 77 f8 3e b2 57 cd 3e 4e 1b 88 3f
       -0.3139146 0.48528334 0.4010597 1.0633333
0000a0 5f 88 4e be 70 c1 40 be 30 56 b6 3e b1 6e 12 bf
       -0.20169209 -0.1882379 0.3561263 -0.5720015
0000b0 1b 65 4e 3f 0b 87 e5 be 03 61 39 3f cc 63 fb be
       0.80623025 -0.44829592 0.72413653 -0.49099576
0000c0 98 a8 85 3f 9c fc ba be 94 1c 92 3e f4 cc 5f bb
       1.0442076 -0.3652085 0.28537428 -0.0034149261
0000d0 ff a1 9d be 75 99 14 3e 92 50 e3 be 1f 2b b0 be
       -0.30787656 0.14511664 -0.44397408 -0.344079
0000e0 88 89 fd 3d fa 80 56 be 1b eb c0 3d f1 fd 27 3e
       0.12379748 -0.20947638 0.09419843 0.16405465
0000f0 58 57 68 bf 0e 30 0c 3f b7 8f 83 be 09 d5 c5 bd
       -0.90758276 0.54760826 -0.25695583 -0.09659774
000100 56 8f a8 be 1d a9 e5 3d 3d eb 0f 3f b6 e7 a0 3d
       -0.32921857 0.112138964 0.5621832 0.07856695
000110 de 6d 59 bf 05 3d 96 3e 6b 2c b7 bd c5 d4 a5 3b
       -0.8493327 0.2934343 -0.08944019 0.0050607645
000120 6a 22 24 bf e5 a6 d7 bc f3 43 83 3e d8 a7 bc 3c
       -0.6411501 -0.026324699 0.2563778 0.023029253
000130 72 af ee 3e 96 8b aa 3e 63 8e 93 3d 15 ac 5f 3e
       0.4661823 0.3330962 0.072048925 0.21842988
000140 5a b3 c9 be 0e ec 3b 3e 61 c3 7d be a9 2a 9f 3d
       -0.39394647 0.18351766 -0.24781562 0.07771809
000150 91 c4 cc bd 05 c6 88 bd 4d 34 bd 3e 11 8e 99 bd
       -0.099984296 -0.06678394 0.36953965 -0.074978
000160 1a 25 39 bc 8f 1b 15 3e ea 5e 0f be e8 8f 8a 3d
       -0.01130035 0.14561294 -0.1400105 0.06765729
000170 a7 7b d1 3b 25 3d 50 be 5b 62 e2 bc 97 89 70 bb
       0.0063929143 -0.20335825 -0.02763479 -0.0036703104
000180 e7 f3 33 3e a8 38 a2 bd 16 29 97 3d dd 41 fd bd
       0.1757351 -0.079209626 0.073808834 -0.12366078
000190 c6 ea e9 3d 7a 63 4d bd 32 1f 25 3b 23 45 ea bc
       0.114217326 -0.050143696 0.0025195596 -0.02859742
0001a0 ae ef d5 3d 70 6d 9b bd 60 bc bb 3b 33 3c d4 bd
       0.10446106 -0.07589233 0.005729243 -0.103630446
0001b0 eb 7f d6 3d 49 12 89 3d c8 b9 1c bd db 8f f8 bc
       0.10473617 0.06692941 -0.038263112 -0.030342033
0001c0 d6 1f 95 bd d7 a8 1a 3d c1 85 2c bc f7 fb 2e 3d
       -0.07281463 0.037758674 -0.010529936 0.04272076
0001d0 37 3c 07 3d ea 8f 3c 3d 66 e7 88 3c ef 5f 9f 3c
       0.03301641 0.046035685 0.016711902 0.019454924
0001e0 3a 3a 72 3c f0 84 9a 3c a7 ad 83 3d d1 3c 9c 3d
       0.01478439 0.018862218 0.06429606 0.07628787
0001f0 57 f8 f2 bc f1 4d 69 3d 19 b0 a5 3a e2 46 90 3d
       -0.029659433 0.056959096 0.0012640982 0.0704477
000200 91 2d c5 bb ca c2 48 3d 4b e4 23 3d 54 36 98 3c
       -0.006017395 0.04901389 0.04001264 0.018580593
000210 9b 39 6c 3d 3f 76 ee 3b a3 b6 63 3c 6d f6 87 bb
       0.057672124 0.0072772796 0.013898524 -0.0041492493
000220 bc df 1c 3d d3 e7 42 3c 52 be a9 3c af 47 45 3d
       0.038299307 0.0118960915 0.020720635 0.048164066
000230 8f 04 a1 bc e0 1a 8a bd 44 77 bf 3c 97 b8 e2 bc
       -0.019655494 -0.06743407 0.0233723 -0.02767591
000240 29 23 64 bc 36 ce 68 3d c9 12 aa 3c 9d e6 40 3d
       -0.013924398 0.056837283 0.02076091 0.04709493
000250 81 08 bb bc dc 60 91 bb e1 27 42 bd a7 6f 61 3d
       -0.022831203 -0.0044365954 -0.047401313 0.05503812
000260 bf 7d 5d bd fc 15 83 3d 3a 72 8c bb 37 52 62 bd
       -0.054075 0.064006776 -0.004286078 -0.055254187
000270 9b 39 6c 3b 96 31 6b bb a5 d9 04 bb 2e c1 36 3d
       0.0036045078 -0.003588771 -0.0020271328 0.044617824
000280 bc ae 6d 3c c3 0b 53 3d 1e c8 e0 ba 7b d6 46 bd
       0.014506992 0.05152489 -0.0017149483 -0.04854439
000290 88 79 f0 bd 63 3a a2 3e 83 b5 0c 3f f0 a6 0d bf
       -0.1174193 0.3168517 0.54964465 -0.5533285
0002a0 10 87 d5 3d 0b 55 89 3e 63 c8 97 be c7 7e 04 bf
       0.10426152 0.26822695 -0.2964507 -0.51755947
0002b0 3a 6d 8b be 00 c6 11 be f2 86 97 3e a0 b0 74 3e
       -0.2723177 -0.14235687 0.29595143 0.23895502
0002c0 ab 8e 57 be f8 62 fd bd 55 ad 36 bf 2c 1a a6 3e
       -0.21050517 -0.123723924 -0.71358234 0.32441843
0002d0 38 d6 8e 3d b6 fc b7 3c c8 34 18 3e c2 0c 21 be
       0.06974453 0.02245937 0.14863884 -0.15727523
0002e0 dc d8 ca 3f d6 55 f0 be 71 3d e4 3c f5 41 d6 be
       1.584743 -0.46940488 0.027861329 -0.41847196
0002f0 26 d9 b0 3e 1a 73 b8 3d 3b 7b ed bd cf e9 e7 3f
       0.3454067 0.09006329 -0.1159577 1.8118228
000300 da 3f a2 3e 07 26 25 3e 05 53 8d 3f a8 92 9c 3e
       0.3168934 0.16127788 1.104096 0.3058064
000310 fc 07 6b be ee 34 7b be 62 94 8b be ce 9a 50 3f
       -0.22952265 -0.2453191 -0.27261645 0.81486213
000320 5c 0d bf 3f d3 5e 26 3e 4e b2 d6 3d 23 c5 1c bd
       1.4925952 0.1624711 0.10483228 -0.03827394
000330 ee c5 85 be 5e 4a 16 3f 36 1a 46 3f 49 2d ca 3e
       -0.2612757 0.58707225 0.77383745 0.39487675
000340 80 83 9c bc b4 d0 f2 bd 1c 99 af 3e 97 2a 5d 3e
       -0.019105673 -0.11856213 0.342965 0.21598278
000350 84 4f cf be 1b 0b c8 3f 29 9f b2 3e d2 8d 19 3e
       -0.40490353 1.5628389 0.34887055 0.14995506
000360 85 82 3a be db 66 e7 3e 46 90 2a be 64 56 1f bf
       -0.18213852 0.4519566 -0.16656598 -0.62241197
000370 67 37 8b 3c 01 46 cc be 1b 0d 18 3e 79 86 5f 3e
       0.016994191 -0.3989716 0.1484875 0.21828641
000380 f2 8b d9 3d a6 0d 85 3d 2b 0d ce 3e 6a 73 77 bd
       0.106223956 0.06496744 0.4024442 -0.0604128
000390 c2 26 69 3c 65 ee dc be f4 37 bc be d3 c3 a9 3d
       0.014230432 -0.4315063 -0.3676144 0.08289304
0003a0 00 e3 8e bb 18 90 2b be 78 a9 18 be 5b bd 29 bb
       -0.0043605566 -0.16754186 -0.14908397 -0.0025900218
0003b0 61 fb 9d be 3f 7f 16 bd 55 62 83 3a 06 01 9d be
       -0.3085585 -0.036742445 0.0010023812 -0.30664843
0003c0 d2 20 47 3c 1d 4d 19 bd ab 1e 19 3d 87 79 2f bd
       0.012153821 -0.037427057 0.037382763 -0.042840507
0003d0 6c 59 57 be b0 2a e7 3d 56 95 06 be b2 e7 3e 3d
       -0.21030205 0.11287439 -0.13142905 0.04660768
0003e0 ab 20 97 bd 0e 7c 2c bc d7 3c 6c 3d c1 f0 b3 be
       -0.07379278 -0.010527624 0.05767521 -0.35144618
0003f0 4b 5a 18 3d 5f c3 d9 3b 38 88 69 bd c4 4e 6a 3d
       0.037195485 0.0066456045 -0.057014674 0.057204023

encoder.0.bias f4 [128]
000000 d5 93 e5 3d a7 5c 77 3d 2f cb 95 bd c7 bb ed 39
       0.11209837 0.060391095 -0.07314145 0.00045344068
000010 dd 3f 88 bd d6 a9 99 bd 6d 24 bc 3d 19 a0 12 be
       -0.06652806 -0.07503097 0.09186635 -0.14318885
000020 31 90 49 bd 63 d8 a8 3d 94 c1 9d 3e 3d 99 2c be
       -0.049209777 0.082443975 0.3081175 -0.16855331
000030 51 8c 1a 3e 51 96 8c bc 69 71 6e bd 39 b0 27 3e
       0.15092589 -0.01716152 -0.058213625 0.16375817
000040 e3 26 2e 3e d7 2a db 3d 55 6f b3 3b 7f 15 32 bc
       0.17007022 0.107015304 0.0054759183 -0.010869383
000050 ac de b3 bc 89 90 42 be 60 61 23 3d 41 ce 7e bd
       -0.021956764 -0.19000448 0.039887786 -0.062208418
000060 1a b8 bd 3d fd 84 74 3d 57 8c 34 bd 47 24 fa bc
       0.0926363 0.05969714 -0.04407915 -0.030534877
000070 01 41 26 3e cc 87 fb 3d 14 70 86 3d 2a 21 ff 3d
       0.16235735 0.122817606 0.06564346 0.124574974
000080 e2 15 88 bd 3e 89 21 3e e5 a9 47 bc 90 c1 87 3c
       -0.06644799 0.1577501 -0.012186502 0.01657179
000090 4b ff 79 3e 2d 61 36 3e fe 13 06 3b a7 0e 36 bd
       0.24413793 0.17810507 0.0020458694 -0.044447567
0000a0 d6 7b eb bb cd a8 36 3d 8d 4d 38 bd 83 6f 1d 3e
       -0.0071863933 0.044594575 -0.044995833 0.1537457
0000b0 52 af b6 bc 61 69 4d 3d 68 63 6a bd 7c 77 16 bd
       -0.022300396 0.050149325 -0.057223707 -0.036735043
0000c0 f1 2b 4c 3e 54 e1 ef bb 6a 46 96 bd 7e d1 f8 3d
       0.19938637 -0.0073205624 -0.07337649 0.121493325
0000d0 0c 3b aa 3d 1a 49 ce bd 87 39 48 3e 5c 63 30 3e
       0.083120435 -0.10072537 0.19553195 0.17225403
0000e0 d0 9f 59 bd a7 6e 77 bd 0d a1 5d 3e 9c 0b 55 bd
       -0.053130925 -0.06040826 0.21643467 -0.052013025
0000f0 b7 c6 5e bd a9 7f c7 3c 04 f8 8c bd f1 77 1a 3e
       -0.054388728 0.024352865 -0.06883243 0.15084817
000100 ad b7 33 3d 0f bb 49 3c 51 84 7a 3d 5b ca c5 3c
       0.04387634 0.012312665 0.061161343 0.024144342
000110 3d 15 0b bd 80 60 96 bd fb 6f 46 3d 3a 8a 46 3a
       -0.0339558 -0.07342625 0.048446637 0.0007573698
000120 1b 2d 6f bc 63 06 dd bc cd cf c2 bc f0 13 94 3c
       -0.014598156 -0.026980584 -0.023780728 0.018075913
000130 12 03 89 bd 51 35 9b 3d 9a bd 6e 3b a8 93 eb bc
       -0.06690039 0.07578529 0.003642893 -0.028756931
000140 03 80 10 bc 2d b8 ed 3d 9f e5 6f bd 14 52 6f bd
       -0.008819583 0.11607394 -0.058568593 -0.058427885
000150 76 0f d9 ba 0b e6 cd 3b d3 b2 9a bd 91 1b 73 3d
       -0.0016560394 0.006283527 -0.07553639 0.05935246
000160 bd 93 98 bd f8 00 94 bd ea 87 38 3e 30 6f 41 3e
       -0.07450054 -0.07226747 0.18020597 0.18890071
000170 14 bc c0 bb 8f d9 ed 3c 55 d4 68 3d 40 e3 6a bd
       -0.0058817957 0.029034404 0.05684312 -0.05734563
000180 33 24 3c 3d eb 78 c7 3b ba 72 27 3e 0e 79 64 bd
       0.04593296 0.0060874126 0.16352358 -0.05577951
000190 c1 32 03 3e c1 39 f2 3c cb bc 05 3c f1 d2 34 3e
       0.1281233 0.029568555 0.0081626875 0.17658593
0001a0 ea a6 9d bd 07 0e 92 bb 98 81 9e 3e ca 2c bd 3d
       -0.07697852 -0.0044572386 0.30958247 0.092370585
0001b0 72 b8 bf 3d c4 83 97 bd c2 0a a6 bc 14 06 0b 3e
       0.09361352 -0.07398179 -0.020268802 0.13576537
0001c0 5b 71 1a 3e c1 43 66 3d 4b 03 a4 bd 69 ff 82 3d
       0.15082304 0.05621696 -0.080084406 0.06396372
0001d0 31 e0 39 bd 24 db a0 3d 49 8f 7c bd 44 93 dc bc
       -0.04537982 0.07854298 -0.061660085 -0.02692569
0001e0 36 c5 15 bb 1e a7 83 bd 26 e9 65 bc f5 98 cc 3d
       -0.0022853143 -0.064283594 -0.014032638 0.09990112
0001f0 8c 4d 42 3c 6e af fb 3c 59 03 93 bd 13 21 38 bb
       0.011859309 0.0307233 -0.07178373 -0.0028095886

encoder.4.weight f4 [64, 128]
000000 30 48 1c 3f 48 31 65 bf 1a ab ad 3d 90 7c 0d 3d
       0.6104765 -0.8952832 0.08479901 0.03454262
000010 b9 f6 97 3d 51 9a 0f 3d 8c 35 78 3f 89 e9 ae 3e
       0.074201055 0.035059277 0.96956706 0.34162548
000020 96 07 39 3f 21 51 3e 3f 8b 70 ba 3f 2b 72 54 bf
       0.722772 0.7434254 1.4565595 -0.82986706
000030 f7 d0 51 bf 33 f7 92 bd f8 99 38 3f a9 de 49 bf
       -0.8195948 -0.07176056 0.7210994 -0.7885538
000040 29 5e 91 be 2b e0 71 be 6a bb 3c bd 2b 60 b0 be
       -0.2839215 -0.2362067 -0.04607717 -0.3444837
000050 0b 40 de bc 22 bb c8 bf bc 27 08 bf 01 7f 8d 3d
       -0.027130147 -1.5682108 -0.5318563 0.0690899
000060 a0 24 3c bf 42 7d 4e 3f d5 b8 65 bc c2 5c 10 bb
       -0.73493385 0.8065988 -0.014021118 -0.0022027944
000070 93 a7 e4 be 24 39 0d bf 83 1e 9f be 22 0a 5b 3e
       -0.446591 -0.55165315 -0.31077966 0.21390584
000080 de fb 86 3d 39 16 83 3e 61 41 82 bc 1e db a8 3d
       0.065910086 0.25602892 -0.015900316 0.08244918
000090 22 2d 5b 3f 7d 6b d7 3d 2e 1d 95 bd 5c 68 29 bd
       0.8561574 0.10518549 -0.07280956 -0.04135929
0000a0 21 39 e9 3c 74 fd ba 3e c2 8e 5d 3d 07 78 20 3f
       0.028469624 0.36521494 0.054091223 0.6268315
0000b0 aa 2b b4 3d 07 ad de 3e 77 fa a1 3c 63 96 b5 be
       0.08797391 0.43491384 0.019772751 -0.35466298
0000c0 27 0e 0c bd 6c ae 22 bd c2 14 96 3c 60 58 e7 be
       -0.034193184 -0.039717123 0.018320445 -0.45184612
0000d0 a9 88 dd be 44 73 2e bf 57 ad bd bd e4 b2 00 3e
       -0.43268326 -0.6814463 -0.092615776 0.12568241
0000e0 a4 cc b1 3b 6f 33 95 3d 3d b1 ce 3f 08 e2 67 bd
       0.0054260064 0.07285201 1.6147839 -0.056612045
0000f0 c6 25 6e 3d 61 8c 1c bd 3f f5 a2 3c 90 c4 73 bd
       0.058141492 -0.038219813 0.019892333 -0.05951363
000100 07 1e c1 bc ea bc 29 be 73 60 d6 bd ab 02 a8 3e
       -0.023573888 -0.16575971 -0.10467615 0.32814535
000110 32 56 b7 3e 33 49 19 bd 54 77 91 3d 4a 3e 07 3d
       0.3580795 -0.037423324 0.07102838 0.033018388
000120 d1 db 32 3d e5 63 eb 3c 14 f3 a1 bd e7 fa d0 bf
       0.043666665 0.028734157 -0.079076916 -1.6326569
000130 50 26 14 bd 90 b2 aa 3e fe 71 9a 3c 0e 4b 01 bf
       -0.03616935 0.33339357 0.018853184 -0.5050515
000140 a3 f0 92 3d 5a f1 ac 3e d3 e4 ea bc 8c bd 02 bd
       0.07174804 0.33777887 -0.028673565 -0.031919047
000150 a3 0d 8b bd 8c d1 b3 3d 99 00 15 3d b7 72 0a bf
       -0.067897104 0.08780202 0.036377523 -0.5408129
000160 71 f1 c8 bc d4 d5 90 bc 99 26 5f be b4 0d 0f 3f
       -0.02452919 -0.017680086 -0.21792068 0.55880284
000170 e2 03 c4 3e 63 bb 1e 3d 5e b7 3e be 0b 52 8f 3d
       0.38284212 0.038752925 -0.18624637 0.0699807
000180 a5 1d 3a bf 97 3e 08 bd fc 8b 75 c0 43 cd 4e 3c
       -0.72701484 -0.033262815 -3.836669 0.01262218
000190 5a 55 1d 3c 36 a6 c9 bc 69 3c 48 bf ca 68 0b c0
       0.009602869 -0.024615388 -0.7821718 -2.1782708
0001a0 bd 9c 85 bd 4e 2b 83 bf 41 74 e7 3e 52 08 80 3e
       -0.06524036 -1.024759 0.45205882 0.25006348
0001b0 ff 09 7a be dd 14 1b bb a3 30 8c 3b 4e 69 c0 be
       -0.24417876 -0.0023663559 0.004278259 -0.3758034
0001c0 d7 7d c4 3d e8 87 09 be a9 36 b2 bd 76 18 91 be
       0.095943145 -0.1343075 -0.08701832 -0.28338975
0001d0 98 78 9f 3c 5c fd c2 3d c8 fd 67 3b 8b ea b0 3c
       0.019466683 0.09520981 0.0035399068 0.021596214
0001e0 3b 59 2a bc 90 fc c3 bc 41 81 79 3d 82 33 e3 bd
       -0.010397251 -0.023924142 0.06091428 -0.11093809
0001f0 c6 9b 93 3f 34 20 11 be 88 b7 47 bb 4a 1d aa 3e
       1.1531913 -0.14172441 -0.0030474383 0.3322547
000200 60 b7 74 3e c0 4e 81 be 0c 84 8b 3d 62 bc e2 3c
       0.23898077 -0.25255394 0.06812295 0.027677719
000210 79 54 c3 bd d4 54 18 3d 7b 5a 9b 3e 69 33 65 be
       -0.09537596 0.037190273 0.3034247 -0.22382893
000220 df cf 96 bb ab 8e 6b bc f2 78 22 3f 5d 74 05 3e
       -0.004602417 -0.014377276 0.634658 0.1303267
000230 ad f4 b0 3d 0f 6d c0 bc 4e 72 95 bd 82 ea f4 3e
       0.08640418 -0.023489503 -0.072971925 0.47835165
000240 46 1c f3 3e 14 74 09 be 6d f0 5b bd 76 84 9d 3f
       0.47482508 -0.13423187 -0.053696085 1.2306049
000250 17 35 11 3c 01 95 86 bf d1 0b 8e be c4 5f b1 bd
       0.008862755 -1.0514222 -0.2774339 -0.08660844
000260 b6 ab 83 3e 81 e9 eb 3e 4d d5 97 3d 05 9c ae 3d
       0.25716943 0.46076587 0.07413731 0.08525852
000270 eb f4 96 3e 8e bb e7 be 80 8a 24 be 99 5a 2d be
       0.29483733 -0.4526028 -0.16068459 -0.16929092
000280 25 56 90 3d 4d f1 d5 3e 95 90 c2 3c 8b e7 fa be
       0.07047681 0.4178566 0.023750583 -0.49004778
000290 3e 87 9d bf a6 41 28 bf e6 ad a9 be 4b 2f 0a 3d
       -1.2306898 -0.6572517 -0.33140486 0.03373651
0002a0 41 ae 84 bd 1d d3 ac be 5c c0 4b bd 7f c0 b6 bf
       -0.06478549 -0.33754817 -0.049743995 -1.4277495
0002b0 e3 2c b8 3c ea 6a a5 3e 79 1b 89 3d 56 3e e7 3d
       0.022482341 0.3230813 0.06694693 0.112911865
0002c0 58 70 9b 3f 3a 3e a8 bc b0 38 07 3d 0b f1 e1 3e
       1.214366 -0.020537484 0.033013046 0.44129214
0002d0 48 f9 7f 3f 43 87 49 3e a3 2d b3 be 92 03 20 bd
       0.9998975 0.19680505 -0.34995756 -0.039065905
0002e0 b4 fb a5 3d f5 5b 48 bd 53 88 1f 3f e2 a7 3b bd
       0.08104649 -0.048915822 0.6231739 -0.045814402
0002f0 36 a9 7a bd bf 60 5f bd 03 0e 08 3d 90 0c 63 be
       -0.06119653 -0.054535624 0.033216488 -0.22172761
000300 25 00 69 bc e4 b3 bc be 92 19 b1 3e 0c 02 da 3d
       -0.014221226 -0.36855996 0.3458982 0.10644922
000310 ec 35 47 be 14 7b 9b 3d 17 54 a7 3d 64 4c 50 3d
       -0.19454163 0.07591835 0.08170336 0.0508541
000320 52 31 9c bd 6e 57 b1 bd 2e c1 bc 3c 6b 19 13 bf
       -0.076265946 -0.08659254 0.023041334 -0.5746066
000330 43 5b 67 b8 ae 0a 57 be 6a a0 3f bd 6c a9 1a 3d
       -5.5159686e-05 -0.21000168 -0.046783842 0.03775923
000340 6d 70 95 3d 38 e3 99 3e 5e 31 78 3d 8c f7 84 3d
       0.07296834 0.30056167 0.060593955 0.06492528
000350 78 8e 99 3d 8c ff 8f bd 77 f4 85 3d 36 b8 d4 bd
       0.07497877 -0.070311636 0.065407686 -0.10386698
000360 f7 17 dd 3c a9 20 13 bc a7 f5 9b 3f d9 62 d1 3e
       0.026988966 -0.008979955 1.2184342 0.40895727
000370 be e0 2a bf 67 50 77 3d 00 76 5f bf b5 d4 13 3c
       -0.6674918 0.060379412 -0.8728943 0.009022881
000380 76 fc e4 be 4d 66 a4 3d f7 5d 24 3f 66 db b1 bb
       -0.44723862 0.08027325 0.6420588 -0.0054277657
000390 59 a1 1e 3e fb db 20 bf 52 20 2e bd 48 1c 5d 3f
       0.15491237 -0.62835664 -0.04251129 0.8637128
0003a0 f9 62 44 3d ec 4a 85 bd 06 ce 8a be 4d 7b 0d 3f
       0.04794595 -0.06508431 -0.27110308 0.5526627
0003b0 54 78 e2 3d 2a cb 2c bd b4 3c 28 bd f3 a9 4d 3e
       0.11058107 -0.04218594 -0.041073516 0.20084362
0003c0 d6 34 31 3f dd d2 16 be da d1 b3 bc 0a 3c 09 bc
       0.69221246 -0.14728875 -0.021950651 -0.008376131
0003d0 f0 fd 8d 3d ce ba 3a 3f 05 c4 77 3d 97 46 f2 bc
       0.069332 0.7294129 0.060489673 -0.029574675
0003e0 84 a8 87 bc b6 64 98 3d 44 05 64 bd a7 94 2a bf
       -0.016559847 0.07441084 -0.055669084 -0.66633075
0003f0 6d bc a2 be d3 a2 ab 3c 3e c2 09 3b 4b d4 5b be
       -0.31784382 0.020951664 0.0021020318 -0.21467702

encoder.4.bias f4 [64]
000000 9a ba 9f 3d 43 db 86 3b 5c c8 00 3e a7 ea 37 3f
       0.07799263 0.0041154935 0.12576431 0.71842426
000010 26 d2 29 be 0f f1 b2 3e fc 91 e3 3d 04 bd 42 3d
       -0.16584072 0.34949538 0.11111829 0.04754354
000020 bc 61 84 3e ce ed 5f bd a1 35 ac 3d 5c 03 58 3d
       0.25855815 -0.054670148 0.084086664 0.05273758
000030 63 c2 9b 3b a7 1f 81 3d 26 e1 67 3c 37 64 99 3d
       0.0047533973 0.06304865 0.014152801 0.074898176
000040 6e f7 36 3d ca aa b3 bd e4 90 5f bd 1b 76 92 3e
       0.04466956 -0.0877281 -0.054581538 0.28605732
000050 9e aa 40 3d cb 3b 5e 3d 4b 10 20 bd d1 f5 45 3e
       0.047037713 0.05425624 -0.03907804 0.19332053
000060 1e a7 fa bd 3c 32 e0 bd e1 c2 30 bd 65 da 7d bd
       -0.12238906 -0.109470814 -0.0431546 -0.061975855
000070 d8 b0 0e 3e 73 f8 8f bd 6c 49 d2 bd 7a 89 6e be
       0.13934648 -0.0702981 -0.1026791 -0.2329463
000080 8e 64 33 be 84 f5 17 bc 0e cd 28 3e b5 33 76 3e
       -0.17518827 -0.009274844 0.16484472 0.24043162
000090 de e2 4a bd 2d 81 e8 bd cd db 00 3d ab 94 b0 3e
       -0.049532764 -0.11352763 0.03145962 0.34488425
0000a0 05 77 05 3e df 75 f2 3c a6 9a f6 3a 72 e9 6f bd
       0.13033684 0.029597221 0.0018814399 -0.05857224
0000b0 33 20 58 3e 41 16 a6 bd d5 04 32 3e d1 c0 42 3d
       0.21106033 -0.08109713 0.17384656 0.047547165
0000c0 fe cf 43 be c8 a3 12 3e cd 4a 83 3c 7d 64 bd 3d
       -0.19122311 0.1432029 0.016026879 0.09247682
0000d0 8b 4b 4b 3e 63 0a 20 bc 1d b9 cb 3c 60 31 ef 3a
       0.19853036 -0.009768101 0.024868542 0.0018248968
0000e0 e9 8d ba bd cb 13 de bd 3d eb bd 3e b9 f8 6d 3c
       -0.091090985 -0.10843619 0.37093535 0.014524632
0000f0 23 e7 17 3d b2 9c 08 3d 67 06 0e bd be 27 29 bc
       0.037085664 0.03335256 -0.034674075 -0.010324417

decoder.0.weight f4 [128, 64]
000000 2b 51 70 bb b7 e4 2c bc 43 fe 8a bd a0 35 61 bd
       -0.0036669474 -0.010552577 -0.06786778 -0.05498278
000010 c3 5b 35 bd e3 b3 ed 3d c6 a6 89 3c 7a 86 56 3d
       -0.044276964 0.11606576 0.016803157 0.05237434
000020 bc 8d 98 3d 8c 4d 34 ba 1b 12 fa bd 2b ee 0c bd
       0.07448909 -0.00068780105 -0.122104846 -0.034406822
000030 d7 03 40 bd 70 b7 9a 3d d8 0b 1c bc 9c c2 f0 bd
       -0.046878662 0.07554519 -0.009524308 -0.11755869
000040 6b 01 7d bd a1 b3 21 3d d1 59 8c 3b cf be 1d bd
       -0.06176893 0.039477948 0.004283168 -0.038512047
000050 9a 7e aa bc ce 8f 95 bc 4a af 88 bd 69 62 1a 3d
       -0.020812321 -0.018257048 -0.06674059 0.037691507
000060 f7 19 09 bc 8f e7 4c bd cb a6 ab bd 17 dd 43 bd
       -0.008368007 -0.05002552 -0.083814226 -0.04781827
000070 dd 59 09 bd 97 7b 68 bd 60 4e 40 3d 1d 71 49 3d
       -0.033532966 -0.05675849 0.046949744 0.04918014
000080 bd 7e ea 3d 37 56 bb bd a5 cf 8d bd 67 29 c0 bd
       0.11449955 -0.091473036 -0.06924371 -0.09382897
000090 9f 54 3f bd f9 b6 b4 bd 80 8a 64 3d 30 f8 8e 3d
       -0.04671156 -0.08823962 0.055796146 0.06980932
0000a0 f3 58 48 bd 13 d3 f8 bc c4 5f 9a 3c 4d 8e d2 3c
       -0.048912954 -0.030374086 0.018844493 0.02570262
0000b0 a2 26 87 3d fc e1 8f bc 16 85 da 3c 25 a7 6c bb
       0.065991655 -0.017563812 0.026674788 -0.0036110368
0000c0 b3 b3 df bd bb 82 5e bc 4a af a2 3b 5f c1 8f bd
       -0.10922947 -0.013580973 0.0049647437 -0.070193045
0000d0 92 93 6b 3c 9b 4f 29 bd 58 2d 9b 3d b1 08 b5 bd
       0.014378445 -0.041335683 0.07577008 -0.088395484
0000e0 07 8d be 3d 53 33 ba 3d 2a 64 c8 bd c9 32 45 3d
       0.093042426 0.090918206 -0.0978473 0.048144136
0000f0 cb de ab 3d da 17 27 bd 7b fe 52 3c d6 18 ed 3d
       0.08392104 -0.04079423 0.012878056 0.11577003
000100 8e 6a 87 3d ec 3b d5 3d d4 30 7e 3d 64 cd b4 bd
       0.066121206 0.1041182 0.062058285 -0.08828238
000110 d8 bb 96 bd d8 6c 7a bd 48 2e ef bc f0 4b 6f 3c
       -0.07360047 -0.061138958 -0.029196873 0.014605507
000120 20 e6 3a 3d f6 04 ba bd b6 22 ef bd 0c 92 a6 bd
       0.04562962 -0.090829775 -0.116765425 -0.08133325
000130 08 25 d3 3c ce b4 f3 bd e0 29 96 bd 62 f7 e4 3d
       0.025774494 -0.1189972 -0.07332206 0.11179997
000140 d4 c9 cf bd 8a 47 f1 3d 24 e1 ee 3d 84 c1 ab bd
       -0.101459175 0.11781223 0.11664036 -0.083865196
000150 78 91 d7 3d 6e 26 c0 bd 58 02 24 3d 80 98 45 bb
       0.10525793 -0.0938233 0.040041298 -0.0030150712
000160 80 3b a4 3c be e2 e4 bd e0 8f 42 3d 08 69 66 3d
       0.020047903 -0.1117606 0.04750049 0.05625251
000170 70 47 3a bc 84 9c 99 bd c4 39 8e 3d 80 d3 25 3b
       -0.011369571 -0.07500556 0.06944612 0.0025303066
000180 00 85 35 bc e0 9f ad 3c 4e 6c a3 3d e0 4b 09 3d
       -0.011079073 0.021194398 0.07979642 0.033519626
000190 d8 bb 4c 3d 08 c8 05 3d 1e 08 e9 3d 4c 85 5c 3d
       0.04998383 0.032661468 0.11378501 0.05383806
0001a0 80 1f e9 3c 5e dd de bd b2 6f 99 3d e0 37 88 3b
       0.028457403 -0.10882066 0.07492007 0.0041570514
0001b0 f0 bb 4b bd 20 1f 7f bd d8 dc b4 3d 36 a1 d2 bd
       -0.049739778 -0.062285542 0.08831185 -0.10284655
0001c0 c4 ca 14 bd 64 72 ec bd ac 7d 16 bd 98 88 53 bd
       -0.036326185 -0.11545256 -0.036740944 -0.051643938
0001d0 fc 84 a5 bd 9e 77 d0 3d 3e 7e bd bd e0 ff b7 bd
       -0.080820054 0.10179065 -0.092525944 -0.08984351
0001e0 f0 35 98 bd c6 0c df bd 22 05 93 3d 44 3a 4e bd
       -0.07432163 -0.10891108 0.071787134 -0.050348535
0001f0 d8 13 df bd 4c 65 c7 bd 60 a9 99 bb a8 09 02 bd
       -0.10892457 -0.09736118 -0.0046893805 -0.03174749
000200 9d 72 47 be 59 b9 03 3f ab a2 12 be 18 67 81 be
       -0.19477315 0.51454693 -0.14319865 -0.25273967
000210 37 29 93 3f 0e f2 71 3e 1d 35 51 3e 72 2a dd bc
       1.1496953 0.23627493 0.20430417 -0.026997779
000220 d4 51 b1 bd af 8f 64 3d 42 6a 38 be b4 51 3e 3e
       -0.086581856 0.05580109 -0.18009284 0.18585855
000230 7f 83 c5 3e 64 e7 19 3e 92 ad 04 3e 45 b4 69 be
       0.38576886 0.15029675 0.12956837 -0.22822674
000240 6c ec dd 3e 3f ba 17 3d 6a c6 f2 3d 52 75 f5 be
       0.43344438 0.037042852 0.11854251 -0.4794107
000250 4c b2 bd 3d e8 79 d5 3d f5 33 33 be 24 a4 e5 3e
       0.09262523 0.104236424 -0.17500289 0.44851792
000260 c8 62 08 3c ee d7 13 3e 1c ea 20 3e bb c3 59 bd
       0.008324333 0.1443784 0.15714306 -0.05316518
000270 9c 0a 21 bf d6 2b e7 3d de e9 7c 3e f8 a3 5f bf
       -0.62906814 0.11287658 0.24698588 -0.8735957
000280 a7 22 b9 3e 89 b9 bc be 1c c1 92 3e ea 09 be 3b
       0.3615925 -0.36860302 0.28662956 0.0057995217
000290 1d 28 19 bf 00 df 00 3e 46 ea fe 3e 67 c4 ce 3e
       -0.59826833 0.12585068 0.4978811 0.40384218
0002a0 9e 14 7b be ca 74 5b bd 2d 35 41 3d 32 0a f7 3c
       -0.24519584 -0.053578176 0.047169853 0.030156229
0002b0 7e 9e e3 3d 15 d6 3e bc fd 45 cb 3d 54 14 1f bd
       0.11114214 -0.011647721 0.099254586 -0.038837746
0002c0 00 1f 20 3e 61 c9 75 3d d0 ee a9 bb 5f a0 50 bf
       0.15636826 0.060006503 -0.0051859394 -0.81494707
0002d0 07 33 ca be 2c d4 a0 3d 76 b2 ec 3d 08 7b d5 bd
       -0.39492056 0.078529686 0.11557476 -0.10423857
0002e0 66 80 07 3e 77 2d 29 3d 9e 13 b0 3e 98 6d e8 3d
       0.13232574 0.041303124 0.34389967 0.11349028
0002f0 97 0b 55 3c 98 6e a4 3d 37 36 76 3c 87 f7 c7 be
       0.0130032515 0.080289066 0.015027574 -0.39056036
000300 60 31 3b 3d 20 c8 d5 bd 58 ad 58 bd cc 2b 69 bd
       0.045701385 -0.104385614 -0.05289969 -0.056926534
000310 b8 ae a7 bd b8 37 da 3c 90 7a b3 3d b8 34 b8 3c
       -0.08187622 0.026637897 0.08763611 0.022486076
000320 88 0e e1 3c 60 d3 f7 3c f8 3b b3 3c c8 be e4 bd
       0.02747275 0.030252159 0.021879181 -0.11169201
000330 e4 07 c4 bd 08 66 c3 bc 94 80 81 3d b0 8f 2c 3d
       -0.095718175 -0.023852363 0.063233525 0.04212922
000340 e8 f3 09 bd 38 1b f6 bc e0 f4 0b bc 70 33 9f 3d
       -0.033679873 -0.030042276 -0.0085422695 0.07773483
000350 8c cf e1 bd 92 9e b7 3d 50 29 bc bd 4c 4d ac 3d
       -0.110259145 0.08965792 -0.09187567 0.08413181
000360 52 8c 97 3d b0 3a 43 bc 98 83 5f bd ee 60 89 bd
       0.07399811 -0.011915848 -0.054568857 -0.06707941
000370 20 16 a6 bd 5e 00 d4 3d f0 88 4d bc 76 73 e2 3d
       -0.08109689 0.103516325 -0.0125448555 0.11057179
000380 a4 c4 66 bd 64 f0 d8 bd 5c 09 09 bd b4 9d 57 bd
       -0.056339875 -0.10592726 -0.03345619 -0.05264063
000390 00 5c 75 3a b0 93 1a bc 04 8d 68 bd 70 e5 be bc
       0.00093597174 -0.0094346255 -0.056775108 -0.023302764
0003a0 9c 77 d1 bd c0 28 ee 3d f4 f9 19 3d 2c 05 28 bd
       -0.10227892 0.11628866 0.03759189 -0.041020557
0003b0 d8 73 21 3d 98 a2 ab 3d 80 ab ba bd 18 d7 f3 bc
       0.039417118 0.08380622 -0.09114742 -0.02976565
0003c0 64 10 4f bd b0 e4 e6 bc 68 4e 47 3d d8 f8 05 3d
       -0.05055274 -0.028185219 0.04865876 0.03270802
0003d0 80 da 1a bd 98 70 91 bc da cb ca 3d e0 53 f9 bb
       -0.037806034 -0.017753884 0.09902163 -0.0076088756
0003e0 18 be 5c bd 78 53 bd bd 34 82 83 3d a0 6b fa 3d
       -0.053892225 -0.09244436 0.06421319 0.12227559
0003f0 a0 b9 13 bc 64 f8 e7 bd 00 b0 74 3d 68 85 e5 3d
       -0.009016424 -0.113266736 0.05973816 0.11207086

decoder.0.bias f4 [128]
000000 65 bd ae 3d 60 30 86 3b cb 71 76 3c 78 aa 49 bd
       0.08532218 0.004095122 0.015041779 -0.049234837
000010 d0 d9 cb bc fc f2 13 3d fe c2 2f 3d e5 bd b9 3c
       -0.024884135 0.0361204 0.04291057 0.022673557
000020 86 b4 b7 3d 4c b1 b3 3d cb 3f e4 3c 18 df 79 3c
       0.08969979 0.08774051 0.02786245 0.015250944
000030 8e f3 f0 3d 8e 2e 2c 3d b4 55 d3 bd 68 56 a8 bc
       0.11765204 0.042036586 -0.10319081 -0.020549014
000040 80 02 ad bc 85 cf a7 bd 41 be 27 bd 98 df d6 bc
       -0.021119356 -0.08193878 -0.040952925 -0.026229665
000050 6e c6 16 3d 9a 00 83 bd b8 7f d0 bd 6c 20 9c 3d
       0.03681033 -0.06396599 -0.101806104 0.076233715
000060 bc 1b 74 3d ae 74 89 3d 95 0b 71 3b f3 26 03 3e
       0.059596762 0.06711708 0.0036780585 0.12807827
000070 3b 58 bc 3d ab a9 21 bd 64 f5 8d 3e 2e 68 4a 3d
       0.09196516 -0.03946845 0.2772628 0.04941576
000080 e4 20 48 bd d0 d5 43 3c 00 dc be bb 67 e8 2c bd
       -0.048859492 0.011952832 -0.005824566 -0.042213824
000090 d2 e3 df bd dd 2a 0a 3e a9 bf b2 bd 12 5c f7 3d
       -0.10932125 0.13492914 -0.087279625 0.12078108
0000a0 8a ba 58 bd 90 aa 01 3e 88 1a 1e bd 20 5a 57 be
       -0.052912273 0.1266272 -0.03859952 -0.21030474
0000b0 bc 5c 67 3e d0 81 9c bd 5c 45 48 3d 62 bd b3 3d
       0.22593969 -0.07641947 0.04889427 0.08776356
0000c0 c0 55 00 3b a7 ab 13 3e ae a3 90 3d 32 3d 29 3c
       0.001958236 0.14420949 0.070624694 0.0103295315
0000d0 d8 e7 ac 3c 92 44 a3 bd 40 3c a1 3d f0 60 c8 3d
       0.021106645 -0.07972063 0.0787282 0.09784114
0000e0 62 b2 09 3b 19 0a f0 bd d8 8d bc 3c b8 80 19 bd
       0.0021010865 -0.11720676 0.023016855 -0.03747627
0000f0 1c c7 36 3d ab 34 5c 3d 03 84 0d be 4b 79 0e 3d
       0.04462348 0.053761166 -0.1381989 0.034783643
000100 dd 38 4b bd 92 43 c8 bd 89 d2 f0 3d 5a 44 d8 bb
       -0.049614776 -0.09778513 0.117589064 -0.006599945
000110 10 75 4e bd a3 32 80 3d f8 3f e9 3c ab a5 51 bd
       -0.05040461 0.06259658 0.028472885 -0.051183384
000120 ad 8b a1 bd 68 cd 0f 3e 10 d0 12 3e be 54 85 3e
       -0.07887969 0.140432 0.14337182 0.26041216
000130 90 fd 6f bc 05 a2 59 3d 99 88 8e 3e 4b 5c 6d 3c
       -0.014647856 0.05313303 0.2783859 0.014487336
000140 90 84 78 3d f8 6d 3e bd f0 c9 b9 3d 80 4f c7 3a
       0.060673296 -0.046491593 0.0907172 0.0015206188
000150 f8 f1 f4 3c c8 6f fc bd 2a 77 d4 bd d2 51 a0 3d
       0.029900536 -0.12326008 -0.10374291 0.07828106
000160 cd f0 36 3e d2 7a ae 3d 74 d5 34 3d ba 1b 8c 3d
       0.17865296 0.0851952 0.044148877 0.06841226
000170 80 e4 e8 bd 69 28 29 3d 10 15 20 bd 7e ae ea bd
       -0.11371708 0.041298304 -0.039082587 -0.11459063
000180 a1 46 c1 3c 0c 70 b9 3d e5 9f dc 3d ba 95 ea bd
       0.023593249 0.09054574 0.10772685 -0.11454339
000190 5e 93 b3 3d 01 db 16 be b1 11 f0 3c 10 64 b2 bd
       0.087683424 -0.14731981 0.02930531 -0.08710492
0001a0 12 d0 ac bd 19 42 25 bc c4 cb c5 bd 7d 2b 27 3e
       -0.08438124 -0.01008656 -0.09658006 0.16325183
0001b0 e0 83 a3 bc a2 f6 b4 bd f8 fd ff bd 91 33 94 bd
       -0.019960344 -0.08836104 -0.124996126 -0.07236398
0001c0 b4 5b 48 bd ac 5b 4d 3d d6 b7 88 3c dd f0 2c 3c
       -0.04891558 0.050136253 0.016689222 0.010555473
0001d0 42 1a b2 3d 56 53 0c 3e 8b c6 a8 3d fe 24 fe bd
       0.086964145 0.13703665 0.08240994 -0.124093994
0001e0 10 c9 a7 bd 94 da 8c 3e 10 ab dd 3c 88 15 e9 bc
       -0.081926465 0.27510512 0.027059108 -0.02845265
0001f0 22 56 02 3d d4 be e4 3b 99 48 63 3d bd ca 6d 3c
       0.031820424 0.0069807563 0.055489156 0.014513669

decoder.4.weight f4 [161, 128]
000000 20 f9 b1 3d c3 21 ae bd 05 d5 4a 3e d6 cd a4 3d
       0.08690095 -0.08502533 0.19807823 0.080470726
000010 9a dd 78 bd fd 1c 86 bd d3 22 f7 3d ba f5 be 3d
       -0.06075821 -0.06548498 0.12067189 0.09324212
000020 7e bd aa bc 97 b2 31 3e 7b a4 67 bd 2c 96 1d 3e
       -0.02084231 0.17353283 -0.056553345 0.15389317
000030 f2 d6 86 3d 5f 68 5d 3e a9 37 a7 3d ee 66 80 3d
       0.06583966 0.21621846 0.08164913 0.06269632
000040 fd 6e 90 bd 14 d7 c8 bc f9 5c 80 3e 60 50 a7 3b
       -0.07052419 -0.02451662 0.25070933 0.005106017
000050 d2 8c 0d 3e 2d 51 1b bd 46 ed dc 3c d1 c6 72 bc
       0.1382325 -0.037919212 0.02696861 -0.014817909
000060 ed 51 15 3c 62 f3 4d 3c 57 66 c2 3d be db 1b 3e
       0.009113771 0.012570234 0.09492176 0.15220544
000070 d4 d3 92 3c 7e b3 aa bd 09 ed 8f 3e f8 40 79 3e
       0.017923273 -0.08335017 0.2811053 0.2434119
000080 9e 55 97 3d 30 b2 f5 3c 20 a3 a5 3d 43 61 a0 3e
       0.07389377 0.029992193 0.08087754 0.31324205
000090 18 d3 63 bd e7 bc 59 3e a2 e5 b7 3d 85 ea eb bb
       -0.055621237 0.21263467 0.08979346 -0.0071995878
0000a0 6f 74 43 3e 66 fe 6e 3e 6d 69 67 3d f8 06 6f 3e
       0.19087385 0.23339233 0.056497026 0.23342502
0000b0 a7 e3 db 3d e8 cc 11 3f 16 51 1c 3e bd bc 57 3d
       0.107367806 0.5695329 0.15265307 0.05267023
0000c0 ba 23 f5 bc 6d 58 80 3e 2c 4e 86 bd 8e 01 6f 3e
       -0.029924262 0.25067464 -0.06557879 0.23340437
0000d0 dd 7b 9c bd cd 47 7f 3d ac 38 9d ba d4 c0 9a bd
       -0.076408125 0.062324334 -0.0011995039 -0.0755631
0000e0 63 47 0a 3e a9 b2 74 bb 8c ad 87 bd 4c bd 1a 3d
       0.13503794 -0.0037337935 -0.06624898 0.037778184
0000f0 c3 22 2e bd e1 61 21 3e 6a eb a2 3f 33 41 81 3c
       -0.04251362 0.15759994 1.2728093 0.01577816
000100 aa 05 55 bc 54 87 30 bc f5 4f 0f 3e 85 05 10 3d
       -0.013001839 -0.010774452 0.13995345 0.035161514
000110 a7 68 00 3d 22 b8 80 3e 17 b2 5f bd c6 6c cf bb
       0.031349804 0.25140482 -0.0546132 -0.0063301055
000120 c7 c9 6b 3d 9e 18 92 3e 5b 0f 3e 3e 22 d7 10 3e
       0.057565477 0.28534406 0.18560545 0.14144567
000130 52 52 93 3d 10 3b 0e 3e b8 fc e5 3d d8 c5 9f 3d
       0.07193436 0.13889718 0.11229843 0.078014076
000140 9f 89 07 3e d7 7a 4c bd 0d 6d 14 3e c6 b2 ee bc
       0.13236092 -0.049921837 0.14494725 -0.02913798
000150 e1 d9 37 3d 81 d7 84 3c 1a 02 63 bd 20 a9 a2 bd
       0.04488552 0.016216042 -0.055421926 -0.07942414
000160 ab 53 57 3e e7 08 77 3d 3d 3f 1a 3e 6e dd 7a 3f
       0.2102801 0.060311224 0.15063186 0.97994125
000170 52 fe 0e bd 9c 9b 3f 3e 1c d9 8f bd e0 45 ae bd
       -0.034910508 0.18711704 -0.07023832 -0.08509421
000180 c0 da 84 3e 81 f3 8c 3c 6b 64 99 3e 9c fd 87 bd
       0.25948143 0.017205955 0.29959425 -0.06640169
000190 de 3b 87 3e 77 1c 5e 3e 7a aa 41 3e ad 94 7f bd
       0.26412863 0.21690546 0.18912688 -0.062397648
0001a0 db 77 94 3d 9b 98 45 bc 59 04 45 3d 22 a3 f5 3d
       0.07249423 -0.01206031 0.04809985 0.11994006
0001b0 ea 62 a8 bd 2a fb d1 3c 74 cf 45 ba 64 91 22 bd
       -0.08221991 0.02563246 -0.00075458665 -0.039689437
0001c0 ba 21 bc 3c 80 17 1c 3d 92 31 70 3d 50 c4 9b 3d
       0.0229653 0.03810835 0.058641024 0.07605803
0001d0 24 c7 76 bd 68 63 de 3d ad 6d 99 bd f2 3b 4b 3d
       -0.06024851 0.10858804 -0.07491622 0.049617715
0001e0 33 37 81 bd 49 a0 62 3e 4a 8d 9f bd 0e 61 06 bc
       -0.063093565 0.22131456 -0.077906206 -0.008201851
0001f0 29 c0 65 3c 1c 25 cd bc f0 96 5b 3e 6c 7a 96 bd
       0.014022865 -0.02504211 0.21444297 -0.07347569
000200 f3 10 97 3c fe af 7a 3c 3c 87 47 3d 87 17 0a 3d
       0.0184407 0.015300749 0.048712954 0.033713844
000210 68 2b 91 bd 4e bd 0d bd 0e 00 d1 bc 1f 41 5e bc
       -0.07088357 -0.034604363 -0.025512721 -0.013565331
000220 ae 84 35 bc b0 9d 87 bd 91 64 35 3d dc a4 66 bc
       -0.011078997 -0.066218734 0.04428536 -0.0140773915
000230 74 74 f4 bb fd dd ae bd 11 40 21 3d a9 16 74 3d
       -0.0074601714 -0.08538435 0.03936774 0.059591923
000240 2b eb 9d bd ee 52 30 3d 0e 68 0f bd e6 be 82 ba
       -0.0771087 0.043047838 -0.035011344 -0.0009975105
000250 0a 3d ff bd 42 dc 13 3d 66 0f cf 3c 4a a6 65 3d
       -0.12462814 0.036098726 0.025275897 0.05606679
000260 bf 23 69 3d a3 09 54 bd 5b ce dd 3c b3 ee 1a bd
       0.056918856 -0.051767003 0.027075937 -0.037825298
000270 ad 5f 99 3d f5 3b 47 bd 2d ac 18 bd 3d 3a 84 3d
       0.07488952 -0.048641164 -0.037273575 0.064564206
000280 98 e3 8e bd a5 b8 37 3d a3 28 93 bd 31 2d 73 3c
       -0.06977004 0.044853825 -0.07185485 0.014842317
000290 52 49 8c bd 8e 3d 7f bd dd a4 a8 bc 72 32 44 bd
       -0.06849922 -0.062314562 -0.020586425 -0.04789967
0002a0 7d 95 c9 bc 15 ba bc bd d0 e7 83 3d 89 76 b7 bb
       -0.024607414 -0.0921518 0.06440699 -0.0055988473
0002b0 21 d6 a1 3c 6c bf 9a 3d 57 6a 47 bd 31 e6 fd 3d
       0.019755425 0.07556042 -0.048685398 0.12397421
0002c0 2a 57 fa 3c 82 d9 b9 bd 2f 34 b2 3d 41 ab 1d 3d
       0.030559141 -0.090746894 0.087013595 0.0384934
0002d0 dd d1 2f 3c 40 b1 16 bd 94 05 ab 3d 0a 7f 9a bd
       0.010731188 -0.036790133 0.08350673 -0.07543762
0002e0 27 fb b9 bd 2d b9 29 bb 33 01 73 bd 3b ce 75 bc
       -0.09081107 -0.0025897727 -0.059327316 -0.015002782
0002f0 08 dc 9f 3d 1d a7 a3 bc 54 3d f0 bc 1d 7e d1 3b
       0.078056395 -0.019977147 -0.029326119 0.0063932077
000300 af a5 81 3c 58 96 a8 3d da f6 b7 bd ee 25 38 bd
       0.015826074 0.08231801 -0.0898263 -0.044958048
000310 8d 1b 93 bd fd 95 db bd 9e 74 57 3d 58 6b 58 bd
       -0.07182989 -0.10721967 0.05260145 -0.052836746
000320 44 35 48 3d 9d b3 e8 bd a4 82 2b bd 3f ee 96 bd
       0.048878923 -0.113623835 -0.041872635 -0.073696606
000330 83 33 b4 bc 35 ec d3 bd 5a 3c df bd 94 54 a4 3d
       -0.021997219 -0.10347787 -0.10900183 0.080239445
000340 33 df f4 bd 35 40 7e 3c 61 1e 05 be db 6a 71 3c
       -0.11956634 0.015518238 -0.1299987 0.014734949
000350 e6 ed 61 bd e3 38 0d bd 91 2e 07 3d d6 69 4f 3c
       -0.05515852 -0.03447808 0.033003394 0.012659511
000360 3f c0 ee 3c 82 0a f6 3c 2a 2f 21 3c d0 a4 82 bd
       0.029144404 0.030034307 0.009837905 -0.06379092
000370 6d 6e 53 3d 8b 9f 5e 39 07 07 72 bd 45 6f 11 bd
       0.051618982 0.00021231004 -0.059088733 -0.035506506
000380 16 a2 33 3d 20 20 76 3d 2f 5b 25 bc 19 10 37 3d
       0.04385575 0.06008923 -0.010092541 0.044693086
000390 4d c0 dc bd e8 ba a1 bd a9 79 c3 3c 87 d8 55 bd
       -0.10778866 -0.07896978 0.023861723 -0.05220845
0003a0 ca 65 a7 bd 1d 3b 84 3b df 6f 4d 3d 65 30 07 be
       -0.081737116 0.004035367 0.050155517 -0.13202055
0003b0 22 b5 0c 3d 7c 05 ac 3d c9 37 a9 39 5f 1a bd bd
       0.03435243 0.083994836 0.00032275755 -0.092335455
0003c0 d0 97 ce bc 38 a4 8e 3d 39 6c 48 bd 52 56 48 bc
       -0.025218874 0.06964916 -0.048931334 -0.012227612
0003d0 ca ea 44 bd 8e f9 b3 bc 7e 21 b2 bd fd de 65 3c
       -0.048075475 -0.021969583 -0.086977944 0.014030215
0003e0 fe 13 21 3b 1c bd 2b bd 10 87 9c 3d 64 e5 63 3c
       0.0024578567 -0.041928396 0.07642949 0.013909671
0003f0 be 16 6d bd ba 5e 14 3d 60 c4 86 bd bf f7 4b 3c
       -0.057883017 0.03622315 -0.06580424 0.012449204

decoder.4.bias f4 [161]
000000 53 8b 24 3e ce 56 0a bf 56 2b 1e bf 3c 79 49 bf
       0.16068773 -0.54038703 -0.61784875 -0.78700614
000010 1b 80 fa bd d0 88 10 bf 54 89 14 be 0a d1 86 be
       -0.122314654 -0.5645876 -0.14505512 -0.2633136
000020 5c 92 c6 be e9 16 3a be 31 11 c5 bc d3 e2 11 bf
       -0.38783538 -0.18172802 -0.024056049 -0.5698673
000030 60 cd b5 bd f3 06 b5 be e2 fe 11 bd 5e 83 21 bf
       -0.08877063 -0.35356864 -0.035643466 -0.63091075
000040 23 38 34 be ad 76 18 bf 8e 72 24 be 43 e5 30 be
       -0.1759954 -0.59556085 -0.16059324 -0.17274956
000050 65 2e 97 bd 1d 45 06 be fd 01 7e be 49 3e 2c be
       -0.07381896 -0.13112302 -0.24805446 -0.16820635
000060 c6 d0 29 bc a8 57 8f be b4 e0 c1 bd 3e 8a 82 be
       -0.010364717 -0.27996564 -0.09466687 -0.25496095
000070 ee dd 10 3d 29 eb c5 be 0d 74 d1 bd 9f 55 26 3d
       0.0353679 -0.38655975 -0.10227213 0.040609
000080 a5 da 8d bd 40 94 29 be d7 fb cb bd c6 d4 a2 be
       -0.06926469 -0.16560459 -0.09960144 -0.31802958
000090 a9 12 dc 3c b5 e8 79 3d cb 77 5b be ae 68 f6 bc
       0.026864367 0.061012942 -0.21432416 -0.030079212
0000a0 c8 f4 a2 3d f3 b6 82 be c6 38 76 3d ee 57 ae 3c
       0.079568446 -0.25530204 0.060112737 0.021282163
0000b0 4b 69 43 bd b0 51 5b bd ae 6a a1 be 9b d8 c5 bd
       -0.047707837 -0.0535447 -0.31526703 -0.09660455
0000c0 fc 4c fb bd 28 e8 29 3e 6e 33 a8 bd 25 15 ff 3d
       -0.12270543 0.16592467 -0.082129344 0.12455205
0000d0 a2 fe 7d 3e bb d4 d3 bd ed 17 39 3e 24 06 89 3e
       0.24804166 -0.103433095 0.18075533 0.26762497
0000e0 a0 b0 3f 3d 34 5e 8c 3e a1 bc 53 be 73 d1 29 be
       0.046799302 0.2741562 -0.20677425 -0.16583805
0000f0 d8 a2 22 3e e2 ea 35 3d 21 ba 1c bd 80 0e 21 3e
       0.15882432 0.044413455 -0.038263444 0.15728188
000100 64 fe 21 3d fb c5 58 3e ce 06 bf bc a0 1c 7a 3e
       0.039549246 0.21169274 -0.023318674 0.24424982
000110 7d bc 34 be 84 cc 76 3e d3 3f 25 bd 22 b4 29 3e
       -0.17650028 0.24101454 -0.04034407 0.16572621
000120 a1 cb 19 bd b1 8d dd 3d 28 7b 87 3d 94 d2 08 3e
       -0.03754771 0.10818041 0.06615287 0.13361579
000130 7f 40 c3 bd 28 9d 9c bc 6f af 7b bd 2c 18 ae 3c
       -0.09533786 -0.019117907 -0.061446603 0.02125176
000140 a6 fd b8 bc 1a bb 73 bc 61 6c 59 bd d3 39 75 3d
       -0.022581887 -0.014876151 -0.053081874 0.0598696
000150 bb 3e 1a 3d 13 16 62 bd 75 b4 a1 3d b1 49 42 3d
       0.03765748 -0.055196833 0.078957476 0.04743356
000160 b6 99 c8 3b 3a c6 13 3d 51 98 48 bd c8 27 71 bd
       0.0061218394 0.036077715 -0.048973385 -0.05887583
000170 6f 64 92 3d d2 f1 5c bd 24 84 87 3d a8 34 93 bc
       0.071480624 -0.053941555 0.06617001 -0.017969444
000180 7a 14 de bb 52 36 f6 bd 14 65 a7 3c 1a 4b 71 be
       -0.0067773433 -0.120220795 0.02043394 -0.23563805
000190 ba 63 bd bd cc 59 72 be 05 fd c2 bd 0f d7 3b be
       -0.09247537 -0.23667067 -0.09520916 -0.18343757
0001a0 c0 7e e4 bd cc 83 63 be f0 ef 37 be 40 88 f9 bd
       -0.11156988 -0.22218245 -0.17962623 -0.12184191
0001b0 d0 af ac bd 32 5f 4e be 66 91 cb bd 26 39 37 be
       -0.08431971 -0.20153502 -0.09939842 -0.17892894
0001c0 60 c1 4d be ed 13 dc bd 38 55 16 be be 64 0c be
       -0.20093298 -0.10745988 -0.14680946 -0.13710305
0001d0 fa f9 30 be b8 37 0b be 6e d3 36 be 69 23 68 be
       -0.17282858 -0.13595474 -0.17854092 -0.22669758
0001e0 96 8c 83 be ff 47 b9 bd 7c c8 68 be b6 b1 e9 bd
       -0.25693196 -0.09046935 -0.22732729 -0.11410849
0001f0 05 ea 64 be c5 2f 11 be 3c 79 db bd 97 60 d1 bd
       -0.22354896 -0.14178379 -0.10716483 -0.10223501
000200 7e 66 ed bd e1 4e 27 be bb 62 13 be db ab 79 be
       -0.115918145 -0.16338684 -0.14393131 -0.24381964
000210 4a bd 07 be 3e 41 15 be ee a3 78 be 48 fc d4 bd
       -0.13255802 -0.14575669 -0.24281284 -0.10399681
000220 a8 c8 81 be 8d 7b e8 bd 6c b4 5f be 17 34 c8 bd
       -0.253484 -0.113516904 -0.21846169 -0.0977556
000230 07 fb 76 be 3a 87 5e be 42 96 82 be 56 fc 03 be
       -0.24119197 -0.21731272 -0.25505263 -0.12889227
000240 b8 ba 0b be 6b 94 29 be af 28 38 be 93 2c 2b be
       -0.13645446 -0.16560523 -0.1798427 -0.16716222
000250 05 23 cf bd ba c9 7e be d4 dc 75 be 3b 44 72 be
       -0.10114101 -0.2488164 -0.2401002 -0.2365884
000260 04 d7 58 be 30 eb 08 be fa 82 7c be 95 2c 7b be
       -0.21175772 -0.13370967 -0.24659339 -0.24528725
000270 c9 88 ed bd 12 89 33 be 42 42 83 be 27 82 43 be
       -0.11598355 -0.17532757 -0.25636488 -0.19092618
000280 0e 29 37 be
       -0.17886755
