rl-manager/mnt/autoencoders/VQVAE_64dim_64n_BN.pth (torch, 259674 bytes, 17 tensors)

encoder.0.weight f4 [128, 161]
000000 e3 7f 2c bd d6 cf 80 bd 99 f5 9c 3d 4c 62 72 3c
       -0.04211415 -0.062896416 0.076640315 0.014793944
000010 a8 a0 92 bd 98 8c 13 3d 3f 74 1c bb e0 72 60 3d
       -0.07159549 0.036022753 -0.0023873 0.054797053
000020 71 90 5e bc ab 10 8d 3d 70 6f 69 3d 2a 6b 42 bd
       -0.013584242 0.06887945 0.05699104 -0.04746548
000030 1b bc 0a bd df a7 2d 3d 3c 0c 0d 3d 84 48 34 bd
       -0.033870798 0.042396422 0.034435496 -0.04401447
000040 35 87 78 3d 8e b9 81 bc c8 53 8e 3c 7f 76 70 bd
       0.06067582 -0.01583555 0.017373934 -0.058706757
000050 64 e2 0f ba 6a de 2f 3d c8 36 4c bd 27 1c 92 bd
       -0.0005488752 0.04293672 -0.04985693 -0.07134276
000060 2c 11 bc 3c 14 cc 89 3c 40 16 8d 3d e9 48 69 bd
       0.022957407 0.016820945 0.068890095 -0.0569543
000070 ac a6 44 3d ca 8f 88 3d 62 a8 23 bc 0c 79 68 bd
       0.048010513 0.066680506 -0.009988876 -0.056756064
000080 02 0f 28 bd c1 f9 3d 3d cc af 25 bd 5e 3f 9f 3d
       -0.041029938 0.046380762 -0.040450856 0.07775758
000090 6f a8 45 bc a4 06 72 3d 15 5f 82 3d 8d 91 13 3d
       -0.0120640835 0.059088364 0.06365792 0.03602748
0000a0 a9 2f 9c 3d 82 08 1c bc c4 1e 5b bd 79 c1 76 3d
       0.07626278 -0.009523513 -0.053496137 0.060243104
0000b0 85 2c 90 3d 5d 19 3a bd 3e 43 a1 bd a9 42 8f bc
       0.070397414 -0.045434345 -0.078741536 -0.01748784
0000c0 6e 03 15 bd f5 05 66 3c ee a0 73 bd 5f 96 b9 bc
       -0.036380224 0.014039506 -0.059479646 -0.02265471
0000d0 c5 d2 97 bb 5a 08 0e 3d 15 2a 17 3d 1b b7 97 3c
       -0.00463328 0.034675933 0.036905367 0.018519929
0000e0 96 d8 bc ba 47 f0 50 3d 46 00 9e 3d d9 7a e9 3b
       -0.0014407809 0.051010396 0.07714896 0.0071252403
0000f0 4f ed 6e bd 5f 38 80 3d c4 76 92 bd 54 16 8b bd
       -0.058331784 0.06260752 -0.07151559 -0.06791368
000100 b2 64 80 bc 10 bd c4 3c a5 58 3d bd 96 a2 60 bd
       -0.015673015 0.024015933 -0.046227116 -0.054842554
000110 6e d5 b4 3c 4b 55 8a bd ac 74 4f 3d d1 21 6a 3d
       0.022074427 -0.067545496 0.050648376 0.057161156
000120 16 c3 d0 bc a4 fe 28 3d 2b 49 c6 3c 76 c1 87 3c
       -0.02548365 0.04125847 0.024204811 0.016571742
000130 ed d4 9c bd 23 f2 11 3d 19 20 f2 bc 8d 54 c9 bc
       -0.076578 0.03563131 -0.029556321 -0.02457645
000140 0c d0 2c 3d 63 84 90 3c 7e 8b 8b bd d5 da ff 3c
       0.042190596 0.017641252 -0.068137154 0.031232277
000150 da de d9 3c 07 ba 14 3d 3c 74 5c 3d 65 c2 bf 3c
       0.026595522 0.036310222 0.053821787 0.023408124
000160 b0 f7 1e 3d c2 00 78 bc 49 11 05 bd ac bb 87 bc
       0.038810432 -0.015136899 -0.032487188 -0.016568981
000170 e0 b2 0a bd ed 7c 07 bd 1f 3b 8d bd 5f 11 e3 3b
       -0.033861995 -0.033078123 -0.06896042 0.006929561
000180 c6 aa a0 3d f0 33 82 bd 82 dd f8 3b 08 8e 95 bc
       0.078450724 -0.063575625 0.007594765 -0.018256202
000190 58 23 9f bd 7f 50 e3 ba dd 3f 70 3d 99 58 27 3d
       -0.07770413 -0.0017342715 0.058654655 0.040855978
0001a0 59 72 81 3d e5 1a 4c 3c 8e 8d a9 3c 9d ca 2e bd
       0.06320638 0.012457584 0.020697381 -0.042673696
0001b0 1d 29 8a bc 80 fd 86 bd c0 f4 41 3d 47 71 18 bd
       -0.016865307 -0.0659132 0.047352552 -0.037217405
0001c0 7b 4f 72 bd 78 99 96 bd 48 a6 47 3d 97 07 99 bc
       -0.05915783 -0.073534906 0.048742563 -0.018680377
0001d0 ee 0f 0d bd 4a 38 4c 3c 74 7c e4 3c 1f d7 70 3d
       -0.03443902 0.012464592 0.027891375 0.058798905
0001e0 9e 36 ad bc b4 51 b0 3c 7b d8 57 3d 0e 05 bd 3c
       -0.021144208 0.021523334 0.052696686 0.0230737
0001f0 4e 59 63 bd 03 d3 94 3d 77 71 78 3d 18 7d fb 3c
       -0.05550509 0.0726681 0.060655084 0.030699298
000200 28 64 52 bd 37 77 6b 3c d1 8d 9e bd da c9 ce 3b
       -0.051365048 0.014371685 -0.07741893 0.0063106837
000210 f1 f5 82 3c 8e bb 75 bd d5 b6 83 3d 05 44 5d 3c
       0.015986415 -0.05999332 0.06431357 0.013504987
000220 f6 70 ac bc 4d af 52 3d cb 47 30 bc 88 fe 03 bd
       -0.021049958 0.05143671 -0.010759304 -0.03222516
000230 af 1c 75 bc 5f 8d 94 bd 3b 1c 93 bc df e7 90 bd
       -0.014960452 -0.07253527 -0.017957797 -0.07075476
000240 74 22 8d bd 3e 84 49 3d d4 f0 f2 bc d7 1f ae 3a
       -0.06891337 0.04919838 -0.029655851 0.0013284635
000250 83 43 33 bb 32 fb ef bc 22 ad 75 3d e9 a0 e9 3c
       -0.0027353473 -0.029294584 0.059979565 0.02851911
000260 45 ca 87 bc e3 99 57 3d 1a 99 6d ba 46 c8 49 3d
       -0.016575942 0.052636992 -0.00090636464 0.04926326
000270 24 4a 6e bd 4a 43 22 bd e3 ce 84 bd 22 6f 7d 3d
       -0.058176175 -0.039614953 -0.06484773 0.061873563
000280 e7 b6 32 bd 58 30 10 bd 1f cc 80 bc 5f f8 73 3c
       -0.04363146 -0.035202354 -0.015722333 0.014890759
000290 62 24 81 bd fe 84 37 bd 08 a6 43 3d 77 2f 4c ba
       -0.063057676 -0.044804566 0.04776576 -0.0007789055
0002a0 af 98 d5 3c 36 19 3b bd ff 79 8b 3d 9f 4f f5 bc
       0.026073782 -0.04567834 0.06810378 -0.029945193
0002b0 89 38 d7 bc 01 ac 6f 3d 64 40 ca 3b a6 76 8a 3c
       -0.026272075 0.058513645 0.0061722267 0.01690228
0002c0 55 10 c0 3c 40 ae 0c 3d e0 ee 5e bd 9d 7e 2e bd
       0.023445288 0.034345865 -0.054427028 -0.042601217
0002d0 ee a9 31 3d c0 66 ae 3d 62 37 d1 bc 2d cb 31 bd
       0.04337495 0.08515692 -0.025539104 -0.043406654
0002e0 c3 0f 76 bc 04 e4 5c bd 3f ea a1 3d 40 c2 71 bc
       -0.015018406 -0.05392839 0.07906007 -0.014755785
0002f0 a3 10 81 bd cb ff f8 bc a6 98 3b 3d 75 73 c6 3a
       -0.06302001 -0.03039541 0.045799874 0.001514061
000300 b1 6f e8 39 41 fa fa 3b 01 16 5e bd 68 bd 96 bd
       0.00044333705 0.007659227 -0.054220203 -0.07360345
000310 bc 81 b4 3d d7 c8 46 3d b4 4f 27 bd 46 c8 b9 bc
       0.08813807 0.04853138 -0.040847495 -0.022678506
000320 57 06 ff bc 23 e1 25 bd 87 b2 b8 bc 32 75 15 3a
       -0.031130953 -0.04049791 -0.022546066 0.00057013624
000330 7a f1 35 bd 94 77 f1 bc b1 51 6d bd eb e4 a7 3b
       -0.044419743 -0.029475965 -0.057939235 0.0051237247
000340 84 ce 4c bd 7a a6 58 3d be d8 14 3d e2 56 4c bc
       -0.050001636 0.05289314 0.036339514 -0.012471886
000350 1d 29 c9 bc fc 6b 44 bd 00 19 28 3c 2d 2a 28 bc
       -0.024555737 -0.047954544 0.010259867 -0.010263962
000360 87 c3 46 bd d9 55 07 3c dc 93 43 3d 3c 03 c0 bc
       -0.048526313 0.008260214 0.04774843 -0.023439042
000370 11 56 1c bd 98 f2 93 bd db cd 20 bd 68 89 d1 bc
       -0.038168017 -0.072240055 -0.03925882 -0.025578216
000380 f8 2b 3c 3d 01 2b 52 3d e3 d1 8f bd 77 1b 74 3b
       0.04594037 0.051310543 -0.070224546 0.0037247816
000390 bd 66 06 3d fc 5f 6f 3c 2e 42 68 bd 97 c5 bf bb
       0.032812823 0.014610287 -0.05670374 -0.005852412
0003a0 f6 b2 79 bc 33 73 77 bd d4 b0 77 3d 02 fb 07 3d
       -0.0152404215 -0.060412597 0.06047137 0.033198364
0003b0 e2 52 45 ba 56 b0 45 bd 2d 3f 93 bd ad 66 97 3c
       -0.0007527304 -0.04826387 -0.07189784 0.018481577
0003c0 e1 29 f6 bc 9f e5 47 bd b2 a5 92 3d d8 06 44 3d
       -0.030049266 -0.048802968 0.0716051 0.04785809
0003d0 9c 7c c7 3c 77 48 67 3d 86 c3 80 3d 64 93 c7 bc
       0.02435141 0.056465592 0.06287293 -0.024362274
0003e0 b0 bd 3c 3d 3a 71 64 3d 70 f4 95 bc 11 ec 3a bd
       0.046079338 0.055772044 -0.018305033 -0.045635287
0003f0 11 ef e6 3c 0c 2b 8a 3d 1a 7a b0 3c ec b1 6a bd
       0.028190168 0.06746492 0.021542598 -0.057298586

encoder.0.bias f4 [128]
000000 ed 5d 1f bd a9 dc f7 3a 40 f4 19 3c 6f 72 9e 3d
       -0.038907934 0.0018910366 0.009396613 0.0773667
000010 05 4f 3b 3d 75 77 af 3a 49 20 ed bb 83 6a 9c 3d
       0.045729656 0.0013387041 -0.0072365147 0.07637503
000020 0f 1a 9b bd d8 dc 5d bd 77 59 50 bd bc db 10 bb
       -0.0757333 -0.05416569 -0.05086657 -0.0022103628
000030 03 c6 47 bb 9e 30 eb bb 86 56 7e 3d 6a cc 30 bd
       -0.0030483014 -0.0071774265 0.062094234 -0.043163694
000040 d9 24 8e bd 52 8e 51 bd d2 45 14 bd 1e 3d 2e 3d
       -0.06940622 -0.051161118 -0.0361994 0.042538755
000050 26 7b 89 bd 84 7a 52 3d c9 c3 a5 bc 50 09 90 3c
       -0.06712942 0.05138637 -0.02023496 0.017582566
000060 7b 35 8f 3b f6 01 8e 3d 74 02 83 3c c7 a7 6e 3d
       0.004370389 0.06933968 0.01599238 0.058265474
000070 29 06 08 3c bf bb 12 bc 6e b9 48 bc 29 22 e8 bc
       0.00830225 -0.008955895 -0.012251241 -0.028336601
000080 d4 b7 fc bc f9 0d ef 3c 51 71 95 bd 85 9c 89 3c
       -0.030849375 0.029181467 -0.07297004 0.016798267
000090 e6 36 f7 3c 39 1c 5f 3d 4f 4e 43 bc 8c aa 88 bd
       0.030177545 0.054470275 -0.011920526 -0.06673154
0000a0 9b cb 00 bd 1c 69 b4 3b b9 ea 1c 3c 87 79 3d 3d
       -0.031444173 0.005505694 0.009577447 0.046258476
0000b0 e3 a7 d9 bb 0e 60 a4 3c 13 bc fb bc 02 2c b3 bc
       -0.006642328 0.020065334 -0.03072933 -0.02187157
0000c0 8f a3 8f 3d 20 74 4e 3c 80 4b 9a bd 91 bc 7f 3c
       0.07013618 0.012600929 -0.07533932 0.015608923
0000d0 88 fa a7 3c df 46 02 bd f1 ea 6a bd 14 2c 32 bd
       0.020505205 -0.03180587 -0.057352964 -0.043499067
0000e0 b3 5c 1d 3d 25 1c ac b9 46 f2 04 bd 20 57 08 bc
       0.038418483 -0.00032827366 -0.032457612 -0.0083215535
0000f0 1f be 25 3d bf 24 68 3d 9b 18 d0 3c c6 b1 bd 3c
       0.040464517 0.05667567 0.025402358 0.023156058
000100 1a 4d 3b 3d d0 35 8c 3d 1b de da bc cc 13 90 3d
       0.045727827 0.068462014 -0.026717236 0.07035026
000110 fa 5c 35 bd 00 55 c8 3c 18 2c 96 bd 11 c1 7c bd
       -0.044278122 0.024454594 -0.07332629 -0.06170756
000120 63 7b fc bc c0 53 67 bd 50 b5 de 3c 33 51 77 3d
       -0.030820554 -0.056476355 0.027186066 0.060380172
000130 3c 4f c6 3d e8 cd 5c 3d aa 07 a1 bd 44 52 e4 bb
       0.096830815 0.053907305 -0.0786279 -0.0069678146
000140 8a eb 68 3c 30 9c 30 3d b0 0d 75 3d 6a 08 f1 bc
       0.014216313 0.043117702 0.059827507 -0.029422957
000150 ed ba 30 3b e1 27 91 bd ab 77 1c bd 95 44 99 3b
       0.0026966885 -0.070876844 -0.03820006 0.004677365
000160 59 79 5c bd 19 18 78 bc 01 86 55 3b ee 1e 45 3d
       -0.053826664 -0.015142464 0.0032581093 0.0481252
000170 5c 4c 9c bd 46 33 ed 3b ac 56 a2 bc 60 9c cf 3c
       -0.07631752 0.0072387783 -0.019816719 0.02534312
000180 1a 22 93 bd f2 75 c9 39 97 da e8 bc c1 a1 92 3d
       -0.07184239 0.00038425584 -0.028424544 0.07159758
000190 6d 28 04 3d e3 2b 9d bc 29 6e 25 3d 1b 0f 97 bd
       0.032265116 -0.019185966 0.04038826 -0.07375928
0001a0 1f f8 7a bd 49 f4 bb 3c 83 af 91 bc 07 9d aa bd
       -0.061271783 0.022943633 -0.017783886 -0.08330732
0001b0 1a 03 ad 3d 4b 00 9f bd a6 9e 16 bd 63 c9 ca 3c
       0.08447857 -0.07763728 -0.036772393 0.024754232
0001c0 22 97 21 bc a1 54 8c 3d 77 16 a7 3d 4c ba 95 3d
       -0.009862693 0.06852079 0.08158582 0.07310924
0001d0 89 09 34 39 c0 c8 f5 3c 63 4b 84 3d 63 02 50 3d
       0.0001716969 0.030002952 0.064596914 0.050783526
0001e0 61 fd 50 3d 12 e9 5c 3b cb 05 92 bd 85 66 9a bd
       0.05102289 0.0033708257 -0.07130011 -0.07539085
0001f0 c3 e1 1e bc e4 ca c6 3c a1 1a 25 3d ca a5 57 bd
       -0.0096973805 0.024266668 0.0403086 -0.052648343

encoder.2.weight f4 [128]
000000 00 00 80 3f 7b 86 7e 3f 46 0e 28 3f 76 b3 3f 3f
       1.0 0.9942395 0.6564678 0.7488321
000010 f4 00 2d 3f 00 00 80 3f 00 00 80 3f 2f d6 2c 3f
       0.6757958 1.0 1.0 0.6751432
000020 00 00 80 3f 51 d0 7e 3f bd f9 7b 3f 1a 70 39 3f
       1.0 0.99536616 0.98427945 0.7243668
000030 8c 98 4b 3f 29 18 7a 3f 0f 7e 1b 3f 51 08 3b 3f
       0.79529643 0.97693115 0.60739225 0.73059565
000040 00 00 80 3f 00 00 80 3f 00 00 80 3f aa 2b 3b 3f
       1.0 1.0 1.0 0.731135
000050 00 00 80 3f 9a 3e 27 3f 00 00 80 3f 45 ce 31 3f
       1.0 0.653299 1.0 0.6945537
000060 39 c0 41 3f d8 5c 2d 3f 00 00 80 3f ca d9 1f 3f
       0.75683933 0.67719793 1.0 0.62441695
000070 ff 09 22 3f 0e 1c 3c 3f 00 00 80 3f 4a 57 7f 3f
       0.632965 0.7348031 1.0 0.9974257
000080 00 00 80 3f 85 5f 4a 3f 00 00 80 3f ee e1 25 3f
       1.0 0.79052 1.0 0.64797866
000090 3b 13 4a 3f 8a 0f 7d 3f 84 38 7c 3f f2 17 7d 3f
       0.78935593 0.98851836 0.98523736 0.9886466
0000a0 94 66 7d 3f 6e d2 4f 3f f2 e5 7f 3f 16 b3 34 3f
       0.98984647 0.81180465 0.99960244 0.70585763
0000b0 8c ed 40 3f 11 f8 28 3f 2a a8 7e 3f 58 a1 80 3f
       0.7536247 0.6600352 0.9947535 1.0049238
0000c0 1c 55 52 3f bd 71 7e 3f 43 d5 80 3f a8 15 7b 3f
       0.82161117 0.993923 1.0065082 0.9807992
0000d0 2a b3 4f 3f 00 00 80 3f 00 00 80 3f e8 27 31 3f
       0.8113276 1.0 1.0 0.6920152
0000e0 b9 56 11 3f e6 57 7f 3f ae c3 38 3f 00 00 80 3f
       0.56772953 0.997435 0.72173584 1.0
0000f0 03 d2 40 3f 64 9e 2f 3f 13 20 2d 3f 54 49 47 3f
       0.7532045 0.6860106 0.67627066 0.77846265
000100 cf b8 81 3f 45 4e 38 3f 6f da 0f 3f 49 e4 47 3f
       1.0134524 0.7199443 0.5619268 0.7808271
000110 d8 c7 07 3f 0e b4 32 3f 00 00 80 3f 00 00 80 3f
       0.5303931 0.6980599 1.0 1.0
000120 dd 9e 4d 3f 00 00 80 3f 22 c8 7f 3f d3 c5 0a 3f
       0.8032053 1.0 0.99914753 0.54208106
000130 21 21 39 3f 82 83 39 3f 00 00 80 3f cd a0 41 3f
       0.72316176 0.7246629 1.0 0.7563599
000140 7c cb 7b 3f 43 3d 7d 3f 8f e3 3c 3f 00 00 80 3f
       0.9835737 0.989216 0.73784727 1.0
000150 30 f3 2d 3f 00 00 80 3f 25 21 7c 3f f9 63 78 3f
       0.679492 1.0 0.98488075 0.97027546
000160 3d 1c 7e 3f 36 7e 35 3f 3b 88 28 3f 86 d2 38 3f
       0.9926184 0.7089571 0.6583287 0.72196233
000170 00 00 80 3f 30 c7 3b 3f c5 76 3a 3f f8 2d 2e 3f
       1.0 0.7335081 0.7283748 0.6803889
000180 00 00 80 3f 00 00 80 3f 61 35 7f 3f be 44 3a 3f
       1.0 1.0 0.99690825 0.7276114
000190 1a 7f 3b 3f c7 d9 1f 3f 2e 84 33 3f 00 00 80 3f
       0.73240817 0.62441677 0.70123565 1.0
0001a0 00 00 80 3f 89 2b 47 3f 00 00 80 3f 1b e4 75 3f
       1.0 0.77800804 1.0 0.96051186
0001b0 99 9d 32 3f 00 00 80 3f 00 00 80 3f 38 ba 7a 3f
       0.69771725 1.0 1.0 0.979404
0001c0 1b ef 7e 3f 98 af 3f 3f a5 7a 44 3f a6 a9 40 3f
       0.99583596 0.7487731 0.7674964 0.7525886
0001d0 43 af 7f 3f 86 0b 3f 3f 89 f1 2a 3f 94 8c 7e 3f
       0.99876803 0.7462696 0.66774803 0.99433255
0001e0 17 a1 36 3f 00 00 80 3f 00 00 80 3f 00 00 80 3f
       0.71339554 1.0 1.0 1.0
0001f0 e2 b6 19 3f db f3 2d 3f 29 e5 3a 3f bc 64 7e 3f
       0.6004468 0.6795022 0.7300592 0.9937246

encoder.2.bias f4 [128]
000000 94 02 0b b9 41 0a 2e 38 82 cd ac bd 8b 54 c1 3d
       -0.00013257033 4.1494382e-05 -0.08437635 0.094399534
000010 4e 4c 86 bd 6c 67 aa bb 47 09 60 bd 16 d7 f5 3c
       -0.06557523 -0.005200317 -0.054696348 0.030009788
000020 63 08 04 ba e6 0a 8f b8 5c ee 9a 39 5c e9 d1 bd
       -0.000503665 -6.820801e-05 0.0002955076 -0.10249588
000030 46 0c 89 bd cb 40 d3 bc b3 d6 8c bd 8a 7b 17 bb
       -0.06691794 -0.025787732 -0.06876888 -0.0023114407
000040 6b ee f2 3c fa 67 b5 39 4b 7e 3c b9 02 2c a2 bd
       0.029654702 0.0003460048 -0.00017976125 -0.0791855
000050 74 59 84 39 65 a7 94 3d 2d 69 93 b9 68 c1 50 3d
       0.0002524365 0.072584905 -0.00028116387 0.050965697
000060 f1 a6 86 bd 96 93 be 3c 55 6e 2d 3c a1 c0 ba bd
       -0.0657481 0.023263734 0.010585387 -0.09118772
000070 70 65 d6 3d 5b 73 43 3d 6e 3f 4c b9 32 94 5f 39
       0.104685664 0.047717433 -0.00019478585 0.00021322144
000080 9e 3a 07 3a f1 e2 30 3d da 4f 47 3b 7a e8 03 be
       0.0005158576 0.04318518 0.0030412585 -0.12881652
000090 98 65 4a bd ca a0 03 3d d7 37 14 39 3d 0c 26 ba
       -0.049413294 0.032135762 0.00014135182 -0.0006334221
0000a0 af 3f cf b9 47 7d 52 bd f5 9d 60 b8 3e 7a 34 3d
       -0.00039529565 -0.051389005 -5.355287e-05 0.04406189
0000b0 47 44 7d bd c4 a9 11 3d d3 bf 72 bc be 12 72 39
       -0.061832692 0.03556229 -0.014816242 0.000230859
0000c0 75 7e 09 3d 51 e7 c9 39 31 1e 42 b9 e6 f6 eb bb
       0.033567864 0.00038510052 -0.00018512529 -0.0072010634
0000d0 06 44 99 bd 3f 0a 01 b9 09 79 3e 37 21 ad ae 3d
       -0.074836776 -0.00012306216 1.1353063e-05 0.085291155
0000e0 9b f7 0e 3d 28 81 fc b8 33 ee 30 bc e9 ee 09 3c
       0.034904104 -0.000120403536 -0.010798979 0.008418777
0000f0 14 39 bb bc 33 e9 a0 bd 9f 20 e0 bd f2 8b af bd
       -0.022854365 -0.07856979 -0.10943722 -0.08571614
000100 1e 71 5e 39 15 82 a1 bd 27 38 89 3d 4c 25 e2 bb
       0.00021213709 -0.07886139 0.06700163 -0.006901419
000110 29 e2 24 bd 17 1a a0 bd b9 1a 67 38 7b 95 37 bd
       -0.040254746 -0.07817476 5.509958e-05 -0.04482029
000120 fa b6 0c bb 24 bf 0a bb 85 19 05 b9 5c d2 49 bc
       -0.0021471367 -0.0021171058 -0.00012693375 -0.01231822
000130 67 75 3b bd be 50 a4 3d 61 a4 80 b9 92 e2 b1 3c
       -0.04576626 0.08023213 -0.00024536534 0.021714482
000140 8b 31 3e bd 57 a2 f1 39 df c3 42 bd a8 16 f4 39
       -0.046433967 0.00046088055 -0.04755008 0.00046556187
000150 2a b6 72 bc ed f9 e3 39 6f 9f 1b ba 6a 7b eb 39
       -0.014813939 0.00043483023 -0.0005936538 0.00044914644
000160 52 45 bb b9 75 25 ec bd 2c b4 89 bd 6e f2 86 3d
       -0.00035719067 -0.11530582 -0.06723818 0.065892085
000170 02 da b2 bc 64 42 a8 bd f4 ef 33 bd 23 00 d7 bd
       -0.02183247 -0.08215788 -0.04393001 -0.10498073
000180 f0 99 02 bc ab 15 6e b9 20 f1 57 38 0b 21 4a bd
       -0.007971272 -0.0002270552 5.148456e-05 -0.04934792
000190 cf 35 eb bd fe 86 b2 bd 8c 9d 88 bd 57 e3 66 39
       -0.114848725 -0.08717154 -0.06670675 0.000220192
0001a0 01 13 01 39 ea 93 4d bd 41 17 12 38 ca 0e cb 39
       0.00012309478 -0.05018989 3.483077e-05 0.00038730196
0001b0 5c 5b e3 3d 0c 7c 78 bd ac e5 cf bc ac c5 d0 b9
       0.1110141 -0.060665175 -0.02537807 -0.0003982013
0001c0 4e da bb 3b d2 02 5e bd c0 36 33 3c 6e 4e 8a 3c
       0.005732811 -0.05420191 0.010938346 0.016883101
0001d0 29 7f 8c b9 c7 3c 80 bc d2 ca d9 3d 8b a5 12 b8
       -0.00026797623 -0.01565398 0.10634388 -3.4963286e-05
0001e0 8e a1 bc bd 78 24 73 39 cd c4 09 bd 47 5a a6 36
       -0.092105016 0.00023187872 -0.03363495 4.957695e-06
0001f0 33 42 28 3d 5a c5 f7 3d fe cc a2 3d 73 4b 3c 3a
       0.041078757 0.12098189 0.079492554 0.00071828737

encoder.2.running_mean f4 [128]
000000 00 00 00 00 04 00 00 00 0d 3c 3f 3d 58 f5 fc 3d
       0.0 6e-45 0.04668813 0.12351483
000010 8a cd 41 3d 00 00 00 00 00 00 00 00 98 d7 9a 3d
       0.047315158 0.0 0.0 0.075606525
000020 00 00 00 00 04 00 00 00 04 00 00 00 21 c5 58 3d
       0.0 6e-45 6e-45 0.05292237
000030 de 3d 56 3d 04 00 00 00 f7 b5 ac 3d 34 16 42 3d
       0.052305095 6e-45 0.084331445 0.047384456
000040 00 00 00 00 00 00 00 00 00 00 00 00 78 61 65 3d
       0.0 0.0 0.0 0.056001157
000050 00 00 00 00 da ca b0 3d 00 00 00 00 8e 63 98 3d
       0.0 0.08632441 0.0 0.074408635
000060 0a 49 5b 3d 2c f2 cd 3d 00 00 00 00 11 3f 5b 3d
       0.053536452 0.10055956 0.0 0.05352694
000070 f3 20 b1 3d 4a 9f ad 3d 00 00 00 00 04 00 00 00
       0.08648863 0.084776476 0.0 6e-45
000080 00 00 00 00 62 c4 9a 3d 00 00 00 00 57 bb 25 3d
       0.0 0.07556988 0.0 0.040461864
000090 9a 6e 65 3d 04 00 00 00 04 00 00 00 04 00 00 00
       0.05601368 6e-45 6e-45 6e-45
0000a0 04 00 00 00 f9 9a 00 3d 04 00 00 00 ff 82 dd 3d
       6e-45 0.031397793 6e-45 0.10816001
0000b0 79 9b 4d 3d 2b d2 af 3d 04 00 00 00 04 00 00 00
       0.0501971 0.08585008 6e-45 6e-45
0000c0 7f 15 e6 3d 04 00 00 00 04 00 00 00 04 00 00 00
       0.11234569 6e-45 6e-45 6e-45
0000d0 58 bf 56 3d 00 00 00 00 00 00 00 00 99 c9 9b 3d
       0.052428573 0.0 0.0 0.07606811
0000e0 82 16 85 3d 04 00 00 00 bc 44 95 3d 00 00 00 00
       0.06498434 6e-45 0.07288501 0.0
0000f0 de 3d c8 3d 68 b8 41 3d 42 dc 5b 3d ed 41 75 3d
       0.09777425 0.047295004 0.05367685 0.059877325
000100 04 00 00 00 2e 01 a6 3d 44 5d 91 3d 54 2f a2 3d
       6e-45 0.08105694 0.07097867 0.079191834
000110 d5 13 2b 3d 26 d3 48 3d 00 00 00 00 00 00 00 00
       0.04176696 0.04902949 0.0 0.0
000120 1b 5c b0 3d 00 00 00 00 04 00 00 00 f3 5c 20 3d
       0.08611318 0.0 6e-45 0.039151143
000130 b6 7f 55 3d ab 56 06 3e 00 00 00 00 7d 27 d8 3d
       0.052123748 0.13118999 0.0 0.10554407
000140 04 00 00 00 04 00 00 00 14 50 52 3d 00 00 00 00
       6e-45 6e-45 0.0513459 0.0
000150 f4 43 4e 3d 00 00 00 00 04 00 00 00 04 00 00 00
       0.050357774 0.0 6e-45 6e-45
000160 04 00 00 00 80 53 70 3d 98 fa 48 3d cd b9 08 3e
       6e-45 0.05867338 0.04906711 0.13352127
000170 00 00 00 00 81 f5 59 3d f1 8c 49 3d df 5f 3d 3d
       0.0 0.053212646 0.049206678 0.046234008
000180 00 00 00 00 00 00 00 00 04 00 00 00 cb 1b 60 3d
       0.0 0.0 6e-45 0.054714005
000190 17 79 53 3d 22 02 3e 3d 81 79 4f 3d 00 00 00 00
       0.051629152 0.046388753 0.050652985 0.0
0001a0 00 00 00 00 08 74 55 3d 00 00 00 00 04 00 00 00
       0.0 0.05211261 0.0 6e-45
0001b0 a7 7b b2 3d 00 00 00 00 00 00 00 00 04 00 00 00
       0.08714991 0.0 0.0 6e-45
0001c0 04 00 00 00 76 61 a2 3d a4 43 9b 3d bc c8 20 3e
       6e-45 0.079287454 0.07581261 0.15701574
0001d0 04 00 00 00 6d 7f a9 3d b0 49 1b 3e 04 00 00 00
       6e-45 0.08276258 0.15164828 6e-45
0001e0 25 78 a5 3d 00 00 00 00 00 00 00 00 00 00 00 00
       0.080795564 0.0 0.0 0.0
0001f0 f9 6d a0 3d 59 0d a7 3d 56 fb ec 3d 04 00 00 00
       0.078334756 0.08156843 0.11571376 6e-45

encoder.2.running_var f4 [128]
000000 04 00 00 00 04 00 00 00 10 ec 96 3a 3f 6b c3 3a
       6e-45 6e-45 0.0011514444 0.0014909281
000010 ec e5 94 3a 04 00 00 00 04 00 00 00 81 88 88 3a
       0.0011360026 6e-45 6e-45 0.0010416658
000020 04 00 00 00 04 00 00 00 04 00 00 00 60 4e 98 3a
       6e-45 6e-45 6e-45 0.0011620037
000030 a2 23 ca 3a 04 00 00 00 5a 19 51 3a 64 4a b4 3a
       0.0015421996 6e-45 0.0007976495 0.001375508
000040 04 00 00 00 04 00 00 00 04 00 00 00 ca b3 cd 3a
       6e-45 6e-45 6e-45 0.001569384
000050 04 00 00 00 2e 5e b8 3a 04 00 00 00 2a ee a2 3a
       6e-45 0.0014066154 6e-45 0.0012430598
000060 47 08 ef 3a dd 79 b1 3a 04 00 00 00 c6 c6 19 3a
       0.001823672 0.0013540346 6e-45 0.00058661064
000070 f9 80 aa 3a b9 1c 95 3a 04 00 00 00 04 00 00 00
       0.0013008408 0.0011376358 6e-45 6e-45
000080 04 00 00 00 75 e8 74 3a 04 00 00 00 64 be 62 3a
       6e-45 0.00093425 6e-45 0.0008649586
000090 2c fe d4 3a 04 00 00 00 04 00 00 00 04 00 00 00
       0.0016250066 6e-45 6e-45 6e-45
0000a0 04 00 00 00 2e 42 4e 3a 04 00 00 00 08 81 bd 3a
       6e-45 0.0007868138 6e-45 0.001445801
0000b0 14 90 c5 3a 04 a2 8c 3a 04 00 00 00 04 00 00 00
       0.0015072846 0.0010729437 6e-45 6e-45
0000c0 d5 ac d4 3a 04 00 00 00 04 00 00 00 04 00 00 00
       0.0016225824 6e-45 6e-45 6e-45
0000d0 59 0f c4 3a 04 00 00 00 04 00 00 00 08 88 97 3a
       0.0014958187 6e-45 6e-45 0.0011560926
0000e0 90 e6 c7 39 04 00 00 00 ed 99 5f 3a 04 00 00 00
       0.0003812802 6e-45 0.00085297116 6e-45
0000f0 42 b4 c6 3a fe 42 65 3a 0d cd c0 3a 53 5e fb 3a
       0.0015159922 0.00087456394 0.0014709547 0.0019177891
000100 04 00 00 00 77 63 bc 3a 52 44 25 3a ce 97 b3 3a
       6e-45 0.0014372905 0.0006304431 0.0013701858
000110 84 f0 c9 39 b6 db a4 3a 04 00 00 00 04 00 00 00
       0.00038516906 0.0012577686 6e-45 6e-45
000120 8b 61 bc 3a 04 00 00 00 04 00 00 00 40 4f 66 39
       0.0014372332 6e-45 6e-45 0.00021964032
000130 b3 4e 88 3a ea 7c be 3a 04 00 00 00 8e 11 d1 3a
       0.0010399431 0.0014533077 6e-45 0.0015950666
000140 04 00 00 00 04 00 00 00 b5 d5 ab 3a 04 00 00 00
       6e-45 6e-45 0.0013109954 6e-45
000150 61 01 8d 3a 04 00 00 00 04 00 00 00 04 00 00 00
       0.0010757857 6e-45 6e-45 6e-45
000160 04 00 00 00 38 59 e8 3a f4 09 d9 3a 36 43 3d 3a
       6e-45 0.0017726785 0.0016558752 0.0007219793
000170 04 00 00 00 7b 8e cb 3a 5f 47 78 3a 44 b1 ad 3a
       6e-45 0.0015530133 0.00094710843 0.0013251682
000180 04 00 00 00 04 00 00 00 04 00 00 00 43 fe ee 3a
       6e-45 6e-45 6e-45 0.0018233735
000190 9a b4 be 3a 61 e5 bd 3a f6 fa c2 3a 04 00 00 00
       0.0014549673 0.0014487916 0.0014875818 6e-45
0001a0 04 00 00 00 f7 49 d1 3a 04 00 00 00 04 00 00 00
       6e-45 0.0015967478 6e-45 6e-45
0001b0 33 da b1 3a 04 00 00 00 04 00 00 00 04 00 00 00
       0.0013569057 6e-45 6e-45 6e-45
0001c0 04 00 00 00 14 5a 99 3a b0 f4 b7 3a 89 54 e7 3a
       6e-45 0.0011699819 0.0014034715 0.0017649095
0001d0 04 00 00 00 e8 b8 88 3a 70 c4 97 3a 04 00 00 00
       6e-45 0.0010431083 0.0011578929 6e-45
0001e0 4a 5d b2 3a 04 00 00 00 04 00 00 00 04 00 00 00
       0.0013608125 6e-45 6e-45 6e-45
0001f0 34 ed 15 3a b8 aa 99 3a b1 37 a2 3a 04 00 00 00
       0.0005719245 0.0011723852 0.0012376216 6e-45

encoder.4.weight f4 [64, 128]
000000 5f b9 c5 b9 b5 81 41 3a 71 81 64 bb 5a 37 57 3d
       -0.0003771288 0.00073816936 -0.0034867192 0.05254302
000010 c9 93 1d bc 1a b0 9b 3c 75 1b 2a 3c 6c fb 10 bd
       -0.009617754 0.01900487 0.010382523 -0.035396025
000020 25 90 05 bc 53 82 4c 3c 94 60 95 3c 2d 42 9e 3c
       -0.0081520425 0.012482244 0.018234529 0.019318664
000030 37 63 2c 3d b7 55 83 3b 55 31 63 ba 85 ad 72 bc
       0.042086806 0.0040080207 -0.0008666714 -0.014811878
000040 fa 09 c7 3d f9 9b 61 3c 2e 2e f4 38 c9 b7 52 bd
       0.097187 0.013770097 0.00011643428 -0.051444802
000050 7e 0a c1 39 e2 29 ca 3b 11 4c e2 b9 3f ab 4d bd
       0.00036819646 0.0061695436 -0.00043162753 -0.05021214
000060 99 4b d9 b9 f5 b5 8a bc e6 6d 95 3d ae 39 53 3c
       -0.0004144579 -0.016932467 0.07296352 0.01289217
000070 69 ef 8f bc 5c aa 5e bc 99 67 a5 ba c5 d2 d2 bb
       -0.017570214 -0.0135904215 -0.0012619375 -0.006433817
000080 07 98 3d bd 84 a7 1e bd 29 80 da 3d 9d 39 1b bd
       -0.046287563 -0.038733974 0.10668976 -0.03789674
000090 0b 8c 89 bc c4 97 d7 bb 61 1c 25 3d 73 49 e8 ba
       -0.01679041 -0.006579371 0.040310267 -0.0017722085
0000a0 23 68 e1 ba db d1 43 bd 2f 59 aa bb 28 fc 86 bc
       -0.0017197173 -0.047807556 -0.00519862 -0.01647766
0000b0 e7 7e 6c bd 1a 02 0e 3d 4e 5b 3e bd 94 9e 3a 3c
       -0.05773821 0.034669973 -0.046473794 0.011390347
0000c0 1d 6c 8a bd ed f9 cc 3a 0c 88 1e bc 05 3b 59 bc
       -0.06758902 0.0015638449 -0.009675991 -0.0132587
0000d0 7c 2a 85 bb 4f e5 26 bb 6b 02 19 ba 67 22 0a 3d
       -0.0040639024 -0.0025466268 -0.0005836847 0.033724215
0000e0 d0 50 9d bc a6 84 a5 ba 64 bf a7 bc eb 7f 03 3d
       -0.019203573 -0.0012628033 -0.020477004 0.032104414
0000f0 3b da 82 3d 11 3a 12 3d 92 c2 e3 bc a1 a5 09 bd
       0.063892804 0.035699908 -0.02780274 -0.03360522
000100 ad 83 86 38 a9 c3 e7 bc 2c c2 0b 3d b0 4c 5e bc
       6.4141444e-05 -0.02829154 0.034120724 -0.013568088
000110 21 6b 83 bc 04 e2 8c bb 8b f7 24 3c 31 21 8f bb
       -0.016042294 -0.004299404 0.0100687845 -0.0043679704
000120 f9 d9 4e bd b6 dd 8e bd d7 59 9e bb 0d 9b 27 bb
       -0.050500844 -0.06975882 -0.004832487 -0.0025574595
000130 ac 0a 15 bd 28 87 ed bc e2 d9 4d 3d 5e 32 7c bd
       -0.03638713 -0.028995112 0.050256617 -0.06157147
000140 cb 87 c7 bd ca d2 33 3c 4d d6 61 3d ca 94 03 ba
       -0.09742697 0.010975549 0.055136014 -0.0005019425
000150 6c 23 49 3d b9 a7 61 3b 41 82 46 3b ad 85 dc 3a
       0.049106047 0.0034432246 0.003029004 0.0016824506
000160 c8 3b 02 bb a6 fc 4f bd 7c 12 40 3d 92 db 91 3c
       -0.0019872058 -0.050778054 0.046892628 0.017804895
000170 16 13 73 3d fe 0c 80 3d 4b 03 0b bc d8 b7 e8 3b
       0.059344374 0.06252478 -0.008484672 0.007101994
000180 40 94 8f 3d 6c c1 9f 3b e5 95 9d 39 8f c2 6a 3c
       0.07010698 0.0048753526 0.00030057054 0.014328613
000190 13 a4 58 bd fd c5 83 bd 15 1a 1b 3d 80 e8 56 3c
       -0.05289085 -0.06434248 0.03786667 0.013116956
0001a0 53 d4 5f ba b9 06 24 3c f7 81 08 bc 16 70 18 3b
       -0.00085384137 0.010011368 -0.008331767 0.0023260168
0001b0 d1 8a a8 bc fb 08 e7 bd 4e 39 1a bd d0 62 39 bb
       -0.020574005 -0.1128101 -0.037652306 -0.0028287657
0001c0 61 4b 37 bd 18 29 14 3d 6f eb 09 3c 45 a2 9d bd
       -0.04474962 0.036172003 0.008417948 -0.07696966
0001d0 c5 0d a6 bb 79 a6 71 3c 75 6a 70 bc eb e8 b7 3a
       -0.0050675594 0.014749163 -0.014673819 0.0014031207
0001e0 83 0c 98 bd 5f 77 1d 3c 00 5e 5c bd 1c 5c ce 3c
       -0.074242614 0.00961098 -0.053800583 0.025190406
0001f0 e0 0c 00 3c a3 7c 72 3c a5 c4 09 3d 33 6c 0e 3c
       0.00781557 0.0148002235 0.0336348 0.008692789
000200 e7 cd 3d 3a 06 68 49 39 15 e1 a7 bc 26 68 5b 3d
       0.00072404597 0.00019207606 -0.02049307 0.05356612
000210 4a a8 99 bc b6 f8 11 bd a0 4f 5c bd 7c 70 d6 bb
       -0.018757004 -0.03563758 -0.053786874 -0.006544171
000220 a8 e7 42 3d 09 74 c0 3c ce b0 4e bd 12 be fb 3c
       0.047584206 0.02349283 -0.050461583 0.030730281
000230 96 96 08 bd b1 dc 49 3d 9a da 0f bd c4 e4 80 bd
       -0.033346735 0.049282733 -0.035120584 -0.062936336
000240 9a dc 31 3d 0a 3f 0f 3d a5 70 3c 3a cc 83 86 3d
       0.043423273 0.034972228 0.0007188416 0.06568107
000250 c6 15 06 3b eb af 03 3d 03 2b 60 39 29 55 52 3b
       0.0020459755 0.03215019 0.00021378328 0.0032094216
000260 f5 9a 8c bd 86 aa 5c 3d 67 6c 59 3d b7 fb e2 bc
       -0.06865493 0.05387356 0.053081896 -0.027707918
000270 f5 6c e9 bc 5f 60 5c bc 4a 3d 47 ba 7e 35 db 3c
       -0.028494338 -0.013450711 -0.00076003803 0.026758906
000280 3c b6 54 bd 5c 14 b3 bb 37 1d db 3c 99 ff da bb
       -0.051931605 -0.0054650735 0.02674733 -0.0066833016
000290 d1 8f 9b 3b 8e 41 0d 3c 9d 45 6f 3c 23 c4 cc ba
       0.004747369 0.0086215865 0.014603999 -0.0015622418
0002a0 e6 ce 5e 3b ac 36 42 bd 8a 1e 2f bb 16 8b 6d bd
       0.0033997833 -0.04741542 -0.0026721084 -0.05799397
0002b0 5d 27 6d bd e2 35 81 3c ad 40 c4 bc 59 98 2f bb
       -0.057898868 0.015772764 -0.023956621 -0.0026793687
0002c0 ea 6b 16 bd c8 bb 87 3a aa 5c 33 bb d7 e2 64 bd
       -0.03672401 0.0010355646 -0.0027368465 -0.055880394
0002d0 cb 4a bd 3c e6 74 ed b8 d1 46 31 ba 75 9c 38 3b
       0.023106953 -0.00011322815 -0.00067625666 0.0028169428
0002e0 2c b5 c3 bb d1 47 0b bb 19 68 2f 3c 7a 78 6c 3d
       -0.005972525 -0.0021252523 0.010705971 0.057732083
0002f0 dc e2 10 3d 9f 4e f5 3b 39 30 a1 3c ab 5c 71 3d
       0.0353726 0.007486179 0.019676315 0.058926266
000300 bf 55 32 ba fa bb 5a bc de 14 ee 3c 0f 65 bb bc
       -0.00068029383 -0.013350481 0.029062685 -0.022875337
000310 3b ba b8 3c bc f1 42 3d be 2b 1a 3c e4 fb 0c bd
       0.02254974 0.047593817 0.009409843 -0.03441991
000320 63 a5 ff bc 8d eb b6 3c 8a f4 47 3c aa 95 9a 3c
       -0.031206792 0.022329116 0.012204299 0.018870194
000330 7e e1 c4 bc 1e b4 b1 bc 51 64 4a 3d e8 5a b8 bc
       -0.024033304 -0.021692332 0.049412075 -0.022504285
000340 6b b2 3e 3d c3 53 4f 3c 45 b8 a5 3d 00 dc 4b 3b
       0.04655687 0.012654248 0.08091787 0.0031106472
000350 18 01 61 3c a3 cc 5a 3a 52 c1 54 3c df 1f c0 3a
       0.013733171 0.0008346533 0.012985544 0.0014657936
000360 2e ba 61 3a a2 11 82 3d 52 4a 34 3a a2 59 e6 39
       0.0008610812 0.063510194 0.00068775297 0.000439358
000370 e9 3a 7a 3d 88 ab 5c 3d f6 da ed ba 71 ee f0 3c
       0.061091337 0.053874522 -0.001814692 0.029410573
000380 5a ae 86 bd 8a 3e 06 bb 6f f8 2b bc 40 6f 17 bd
       -0.06576224 -0.0020484054 -0.010496243 -0.03697133
000390 0f 6a 5f bd 26 bd 78 bd 86 cf ea 3c bc 77 ca bc
       -0.054544505 -0.06072726 0.028663408 -0.024715297
0003a0 bc 0f 17 ba 97 75 77 3d fd e9 db ba 9d 86 a3 3a
       -0.00057625375 0.060414877 -0.0016778108 0.0012476031
0003b0 8d 86 e0 3a 70 ee 60 3c ae dd e3 ba 23 fa 9e 39
       0.0017129943 0.013728723 -0.0017384791 0.00030322475
0003c0 da bd a5 bc 8e 08 54 3b 03 47 a5 3c 1a 25 cb 3c
       -0.02023213 0.0032353732 0.020175463 0.024797965
0003d0 37 a4 4c bb 67 bd ce 3c 91 00 35 3c 5a bb 87 ba
       -0.003122581 0.025236798 0.011047498 -0.0010355518
0003e0 a5 b1 80 bc a0 ac 86 3b 72 c9 af bd 3f 48 a3 bc
       -0.015709708 0.004109934 -0.085833445 -0.01993191
0003f0 74 6e 9f bc 70 90 d3 bb 20 33 4c bc 45 b6 15 bd
       -0.019461848 -0.0064564273 -0.012463361 -0.03655078

encoder.4.bias f4 [64]
000000 62 11 10 bc cd 7b 9d 3c 81 f7 27 3d 77 7b 21 be
       -0.008793207 0.019224072 0.041007522 -0.15769754
000010 d1 b9 e6 ba b3 2a 3a bc 5f d8 e3 3b 5f 56 b7 3c
       -0.0017602985 -0.011362719 0.0069532837 0.022380052
000020 82 c4 f2 bd ab f4 d1 bd 7f fa 80 bc 3a 76 df 3c
       -0.11853887 -0.10251745 -0.015744446 0.027278055
000030 2d 68 63 3d 28 06 14 be 54 51 c8 3b c7 fe b7 bc
       0.05551927 -0.14455473 0.0061132107 -0.022460354
000040 54 44 53 bc 08 ce 24 3c 6e ec 4b bb 75 ae 93 bc
       -0.012894709 0.010058887 -0.0031116265 -0.018027524
000050 60 25 01 3d f9 44 d5 bc a4 61 0b be dd 0f f9 bd
       0.031529784 -0.026033865 -0.13611466 -0.12161229
000060 66 da 0b be 8f 5a 15 3c 7e 7f 65 3d 7f 61 a3 3c
       -0.13657531 0.009115829 0.05602979 0.01994395
000070 b5 ca 35 bb 1c 7a 9f bc b6 c8 7d 3d 57 60 4d 3d
       -0.002773923 -0.019467406 0.06195899 0.050140705
000080 6d 17 7f 3d 6a 3f f8 bd cd cf ff 3c 2e 30 37 3d
       0.0622782 -0.1212147 0.031227017 0.044723682
000090 ea b4 2e 3a 74 b5 0c be 20 23 5f 3d 4a d4 89 3b
       0.00066645315 -0.13741094 0.054476857 0.004206215
0000a0 f9 38 2d 3d 53 4f 9f ba 84 bc 0a 3d f2 ac b3 bc
       0.04229066 -0.0012154378 0.03387119 -0.021933053
0000b0 7b b0 76 bc 63 8d dc bb d0 87 11 bd 78 0d cf bc
       -0.015056725 -0.006730722 -0.03552991 -0.025274977
0000c0 82 c4 9b bc 50 58 d4 3c 02 45 a8 3c f9 01 b4 3d
       -0.0190146 0.025921017 0.020540718 0.08789439
0000d0 24 8f 15 3c 9a 3f 12 bb f0 8c a3 3c b4 a3 07 3d
       0.009128366 -0.0022315742 0.019964665 0.033115104
0000e0 29 e6 92 3b 22 ab ee 3b 88 5c 04 3d d2 85 8f 3d
       0.0044830036 0.007283584 0.032314807 0.07007946
0000f0 0c 01 bc bc 87 7c 84 39 70 ee 28 3d b2 ed a9 bd
       -0.022949718 0.00025269782 0.041243017 -0.0829729

quantizer.embedding.weight f4 [64, 64]
000000 46 96 50 3d 50 70 31 3d 72 f5 09 3e 1f 7c 10 9a
       0.050924562 0.04332 0.13472536 -2.9878766e-23
000010 66 09 f6 3c 51 41 94 3d 22 9a d2 3c 47 c2 c2 3d
       0.030033778 0.072390206 0.025708262 0.09509712
000020 f0 f5 c6 88 9e bd 77 19 44 6a 16 3d f7 84 55 3d
       -1.1974511e-33 1.28078936e-23 0.036722437 0.05212876
000030 8c 6d 00 3e 90 aa 23 30 5c 05 dc 3d 7e 95 08 3d
       0.12541789 5.954144e-10 0.1074321 0.03334569
000040 df 02 5c 3d 42 af ad 3d 1a 1c 94 3d c7 2b 70 3d
       0.053713676 0.084806934 0.072319224 0.0586355
000050 4e 86 64 3d e4 ee 15 3d 84 0b 00 00 c0 8a cd 86
       0.055792145 0.036604777 4.131e-42 -7.7316304e-35
000060 e0 7c 06 80 4b 56 7b 3c 8d c8 f0 3d 48 92 17 3d
       -5.9581e-40 0.015340398 0.11757002 0.03700474
000070 3e 50 c2 3d c3 d1 0c 3d ac 36 2f 3d d0 cd 8b 3d
       0.09487961 0.034379732 0.04277675 0.06826365
000080 25 74 27 3d d5 52 f5 a3 cb 1a 86 3d cd dc d6 3d
       0.04088225 -2.6598034e-17 0.06548079 0.10491333
000090 ad 82 74 3c 06 20 26 3a c4 9d 47 3d 19 41 50 3d
       0.014923734 0.00063371693 0.04873444 0.050843332
0000a0 84 6a b2 3d 4b a3 8d 3c d7 e2 14 3d b5 96 f3 3b
       0.087117225 0.017289778 0.036349144 0.007433737
0000b0 24 ce 6b 3c db 00 ce 3d fb 1f 51 3d 1c 6d 44 3c
       0.0143924095 0.10058757 0.05105589 0.011988904
0000c0 e1 cb 6d 3c 57 93 0c 3c f6 f0 10 3d e9 62 c3 3d
       0.014513941 0.00858005 0.03538605 0.0954035
0000d0 81 36 0f 3d 94 8e c4 3d b5 6d c1 3d 8a 72 ed 3c
       0.03496409 0.09597507 0.09444753 0.02898528
0000e0 73 02 9a 3d 0a db 10 3e 2d f9 83 3d 7c 67 22 3e
       0.075199984 0.14146057 0.06444011 0.15859789
0000f0 db ea d3 3d 3a 22 77 3d 4a 17 c8 3c 8d dc 62 a4
       0.103475295 0.060335375 0.024425168 -4.9192752e-17
000100 5a a1 06 3d 16 01 fd 3c 21 bd 98 3d 6e de b5 23
       0.03286872 0.030884307 0.074579485 1.9718262e-17
000110 6b d2 96 3c 24 ca db 3c 9c 1b 0f 3d 16 20 bc 3d
       0.018410882 0.026829787 0.03493844 0.091858074
000120 97 2c 5f 2e 78 fd 81 a6 35 72 a6 3c a6 34 81 3c
       5.0743933e-11 -9.019876e-16 0.02031813 0.015772175
000130 67 d2 b2 3d c8 06 e3 a6 20 4c 93 3d 1f c2 90 3d
       0.08731537 -1.5753127e-15 0.07192254 0.07068276
000140 bb 9d b5 3c a5 c3 39 3d 79 a0 1a 3d 31 56 9d 3c
       0.022169938 0.045352597 0.037750695 0.019206138
000150 07 08 03 3d e5 4a 28 3d 95 2c f7 2d 32 e9 c4 1f
       0.031990077 0.04108705 2.8100447e-11 8.339502e-20
000160 5e 26 1b aa c7 f8 8c 3c d6 34 74 3d ba b3 01 3b
       -1.3780077e-13 0.01720847 0.0596207 0.0019790963
000170 56 7a fd 3c e1 94 8e 3d 5e 16 5c 3d ae 93 07 3d
       0.030942123 0.0696199 0.05373227 0.033099823
000180 04 f8 aa 3d 4d d2 31 17 54 94 94 3d 57 f6 cd 3d
       0.083480865 5.745722e-25 0.07254854 0.10056751
000190 8f af 41 3d 40 1f 5e a6 92 5b 80 3d a5 fd a7 3c
       0.047286566 -7.7064074e-16 0.06267466 0.02050669
0001a0 cf 8d 8d 3c e1 e8 37 3d e3 1e 02 3d c8 78 4f 3c
       0.017279534 0.044899825 0.031767737 0.012663074
0001b0 97 18 bc 3c 8a 96 9f 3d 78 b2 3a 3d d9 eb 04 3d
       0.022960944 0.07792385 0.045580357 0.032451484
0001c0 df b3 0d 3d 96 94 11 3d d5 64 99 3c 07 32 32 3e
       0.034595367 0.035542093 0.018724838 0.17401896
0001d0 1f 18 dd 3d c4 eb 14 3d 59 4d 48 3d 12 1a 88 3d
       0.10795616 0.036357656 0.04890189 0.066455975
0001e0 75 f3 99 3d 46 84 87 3d dd 63 64 3d ce 0a 1e 3e
       0.07517139 0.06617026 0.0557593 0.15433809
0001f0 1b 05 a6 3d da 4f e7 3c 28 6e 18 3c 9b db 9b 26
       0.081064425 0.028236318 0.009303607 1.081481e-15
000200 ad a2 83 3d d1 90 db 3c 10 b2 69 3d 92 f2 5c b4
       0.06427512 0.026802452 0.05705458 -2.0577343e-07
000210 1c 2c 0d 3d 97 78 63 3c ab 0f 3d 3d fd 34 9b 3c
       0.034465894 0.013883731 0.04615752 0.018946165
000220 3c 77 de 8e 90 20 c2 36 71 38 04 3d c4 dc 6a 3c
       -5.4842044e-30 5.7854413e-06 0.03228039 0.014334861
000230 65 de d5 3d 02 53 bc 2e bb 41 12 3d 03 f6 0d 3d
       0.10442809 8.563995e-11 0.035707217 0.034658443
000240 b8 5f f7 3b 87 9a 66 3d b4 8a d2 3c 25 5e 90 3c
       0.0075492524 0.056299713 0.025700904 0.017623017
000250 eb d2 0b 3e d7 fb 94 3c 6e 10 03 9f 6a b4 84 35
       0.13654678 0.018186493 -2.775392e-20 9.887274e-07
000260 fa a7 f5 ac c4 44 69 3d 5a eb f8 3d 3e f7 e4 3c
       -6.981968e-12 0.056950346 0.12154265 0.027949926
000270 cb e8 a3 3d 00 6e 78 3d 36 89 49 3d a0 a7 e2 3b
       0.08003386 0.06065178 0.04920312 0.006916955
000280 1b 8b 09 3e 7b a7 d0 35 64 0b 3a 3d a4 af 01 3d
       0.13431971 1.5545951e-06 0.04542102 0.031661645
000290 a2 ce 3d 3d 40 77 d9 b3 7f 0a 03 3d 04 54 75 3c
       0.04633964 -1.01265414e-07 0.03199243 0.014973644
0002a0 52 fa 77 3d 87 86 fa 3c 86 2a 4a 3c a6 c4 22 3d
       0.06054146 0.030581726 0.01233924 0.03973832
0002b0 39 00 82 3c ca 2b 85 3d 7c 95 8a 3c d1 f5 71 39
       0.015869247 0.06502493 0.016916983 0.00023075125
0002c0 4a b2 78 3d a9 eb 0b 3e 8d 88 86 3d d2 18 c7 3d
       0.060716905 0.13664116 0.06569014 0.09721531
0002d0 61 6d 88 3d f2 1a 04 3d 03 fd a5 3d 2c 79 69 3d
       0.06661487 0.03225226 0.08104899 0.057000324
0002e0 f8 18 7d 3d 34 de 3e 3d da 86 5d 3d e8 04 14 3e
       0.06179139 0.04659863 0.054083683 0.14454997
0002f0 cd 3a 3d 3d 20 6f 34 3d 7e 97 08 3d 48 3d 2d b3
       0.046198655 0.04405129 0.0333476 -4.0335436e-08
000300 f1 99 3f 3d b8 3e 2d 3d fa 74 f6 3d da 28 95 b6
       0.04677767 0.04229614 0.1203403 -4.445302e-06
000310 eb 1a cd 3c fa e4 1a 3d 89 6c ac 3d 51 ba db 3d
       0.02503725 0.037816025 0.08419139 0.107288964
000320 ca af c0 15 24 7b b4 b8 1d a7 49 3d bb cc 35 3d
       7.782553e-26 -8.6060056e-05 0.049231637 0.0443847
000330 3c 80 c6 3d ca ee d7 b1 fc ca 98 3d 9b dc 88 3d
       0.096924275 -6.2844707e-09 0.07460591 0.06682702
000340 a0 fd 00 3d 34 fc 48 3d 8c e8 5c 3d 70 f2 fe 3c
       0.031491876 0.049068645 0.05393271 0.031121463
000350 a4 8b 41 3d 63 94 26 3d 6c 90 01 27 bf ee bf 1e
       0.047252312 0.040668856 1.7980638e-15 2.0321655e-20
000360 41 46 c8 88 f2 dc 14 3d 9a 88 fc 3d 10 62 06 3d
       -1.2053579e-33 0.036343522 0.12330742 0.032808363
000370 63 1c 2b 3d a1 71 82 3d 16 44 f2 3c 95 20 b8 3d
       0.04177512 0.06369329 0.029573482 0.089905895
000380 4b 2b 8b 3d f7 d9 29 31 17 51 86 3d dc 81 8b 3d
       0.06795367 2.4716635e-09 0.065584354 0.06811878
000390 a0 0b ee 3c 2a 2c 07 3b b1 18 af 3d 91 50 5e 3d
       0.029058278 0.002062569 0.085496314 0.054276053
0003a0 34 cb a9 3d ef de 26 3d ba 55 67 3d 6b 71 45 3d
       0.08290711 0.04073995 0.05647824 0.048203867
0003b0 17 e0 8f 3d f3 eb 2d 3d 90 f9 97 3d 5b 9b 64 3d
       0.070251636 0.042461347 0.07420647 0.05581222
0003c0 f1 2a f6 3c e5 c0 b4 3c c2 da 16 3d 44 2e b7 3d
       0.030049773 0.022064636 0.036829717 0.08944371
0003d0 11 d2 e2 3d b4 40 8e 3d 67 e0 9e 3d e6 12 81 3d
       0.11075223 0.06945935 0.07757645 0.06302433
0003e0 4d 39 03 3e f9 cd a5 3d 7f 5e 50 3d 1c 1d d3 3d
       0.12814827 0.08095927 0.05087137 0.103082865
0003f0 71 a8 62 3d 78 39 22 3d a9 7c 02 3d 8f 7c 01 00
       0.05533642 0.039605588 0.031857166 1.36519e-40

decoder.0.weight f4 [128, 64]
000000 cf da bd 3d 21 45 79 bd ab 4f e4 bd 80 fa cb 3d
       0.0927025 -0.060856942 -0.11148008 0.099598885
000010 80 b0 f7 3d 45 93 49 3d bd ed 1b 3d ef 01 bc bc
       0.120942116 0.049212713 0.03806852 -0.02295014
000020 b6 91 2c bc 93 0f 2f 3c 59 65 64 3c 00 d9 66 3d
       -0.010532787 0.0106848655 0.013940179 0.05635929
000030 a0 9e 72 bd b5 80 a1 3d 93 7f 93 3d 1e 0f d8 3d
       -0.059233308 0.07885877 0.07202067 0.105497584
000040 2a 81 ab 3d 0a a6 ae bc 92 32 b3 bd 37 70 4f bd
       0.083742455 -0.021319408 -0.0874988 -0.050644126
000050 c4 d6 50 bd bd 5e 99 bb 74 8b f9 3c 70 29 27 3d
       -0.050986066 -0.004680483 0.030462004 0.040811002
000060 75 48 d6 bc 3d c4 00 be 1c 8f c1 3d 5e ed a3 3c
       -0.026157597 -0.12574859 0.09451124 0.020010646
000070 3d b3 6d 3d c8 64 41 3d 54 9a 38 3d 3c 09 7e bd
       0.058032263 0.047215253 0.045069054 -0.062020525
000080 45 46 7c bd 06 b5 af 3a f8 58 e6 3d ee b2 39 bd
       -0.06159045 0.001340539 0.11247438 -0.045336656
000090 b2 27 93 bd 1c fb 24 bc 01 d4 f6 3c 86 e2 1f 3d
       -0.07185306 -0.010069635 0.030130388 0.03903439
0000a0 9f af 9f 3d 88 99 ea bd e4 92 9c bd 42 1e 09 3d
       0.07797169 -0.11455065 -0.07645205 0.03347612
0000b0 94 95 8c 3d b4 a6 69 3d c8 93 c0 bd 62 3c e2 3d
       0.06864467 0.057043746 -0.09403187 0.11046673
0000c0 bf 35 61 3d 68 1e 37 bb 63 ca 6f 3c 94 48 ea bd
       0.054982897 -0.0027941708 0.014635655 -0.114396244
0000d0 8f 63 bb bd 56 ac 22 3d 99 a4 c1 3d d1 34 66 3d
       -0.09149849 0.039715134 0.09455223 0.056202713
0000e0 cc 2d b5 bd 68 32 90 3d 84 a6 6d bc 8f fe 61 bd
       -0.08846626 0.07040864 -0.014505032 -0.055174407
0000f0 f9 69 e4 3d 41 34 6f bd fa 77 3c 3c f7 3a 97 3d
       0.11153025 -0.058399443 0.011503214 0.073842935
000100 70 d7 09 3c cc 49 37 3d 84 80 43 bd 32 7f d6 bd
       0.008413181 0.044748113 -0.047729984 -0.10473479
000110 40 7d 69 bd 10 f9 e7 3d f2 0f b4 bd 3c a1 e6 bd
       -0.057004213 0.11326802 -0.08792104 -0.11261222
000120 a0 22 13 bc c8 73 17 bd ca 6a f3 bd 06 ca bc 3d
       -0.008980423 -0.036975652 -0.11885603 0.092182204
000130 bc 5d f3 bd da 54 98 bd 90 b7 14 3c 32 ac 80 bd
       -0.11883113 -0.07438059 0.009076968 -0.06282844
000140 f8 d4 d7 3d 0c 53 43 bd b6 c1 f9 bd b0 47 c2 bc
       0.105386674 -0.04768662 -0.121951506 -0.023715824
000150 3e 4d 80 3d 2c e1 f4 3d 80 65 e0 ba 34 40 95 3d
       0.06264733 0.119570106 -0.0017120093 0.072876364
000160 08 81 0c 3d ee 57 b7 3d 58 f3 e8 3d fe 25 de bd
       0.03430274 0.08952318 0.11374539 -0.1084709
000170 18 e0 fa 3c 08 06 61 3d 48 76 d3 3c c4 cb 19 3d
       0.030624434 0.054937392 0.025813237 0.03754784
000180 90 0c a8 bc c0 f4 a0 3c 22 e2 af bd 80 7c b7 3a
       -0.020513803 0.019647956 -0.08588053 0.0013998896
000190 80 f8 97 bd b2 a1 ee bd 44 37 4d bd 62 76 c7 bd
       -0.074204445 -0.11651935 -0.050101534 -0.097393766
0001a0 54 a6 c6 bd 0a 11 8d 3d 40 88 c2 3b 74 82 e0 bd
       -0.09699693 0.068880156 0.0059366524 -0.10962382
0001b0 ac c9 b5 bd 9c 41 79 bd b0 cb 86 bc fc f4 09 3d
       -0.088763565 -0.060853586 -0.016454548 0.0336809
0001c0 b2 40 d9 3d 00 2e 4a 3a de da a5 3d 00 98 e9 3d
       0.10608043 0.0007712543 0.08098386 0.11405945
0001d0 00 1f 7d bb 94 3e f3 3d cc 96 0b 3d b8 80 30 3d
       -0.0038623214 0.1187717 0.034079358 0.043091506
0001e0 a0 5b ec 3b 48 de 51 bd 10 cd f1 3c 7e 93 f6 3d
       0.007213071 -0.051237375 0.029516727 0.12039851
0001f0 b2 9d df 3d 20 96 e4 3d 80 c4 e8 3a a8 fc af 3c
       0.1091875 0.111614466 0.0017758757 0.02148278
000200 e5 7c 21 bd 91 c1 6d bd e7 7c 8e bd c4 c5 c7 bb
       -0.03942575 -0.058045927 -0.06957417 -0.0060965735
000210 d1 91 8a bc 58 00 18 3d 12 11 16 3d 12 0d 91 3c
       -0.016915234 0.037109703 0.036637373 0.017706428
000220 ee d0 03 be 47 74 cc 3d 5f 52 26 3a 87 5f 4c 3d
       -0.12872669 0.09983116 0.0006344672 0.04989579
000230 52 1c 09 bd 2d a4 c0 bc 02 94 04 3e 61 dc dd 3b
       -0.033474274 -0.023515785 0.12947085 0.006770656
000240 71 87 cd 3b bd 29 5c bd bc 7c f8 3d 9b 86 35 bd
       0.0062722494 -0.053750742 0.12133166 -0.044317823
000250 23 3a 7b bd 6e 37 de bd ad 3d de 3b 42 07 18 bc
       -0.06133474 -0.10850416 0.0067822547 -0.009279074
000260 b9 77 4b 3c 6e 3d ad b9 66 27 1e 3e 85 04 ac bd
       0.012418681 -0.000330429 0.15444717 -0.083992995
000270 51 00 48 bd 12 66 ec 3d 53 73 d0 bd 74 07 a1 bb
       -0.048828427 0.11542906 -0.10178246 -0.0049142186
000280 65 c6 c7 3c f1 38 05 bd fa dd b7 3d f4 45 76 3d
       0.024386594 -0.032525007 0.089778855 0.060125306
000290 bb 56 bf 3d 2c 4b 82 bd 5a 70 f3 bc 9c 58 ae bd
       0.093427144 -0.06361994 -0.02971666 -0.08512995
0002a0 4b fb 12 3d bd 9d ea 3d 72 15 12 be ca ed 7b bd
       0.035884183 0.114558674 -0.14265993 -0.06150607
0002b0 0e 99 b8 3c 72 20 08 3d c2 41 50 bd 33 5d 34 bd
       0.02253392 0.033234067 -0.05084396 -0.044034194
0002c0 52 dd 4d 3d d6 b9 f5 3d af 9a c2 bd 17 2c 85 3d
       0.050259896 0.11998336 -0.0950216 0.0650255
0002d0 75 76 1c bd 58 55 20 3d 7a e8 e2 3d ff 40 d3 bd
       -0.038198907 0.03914389 0.11079498 -0.103151314
0002e0 0f ca d2 3c 89 e4 85 3d 39 5a 19 3d 94 12 6e 3d
       0.025731115 0.0653773 0.03743956 0.058123186
0002f0 02 16 44 3e 47 5c 19 3c b9 90 e1 bc c3 47 81 3d
       0.1914902 0.00936038 -0.02753483 0.063125156
000300 30 ee c2 bd ce 8f da bd 76 1e e3 3d 64 e9 41 bd
       -0.09518087 -0.1067196 0.11089794 -0.04734172
000310 75 9d ff bd f8 e5 4f bd 2d ea ec 3c 73 77 c7 3d
       -0.124812044 -0.050756425 0.028920257 0.0973958
000320 b4 c4 e3 bd 00 f1 1d 3c 78 ac fb 3d ac c1 8f 3d
       -0.111215025 0.009639978 0.12288755 0.07019362
000330 e3 9d 0b bd c4 38 51 bd 39 3a d7 bd ff 32 f0 bd
       -0.03408612 -0.051079527 -0.10509152 -0.11728477
000340 89 2c a6 ba f7 16 8f 3d 52 50 a3 3c 8b f4 b5 3d
       -0.0012678067 0.06986802 0.01993576 0.088845335
000350 69 b0 6b 3d 5b fe d6 3d 90 28 f5 bc 00 9e a3 bd
       0.057541285 0.10497733 -0.029926568 -0.079891205
000360 1a c8 8d 3d 8f 55 ee bd ca 96 aa 3d 85 26 a9 bd
       0.06922932 -0.11637413 0.08329542 -0.082593
000370 fa db 8f bd d7 bc 91 3d 30 99 b7 3d f6 19 d4 bd
       -0.07024379 0.071160965 0.08964765 -0.10356514
000380 ac df 8b bd bc ad ab 3d 21 3a 58 3b c6 e9 a1 3d
       -0.068297714 0.083827466 0.0032993632 0.07905917
000390 8a d3 be bc 64 ce eb bd 4c ef 9f bd e3 46 c7 3d
       -0.023294229 -0.11513975 -0.07809314 0.097303174
0003a0 ba c9 27 bd 4a 26 42 3d d1 76 af 3c c7 8f 2a bd
       -0.040963866 0.047399797 0.02141896 -0.041641023
0003b0 f0 46 cb bd 11 8e f8 3c e3 ce 16 bd 83 3e ae 3d
       -0.0992564 0.03034118 -0.036818396 0.08508017
0003c0 cc a4 37 bd 1d e9 b2 3b 75 7e 03 bd a9 ed 5e 3d
       -0.044834897 0.005459918 -0.03210302 0.05442587
0003d0 04 02 1e 3d c6 3d bd 3c e7 1d aa 3c 07 8c 03 bd
       0.03857614 0.023100745 0.020766212 -0.032115962
0003e0 de 1e 63 3d cc 52 11 3c 50 03 86 3b 37 0c a5 3d
       0.05544936 0.008869838 0.0040897503 0.080589704
0003f0 20 c2 7c 3c 08 ea 09 bc 01 d5 f5 3c 92 3e c9 bd
       0.015427142 -0.008417614 0.030008795 -0.098263875
