papers/euromlsys/rl-manager/mnt/autoencoders/AE_10hosts_64_BN.pth (torch, 245124 bytes, 20 tensors)

encoder.0.weight f4 [128, 161]
000000 16 e6 57 bd 0f 3f 51 3d f2 e9 79 bd f2 39 cc bc
       -0.05270966 0.051085528 -0.061014123 -0.024929974
000010 e3 e1 61 bd 43 12 3a bc 55 f2 73 3d b6 3f 96 3d
       -0.055147063 -0.011356893 0.059557278 0.07336371
000020 2d 34 76 3d 57 8b 68 3b 2b 91 df bc 14 95 78 3d
       0.060108352 0.0035483444 -0.027290901 0.060689047
000030 93 be 43 3d 3f 19 79 3d a7 a8 44 bd db f6 03 bd
       0.047789168 0.060815092 -0.048012402 -0.03221784
000040 e2 75 a4 bc 77 87 83 3c b6 62 d6 bc d2 97 92 3d
       -0.020075742 0.016055806 -0.026170116 0.07157864
000050 18 92 ea bc 92 5e 22 3d 2e 1b 60 bd c8 9a 89 bc
       -0.028634116 0.03964097 -0.05471342 -0.016797438
000060 34 ce 71 bd 5e e8 9e 3d 7a f6 14 3d 7c 53 1f bd
       -0.05903454 0.07759164 0.03636787 -0.038897976
000070 41 db 50 3d 08 6c 87 b9 83 d7 10 bd 87 c6 71 bd
       0.050990347 -0.00025829696 -0.035361778 -0.05902722
000080 d2 94 d2 bc 44 25 26 bd f0 12 b7 bc b8 66 65 bd
       -0.025705729 -0.040562883 -0.022347897 -0.056006163
000090 fe 31 c8 bc 37 f0 2f 3d 26 84 41 3d 5d ef a8 3c
       -0.0244379 0.042953696 0.047245167 0.02062195
0000a0 7c 1f 8a bd 9b c2 9b 3c 07 09 37 bc df d1 81 3d
       -0.067442864 0.019013694 -0.011171586 0.06338858
0000b0 72 67 a1 bc 25 f8 64 bc cd a3 ff bc d4 a5 9e bd
       -0.019702647 -0.013975178 -0.031206036 -0.07746473
0000c0 59 b7 c4 bc 11 35 0e 3d de 2b 3e bd d8 a6 b8 3c
       -0.024013208 0.034718577 -0.046428554 0.022540495
0000d0 9f 1f 9f bd c2 f3 c4 3c cf 30 83 bd dd 41 8a 3d
       -0.07769703 0.024042014 -0.06405794 0.06750844
0000e0 4a 78 9e bd f8 19 3d bd 57 f8 db bc 16 85 83 3d
       -0.07737787 -0.046167344 -0.026851816 0.064218685
0000f0 66 f0 28 3d d3 6f e4 bc bf 4a 81 bb 1b 3d a2 bb
       0.041244887 -0.027885353 -0.003945678 -0.004951132
000100 18 07 87 3c 5c 26 8d bd 76 42 ad 3b 37 c2 6c 3d
       0.016482875 -0.06892082 0.005287464 0.057802405
000110 60 37 ed b9 25 ba f6 3c 0b 8c 92 bd d8 84 99 bd
       -0.0004524542 0.030118058 -0.07155617 -0.07496041
000120 d5 29 9c bd 88 78 c6 3a e0 97 00 3d 50 55 20 bd
       -0.07625166 0.0015142122 0.03139484 -0.03914386
000130 ec 6c dd bb 18 51 22 3d 91 a6 16 bd e8 d6 d1 3c
       -0.0067573693 0.03962812 -0.036779944 0.02561517
000140 b6 20 06 3b 70 fe 22 3d 8e 0a 05 3d f5 f7 43 ba
       0.0020466275 0.03979343 0.03248077 -0.0007475608
000150 f9 e6 7e bd 27 20 18 bd 02 7d 4a bd 76 cb 85 3d
       -0.06223199 -0.037140038 -0.049435623 0.06532948
000160 95 99 e9 3c aa 9b 86 3d b2 6c 98 3d 10 46 39 bd
       0.028515616 0.06572659 0.07442607 -0.045232832
000170 2e 42 92 bc a6 7e af 3c ab e7 0f 3c 6b 30 a0 3c
       -0.017853823 0.021422695 0.008783261 0.019554337
000180 64 3b 78 3c b9 d4 54 bd 37 06 96 bd ff 11 aa 3c
       0.015150879 -0.05196068 -0.07325404 0.020760534
000190 56 68 5a 3d 0c a5 74 3d 3d a7 99 3d 57 85 b2 3b
       0.05332216 0.059727713 0.07502601 0.0054480243
0001a0 1f 06 94 3d 5f 48 4f 3d 22 8d 10 3d c6 28 20 3c
       0.0722773 0.050606128 0.035290845 0.009775346
0001b0 45 82 9b 3d cf 20 71 3d 0d 62 82 3b aa a9 de bc
       0.07593206 0.05886918 0.0039789737 -0.027180512
0001c0 fb 9f a7 3c 3b b1 81 bd 89 98 b9 3c dd c9 08 3d
       0.020462027 -0.06332632 0.022655742 0.033395637
0001d0 4b a4 97 bd 3c b1 90 3d d0 d2 81 bc 84 e6 76 3d
       -0.07404383 0.07065055 -0.015847594 0.06027843
0001e0 d4 fd 12 3d 51 18 98 3d e3 88 f6 bc 4c a7 a4 3b
       0.0358866 0.07426513 -0.03009457 0.005024826
0001f0 5e 32 2c 3c 8e cc 1a bb 0c 93 82 3d a1 4c 49 bd
       0.010510055 -0.002362046 0.06375703 -0.049145345
000200 83 9d 2a 3c de 4b 3c 3c 12 eb 22 3d 7e 95 5c 3d
       0.01041353 0.0114926975 0.03977496 0.053853504
000210 04 27 23 bb 64 ee 49 3d 89 b7 7f 3d 7e 1f 3e 3d
       -0.0024895081 0.049299613 0.062430892 0.046416752
000220 51 72 9a bd 17 5b 8a bd 19 be ef bc c2 32 7a bc
       -0.075413354 -0.06755655 -0.02926545 -0.015270891
000230 98 c7 2c bd 3e fc 0d bd 9d 73 88 bc 04 92 99 bd
       -0.042182535 -0.034664385 -0.016656691 -0.074985534
000240 53 d5 15 bd 68 9c 49 3b 65 78 15 3d 4c e3 60 3d
       -0.036580395 0.0030763391 0.03649177 0.054904267
000250 f5 48 6e 3d 6d 5f 70 3c 8d 9f a5 bb e6 03 ea 3c
       0.058175046 0.014671189 -0.0050544203 0.028566312
000260 5d 15 0f 3c 2f 32 91 bc 7a c8 7b bc 53 5e 05 bc
       0.008733121 -0.017724125 -0.015367622 -0.008140164
000270 0f b5 f8 bc 27 ca e7 3c d6 1a 3d 3d c6 c5 9c 3d
       -0.030359773 0.028294636 0.04616817 0.0765491
000280 91 4f 51 3d 27 87 7b bd ba cd 08 bd 4e c9 41 bc
       0.05110127 -0.06140819 -0.03339932 -0.01182778
000290 f7 03 8c bd 77 2e 74 3d ca ef 3f 3d b2 96 97 3d
       -0.06836694 0.059614625 0.04685954 0.0740179
0002a0 38 e0 b7 bc 2c bd 8f 3d 7c 8e bc bc 4f 77 7c bd
       -0.022445783 0.070185035 -0.02301716 -0.06163722
0002b0 b0 21 2b 3d b7 9b 15 3d cb fa 09 bb ff df cd 3c
       0.041780174 0.036525454 -0.0021054025 0.025131224
0002c0 2b 55 ff bc ca 90 d8 3c 45 5e bc ba b5 64 79 bc
       -0.031168541 0.026436228 -0.0014371356 -0.015221764
0002d0 de e3 ca bb 74 f7 91 3d 30 50 12 3d 9a 9c 0a bd
       -0.0061917147 0.07127276 0.035721004 -0.033840753
0002e0 30 7d 7a bd cc b7 78 bd 22 7b 7c bd b6 ba dc 3c
       -0.061154544 -0.060722157 -0.061640866 0.0269445
0002f0 6a c8 39 3c 77 47 41 3b e7 f7 63 3d b6 24 8f 3d
       0.011339286 0.002949206 0.05565634 0.06989424
000300 55 58 18 3d 69 b8 7a 3d c1 0e 9c bc e1 29 6d bd
       0.037193615 0.061211023 -0.019050004 -0.057901267
000310 c7 00 55 bd 73 91 ca 3c 7b df 93 3d 17 49 bc bc
       -0.052002694 0.024727559 0.0722036 -0.02298407
000320 89 85 46 bc fa 84 ad 3b f4 f9 58 bd d3 32 a0 bc
       -0.012116798 0.005295393 -0.05297275 -0.019555485
000330 b0 c2 d3 bc d9 db 49 bc b5 34 3b bd 6d ab da bc
       -0.02584967 -0.012320482 -0.045704562 -0.02669307
000340 37 c4 9f 3d 84 5a 55 3d 25 79 a9 3c 77 e3 93 bc
       0.07801097 0.052088276 0.020687649 -0.0180528
000350 79 64 83 3d d2 8e 1d 3c f0 4c 13 bd 22 ec 9d bd
       0.06415648 0.009616571 -0.035962045 -0.077110544
000360 7a 73 30 bd 32 89 3f bd 13 18 80 bc 2e 87 17 bd
       -0.043078877 -0.0467617 -0.01563648 -0.03699415
000370 6a 42 14 3c e5 73 9a 3d 4d 55 91 bd 64 4d 95 bd
       0.0090490375 0.075416364 -0.07096348 -0.07290152
000380 3d 76 fb bc 29 6f 81 bd f7 77 71 3d 6b 78 22 bd
       -0.030696029 -0.0632003 0.058952298 -0.03966562
000390 e7 67 7c bd 0b f6 1e bd ae b3 81 bd fb c6 4a 3d
       -0.061622526 -0.038808864 -0.06333099 0.04950617
0003a0 41 a2 f2 3c 02 7a 84 3c 28 6d 71 bc 19 d7 89 bd
       0.029618384 0.01617146 -0.0147354975 -0.0673048
0003b0 b3 19 b4 bc 4d 0a 8e bd b1 f2 90 3d 21 14 0c 3d
       -0.02198491 -0.069355585 0.0707754 0.034198884
0003c0 a4 7b 85 bd 19 a3 79 bd 98 bc 7c 3d a8 81 72 3d
       -0.06517723 -0.060946558 0.061703295 0.05920568
0003d0 da 2a 3a bc d7 43 1a bd 08 5b e6 bc 02 0e 3d 3d
       -0.011362756 -0.037662353 -0.028119579 0.046155937
0003e0 22 7e 58 3d 4b de 0f 3c 9c ce 65 3d 13 54 71 bd
       0.052854665 0.008781026 0.05610524 -0.05891807
0003f0 fa ce d5 bc 3a 16 8c bd d5 67 47 bd 26 6d 05 bd
       -0.02609967 -0.06840177 -0.048683006 -0.032574795

encoder.0.bias f4 [128]
000000 e3 a3 d5 3c 9d 20 6a bd 31 3d a1 bd ae 68 11 bd
       0.026079124 -0.05716001 -0.078729995 -0.03550022
000010 dd 3d 12 3e fc e5 1c bd ab df 5d bd 7a 3e 64 3e
       0.14281411 -0.038305268 -0.054168385 0.22289458
000020 b3 07 d8 bc f3 63 00 bd ec 09 77 3e 33 01 06 3e
       -0.026370859 -0.03134532 0.24124879 0.13086395
000030 a8 67 88 bd a4 f0 6b 3e 0f d9 60 bd 9d 81 96 bd
       -0.06660396 0.23041016 -0.054894503 -0.073489405
000040 93 46 e9 bc df ca 85 bd 46 be 19 3c a1 34 59 bd
       -0.028476035 -0.06532835 0.009383744 -0.053028706
000050 26 9b a0 bd 05 52 92 bb 76 5f 30 3e b4 3e 09 3e
       -0.07842092 -0.004465344 0.17223915 0.13402826
000060 04 2a 59 bd d9 69 82 3e ac 7b 82 3d f3 fb 44 3d
       -0.053018585 0.2547138 0.06371245 0.04809184
000070 8e bb 89 3e 67 93 91 3d dd c4 8c 3e e2 5e b5 bb
       0.26900905 0.07108193 0.27493945 -0.0055349926
000080 03 25 4f 3e 65 f0 b0 3c 0a 7e 8f 3c 1e 6e 2c 3e
       0.20228963 0.021599004 0.017516155 0.16838881
000090 7f 0f 3b 3e 98 db ef 3d 61 20 39 bd e1 1e 5c bc
       0.1826763 0.11711806 -0.045196895 -0.0134350965
0000a0 c1 dd 22 bd d7 80 9c bd 70 9a 84 3a 0e 63 f7 3d
       -0.039762262 -0.07641762 0.0010116827 0.1207944
0000b0 a6 a2 9e bd 86 dc 90 3e a4 d9 24 3e c9 f6 f8 bc
       -0.077458665 0.28293246 0.16098648 -0.030391114
0000c0 7e 9c b3 bc 40 c9 97 3d 61 ce 8a 3e d2 17 3f 3e
       -0.021925207 0.07411432 0.2711058 0.1866143
0000d0 85 79 42 3e 84 70 6d 3e 6a 0b 02 3e dd 4e 9d 3d
       0.18991669 0.23187453 0.12699667 0.076810576
0000e0 94 bf a0 3d cf d7 bb 3d da 4e 72 bd 2b 37 c3 3d
       0.07849041 0.091720216 -0.05915723 0.09532007
0000f0 01 f1 51 bd f8 bd 3a 3e 6a 6a 71 3e c7 43 8e 3e
       -0.05125523 0.1823653 0.2357575 0.27786085
000100 9a cd 02 3e db c1 97 bd a9 7f d0 3d 60 82 1a bd
       0.12773743 -0.07410022 0.10180599 -0.03772199
000110 96 6b ef 3d d4 6e 80 bd 1d 0f 77 3e 53 35 f8 bb
       0.11690442 -0.06271139 0.24126859 -0.007574716
000120 c7 65 9c bd 63 22 3a 3e de 6b d8 3d 24 e8 10 3d
       -0.076366 0.1817718 0.10567449 0.035377637
000130 9c cd 2e 3e e3 d8 06 3e ce 84 5e 3d b6 f4 84 bc
       0.17070621 0.13168673 0.05432587 -0.016229969
000140 a5 86 3d bc 3b 89 64 bd d6 ec 12 bd bd 47 7d bd
       -0.011567746 -0.055794936 -0.035870396 -0.061835993
000150 1f 83 33 3e a0 e6 cb bd 64 92 05 3d 09 84 76 3e
       0.17530487 -0.099560976 0.032610312 0.24073805
000160 c9 d9 be bb 73 ca b3 3d 34 84 99 bd 9a 2e 18 bd
       -0.005824302 0.087788485 -0.07495919 -0.037153818
000170 75 d0 73 bd 97 fd 0a 3e b8 35 a0 bd 49 8c 0e bd
       -0.059524972 0.135733 -0.07822746 -0.034801755
000180 2b 6a fe bc 83 7e f3 3c cc c9 85 bd 89 15 7e 3e
       -0.031056484 0.029723411 -0.0653263 0.24812903
000190 ac 51 7a bd a0 8d 67 bd e7 d9 8f 3e 9b 7d b2 3d
       -0.061113045 -0.05653155 0.28095934 0.087153636
0001a0 41 5b 5a bc d2 50 3e 3e 0b 1a eb 3c 3d 2e 8a bd
       -0.013327421 0.18585518 0.028698942 -0.067471005
0001b0 32 3d 88 3d 3f 09 3a 3c b4 f7 51 3e cb ba b1 bd
       0.06652297 0.0113547435 0.20504647 -0.08678206
0001c0 fc 6a 43 bc 4f 66 4a 3e 3c bb ea bc 08 f2 e9 3d
       -0.0119273625 0.1976559 -0.028653733 0.11423117
0001d0 85 34 ba bd 29 1d fc bc 85 8d 5e 3e df ee 34 3e
       -0.090920486 -0.030775623 0.21733673 0.17669247
0001e0 c0 e5 7a bd 64 0a 97 bd 77 82 0f 3e d8 3a 32 bd
       -0.061254263 -0.07375029 0.14014612 -0.04351315
0001f0 8d 99 22 3e aa e3 6b 3e 60 83 55 bd 42 f6 d4 3d
       0.15878887 0.23036066 -0.052127242 0.103985325

encoder.2.weight f4 [128]
000000 00 00 80 3f 00 00 80 3f 00 00 80 3f 00 00 80 3f
       1.0 1.0 1.0 1.0
000010 d7 84 9b 3f 4a 51 7d 3f 37 26 7e 3f e4 a8 8d 3f
       1.2149915 0.9895216 0.9927706 1.1067166
000020 00 00 80 3f 00 00 80 3f 6a b0 8a 3f 96 f6 85 3f
       1.0 1.0 1.0835087 1.0465877
000030 aa 88 7e 3f b9 fa 6c 3f 20 a7 76 3f 52 ce 7c 3f
       0.9942728 0.9257007 0.9634876 0.9875232
000040 00 00 80 3f 00 00 80 3f 00 00 80 3f 00 00 80 3f
       1.0 1.0 1.0 1.0
000050 00 00 80 3f 00 00 80 3f 3a 2f 8d 3f a3 6d 8f 3f
       1.0 1.0 1.1030037 1.1205333
000060 25 90 7d 3f bf a5 9b 3f 3d 35 a9 3f 40 a9 97 3f
       0.9904807 1.2159957 1.3219372 1.1848526
000070 16 08 a2 3f 02 a6 a9 3f db b4 2e 3f 7f d8 7d 3f
       1.2658718 1.3253787 0.68244714 0.9915847
000080 fc 62 81 3f 24 57 7d 3f cb 2d 7f 3f 09 e6 8b 3f
       1.0108333 0.9896109 0.9967925 1.0929576
000090 f4 4a 4e 3f d5 4c 9e 3f 00 00 80 3f 00 00 80 3f
       0.8058312 1.2367197 1.0 1.0
0000a0 87 42 7a 3f 10 52 7d 3f 00 00 80 3f f8 7b 6d 3f
       0.9775776 0.9895334 1.0 0.92767286
0000b0 00 00 80 3f bd 8a 88 3f ee 3c 4c 3f 00 00 80 3f
       1.0 1.066734 0.7978047 1.0
0000c0 76 b2 7e 3f 04 0d 98 3f 19 6b 59 3f 44 da 4c 3f
       0.9949106 1.1878972 0.84929043 0.80020547
0000d0 4e a8 8c 3f 25 11 92 3f 2b 32 64 3f 29 d7 7b 3f
       1.0988863 1.1411482 0.8913905 0.98375183
0000e0 c4 8e 53 3f 50 b5 95 3f 37 c4 7e 3f 32 5a 66 3f
       0.8263972 1.1695957 0.9951815 0.8998138
0000f0 61 85 7a 3f a2 5b 7d 3f 52 0f 84 3f 59 84 5b 3f
       0.9785977 0.98967946 1.0317175 0.8574882
000100 55 9d c1 3f 00 00 80 3f 50 71 4c 3f 00 00 80 3f
       1.5126139 1.0 0.798604 1.0
000110 9f f7 31 3f 00 00 80 3f ce 3c 87 3f 00 00 80 3f
       0.69518465 1.0 1.0565431 1.0
000120 00 00 80 3f 88 6f 47 3f 7c 37 4a 3f 1b 1f 7e 3f
       1.0 0.7790456 0.7899091 0.99266213
000130 1a 76 98 3f a5 3b 9a 3f cb 01 98 3f 76 ce 7b 3f
       1.1911042 1.2049452 1.1875547 0.9836191
000140 26 8b 96 3f 00 00 80 3f 00 00 80 3f bd 68 7c 3f
       1.1761215 1.0 1.0 0.9859732
000150 d0 e0 4b 3f 5e a1 7e 3f 67 86 9f 3f 05 15 80 3f
       0.7963991 0.99464977 1.2462891 1.0006415
000160 58 77 7e 3f 37 21 69 3f 00 00 80 3f 00 00 80 3f
       0.99400854 0.91066307 1.0 1.0
000170 5d 95 7e 3f d9 b6 64 3f 00 00 80 3f b1 fe 77 3f
       0.9944666 0.89341503 1.0 0.96873003
000180 6d 3c 7f 3f 00 00 80 3f 90 02 7f 3f 2a cb 77 3f
       0.9970158 1.0 0.99613285 0.9679438
000190 00 00 80 3f 55 fe 7d 3f 6c dc 58 3f a5 2a 8c 3f
       1.0 0.99216205 0.8471134 1.0950514
0001a0 00 00 80 3f 62 9d 6a 3f 15 98 8b 3f 00 00 80 3f
       1.0 0.916464 1.0905787 1.0
0001b0 23 f7 56 3f 28 33 7d 3f 8b 88 88 3f 9e 9d 7f 3f
       0.8397085 0.98906183 1.066667 0.9984988
0001c0 21 b4 7e 3f 8d f1 76 3f 00 00 80 3f 65 15 94 3f
       0.99493605 0.9646233 1.0 1.1569029
0001d0 99 4a 7d 3f 00 00 80 3f e3 3e 62 3f 34 c7 7d 3f
       0.9894195 1.0 0.8837721 0.99132085
0001e0 00 00 80 3f 00 00 80 3f cb b0 67 3f 00 00 80 3f
       1.0 1.0 0.9050414 1.0
0001f0 fc 17 7d 3f 15 f0 3a 3f ee c5 7f 3f e2 e2 8f 3f
       0.9886472 0.73022586 0.9991139 1.1241114

encoder.2.bias f4 [128]
000000 dc e1 09 bf a2 ef 16 3e da 8e dc be eb ed d9 bb
       -0.5386026 0.1473985 -0.43077737 -0.0066506765
000010 68 2d 93 3e 9e 0c 87 3a 31 79 a0 bb a8 20 81 bd
       0.2874558 0.0010303443 -0.0048972596 -0.06305057
000020 63 81 10 bf 3f 57 1a 3f 35 92 32 3e 06 14 47 3e
       -0.5644743 0.60289377 0.17438586 0.19441232
000030 ab 32 9f ba ed ac 32 3e 7e 81 35 3b 91 30 f8 3b
       -0.0012145838 0.17448778 0.0027695592 0.007574149
000040 23 84 76 3e 16 d2 04 3e e0 d8 c7 3e 89 92 14 3f
       0.24073844 0.12970766 0.3903265 0.58036095
000050 d9 74 64 3d 96 33 41 bf b8 f6 6e bd cf 98 d0 3e
       0.055775497 -0.7546934 -0.058340758 0.40741584
000060 29 38 4a 3b 64 86 f7 bd 2a e5 c8 3e 64 57 8a bd
       0.0030856228 -0.1208618 0.39237338 -0.0675495
000070 c1 63 9c 3e aa e7 a7 bd 81 d8 a1 3e 07 a6 90 3e
       0.30544856 -0.08198483 0.31610492 0.2825167
000080 99 41 38 3e e8 1f 33 bc 94 18 93 3d 50 9d 55 3e
       0.17993774 -0.0109329 0.07182422 0.20860791
000090 8a 90 b8 3e 60 2a 41 3e b0 94 bb be 25 9f d9 3e
       0.36047775 0.18863821 -0.36636877 0.4250423
0000a0 f2 9a 7c bb f2 2a 8a 3e c2 aa 13 bf f4 d3 8f 3d
       -0.0038544503 0.2698589 -0.5768243 0.07022849
0000b0 48 bd 20 3f 81 5f c8 3e f7 f0 9d 3e b4 50 0b bf
       0.6278882 0.39135364 0.30847904 -0.5442002
0000c0 d6 45 98 be bc db 87 be 00 ab db 3d c4 c5 e6 3c
       -0.2974078 -0.26534832 0.10725975 0.028170474
0000d0 fd e4 e7 bd 63 06 eb 3e d5 c9 1e 3e 1c d3 88 3d
       -0.11322973 0.4590331 0.1550668 0.06680891
0000e0 d5 7c 3a 3e 9f 42 f4 be 30 49 cd bb 00 c0 40 3e
       0.18211682 -0.47707078 -0.006264828 0.18823242
0000f0 0e a8 b5 3d 49 fe 32 3d a3 33 4c be 43 73 8c bd
       0.088699445 0.043699536 -0.19941573 -0.06857922
000100 19 a3 dd be 6d 66 e6 3e 7d 8c 4f bd 88 33 bb bb
       -0.43288496 0.4500002 -0.05067109 -0.00571293
000110 0c 23 ed 3b 89 a7 1f bf a1 96 fd 3c 0c f2 b4 3e
       0.007236844 -0.62365013 0.030955615 0.35340917
000120 48 0e fd be a2 ab b0 3e 76 20 b4 3e c9 f4 69 3e
       -0.49424958 0.34505945 0.35181016 0.22847284
000130 d2 da 8a be bc 61 97 be 4b d2 57 bd 3a 9f 74 3f
       -0.27120072 -0.29566753 -0.052690785 0.9555546
000140 8c 68 17 bd 5f 83 c1 3e 1d 80 11 bf d6 7a ec 38
       -0.036964938 0.3779554 -0.5683611 0.00011276237
000150 6b 04 c9 3e 63 18 a7 3d 9c f3 84 3d 53 64 8b be
       0.39261183 0.08158948 0.06491777 -0.2722498
000160 66 6c 83 3b 62 94 c1 be d0 b3 0b bf 15 5a 1e bf
       0.004010725 -0.3780852 -0.5457125 -0.61856204
000170 d0 a2 1e 3b 30 a0 2c be 49 20 c7 3e e1 40 d7 bb
       0.002420593 -0.16857982 0.3889182 -0.0065690135
000180 6c a9 78 3e a8 2e e3 3e 8e 98 34 bf aa 5d 06 be
       0.2428338 0.44371533 -0.7054528 -0.13121668
000190 33 0b 0b bf 4e dc 6b 3e b6 ec 71 be 40 e9 a6 bd
       -0.54313964 0.23033258 -0.23625454 -0.08149958
0001a0 b3 83 db be bc 81 d6 3d ea 70 cc bd f2 c6 1b 3f
       -0.42873916 0.104739636 -0.09982474 0.6085044
0001b0 7b 86 2c be ab ed 18 3b 0c 0c 92 be 3d bd dd 3e
       -0.16848175 0.002333502 -0.28524816 0.4330844
0001c0 98 9c d2 be 15 80 26 be 16 2b 22 bf 55 3e 05 3e
       -0.41135097 -0.16259797 -0.63346994 0.13012059
0001d0 fb 8e 56 3c 8e 0b bc 3e 2d 2a 84 3e df 09 49 be
       0.013095613 0.36727566 0.25813428 -0.19632672
0001e0 2e 5f f8 be c7 00 d2 3e 5d 9a 59 3e 27 34 d5 3e
       -0.48510116 0.41016218 0.21250291 0.41641352
0001f0 5c df 8b 3e 20 08 ab be 7e 2a a3 3e 32 4b 8d 3e
       0.27318847 -0.33404636 0.31868356 0.27596432

encoder.2.running_mean f4 [128]
000000 00 00 00 00 00 00 00 00 00 00 00 00 00 00 00 00
       0.0 0.0 0.0 0.0
000010 5c cc ab 3e 04 00 00 00 04 00 00 00 5d 9a 90 3e
       0.3355435 6e-45 6e-45 0.2824277
000020 00 00 00 00 00 00 00 00 b4 25 7b 3e 36 de aa 3e
       0.0 0.0 0.24526101 0.33372658
000030 04 00 00 00 f6 93 a4 3e 04 00 00 00 04 00 00 00
       6e-45 0.32144135 6e-45 6e-45
000040 00 00 00 00 00 00 00 00 00 00 00 00 00 00 00 00
       0.0 0.0 0.0 0.0
000050 00 00 00 00 00 00 00 00 2d 31 af 3e 06 fb 96 3e
       0.0 0.0 0.34217206 0.2948839
000060 04 00 00 00 45 3c cc 3e 5c 8f 9c 3e f3 14 90 3e
       6e-45 0.39889732 0.30578125 0.28140983
000070 36 c7 95 3e ae 58 96 3e d9 d3 8f 3e 04 00 00 00
       0.29253548 0.29364532 0.28091314 6e-45
000080 dd 28 ba 3e 04 00 00 00 04 00 00 00 f4 95 60 3e
       0.363593 6e-45 6e-45 0.21932203
000090 97 f0 c3 3e ea 71 b1 3e 00 00 00 00 00 00 00 00
       0.38269493 0.34657222 0.0 0.0
0000a0 04 00 00 00 04 00 00 00 00 00 00 00 c8 16 b7 3e
       6e-45 6e-45 0.0 0.35759568
0000b0 00 00 00 00 4b db 8c 3e cb 3c cc 3e 00 00 00 00
       0.0 0.27511057 0.3989013 0.0
0000c0 04 00 00 00 64 42 70 3e b1 de b6 3e c9 de c1 3e
       6e-45 0.23462826 0.35716775 0.37865284
0000d0 dd 81 cf 3e d7 de 67 3e 2a d2 ad 3e ee 37 45 3e
       0.40528765 0.226436 0.33949405 0.19259617
0000e0 b2 15 75 3e bf 78 11 3f 04 00 00 00 c5 14 be 3e
       0.23934057 0.5682487 6e-45 0.3712522
0000f0 04 00 00 00 5d e7 b0 3e 30 7e c4 3e 68 60 98 3e
       6e-45 0.34551516 0.38377523 0.29761052
000100 86 ee be 3e 00 00 00 00 96 37 9f 3e 00 00 00 00
       0.37291354 0.0 0.31097096 0.0
000110 ae df 96 3e 00 00 00 00 31 fb af 3e 00 00 00 00
       0.2946753 0.0 0.3437133 0.0
000120 00 00 00 00 86 c1 8e 3e 3d c5 a8 3e 04 00 00 00
       0.0 0.27882022 0.3296298 6e-45
000130 d8 9d a6 3e 51 37 b3 3e aa bc 5a 3e 04 00 00 00
       0.325423 0.3500314 0.21361032 6e-45
000140 15 50 ad 3e 00 00 00 00 00 00 00 00 04 00 00 00
       0.3385016 0.0 0.0 6e-45
000150 f7 40 b6 3e 04 00 00 00 07 d7 c3 3e a6 f0 fc 3e
       0.3559644 6e-45 0.3824999 0.4940235
000160 04 00 00 00 d6 df 8d 3e 00 00 00 00 00 00 00 00
       6e-45 0.27709836 0.0 0.0
000170 04 00 00 00 f8 18 c0 3e 00 00 00 00 04 00 00 00
       6e-45 0.3751905 0.0 6e-45
000180 04 00 00 00 00 00 00 00 04 00 00 00 81 0b cb 3e
       6e-45 0.0 6e-45 0.39657214
000190 00 00 00 00 04 00 00 00 74 70 e8 3e 8c 50 8d 3e
       0.0 6e-45 0.45398295 0.27600515
0001a0 00 00 00 00 1f cf a2 3e 0b bf 88 3e 00 00 00 00
       0.0 0.31798646 0.26708254 0.0
0001b0 1a 60 b8 3e 04 00 00 00 12 a0 00 3f 04 00 00 00
       0.3601082 6e-45 0.5024425 6e-45
0001c0 04 00 00 00 e0 8b a6 3e 00 00 00 00 c7 30 98 3e
       6e-45 0.3252859 0.0 0.29724714
0001d0 04 00 00 00 00 00 00 00 d3 90 cf 3e 74 f1 d9 3e
       6e-45 0.0 0.4054018 0.42567027
0001e0 00 00 00 00 00 00 00 00 b6 f6 c5 3e 00 00 00 00
       0.0 0.0 0.38664788 0.0
0001f0 e7 c1 ba 3e 52 cf ad 3e 04 00 00 00 fb 57 8f 3e
       0.3647606 0.33947235 6e-45 0.2799681

encoder.2.running_var f4 [128]
000000 04 00 00 00 04 00 00 00 04 00 00 00 04 00 00 00
       6e-45 6e-45 6e-45 6e-45
000010 53 22 44 3c 04 00 00 00 04 00 00 00 62 19 25 3c
       0.011971074 6e-45 6e-45 0.0100768525
000020 04 00 00 00 04 00 00 00 1f 09 c0 3c 0c ae cf 3b
       6e-45 6e-45 0.02344185 0.0063378867
000030 04 00 00 00 51 ec aa 3b 04 00 00 00 04 00 00 00
       6e-45 0.0052161594 6e-45 6e-45
000040 04 00 00 00 04 00 00 00 04 00 00 00 04 00 00 00
       6e-45 6e-45 6e-45 6e-45
000050 04 00 00 00 04 00 00 00 c6 1f 03 3c 18 77 72 3c
       6e-45 6e-45 0.008003181 0.014798902
000060 04 00 00 00 c4 98 4e 3c 20 92 39 3c fc b8 0f 3c
       6e-45 0.012609664 0.011326343 0.008772131
000070 11 71 d8 3c 1b 05 fd 3b 50 ef 6e 3b 04 00 00 00
       0.026421102 0.007721556 0.003645856 6e-45
000080 66 be f4 3b 04 00 00 00 04 00 00 00 ed 3d 18 3d
       0.0074689863 6e-45 6e-45 0.037168432
000090 b5 94 be 3b cb 6d 11 3c 04 00 00 00 04 00 00 00
       0.005816067 0.008876274 6e-45 6e-45
0000a0 04 00 00 00 04 00 00 00 04 00 00 00 79 61 da 3b
       6e-45 6e-45 6e-45 0.0066644517
0000b0 04 00 00 00 2a b0 f1 3c 80 2e f5 3b 04 00 00 00
       6e-45 0.029502947 0.00748235 6e-45
0000c0 04 00 00 00 dd 85 ec 3b db b5 c2 3b 2e fc c3 3b
       6e-45 0.007218106 0.005942089 0.00598099
0000d0 c6 bc 29 3c 35 37 97 3c 0f 72 a3 3b 9d 6a f6 3b
       0.0103599485 0.018458942 0.004987962 0.0075200335
0000e0 8d b8 01 3c 1f 13 17 3d 04 00 00 00 94 d3 cf 3b
       0.0079175355 0.03688347 6e-45 0.0063423607
0000f0 04 00 00 00 07 7d ac 3b d9 6f b7 3b 03 e5 a3 3b
       6e-45 0.005263928 0.00559805 0.0050016656
000100 81 22 6d 3c 04 00 00 00 25 b1 38 3b 04 00 00 00
       0.014473558 6e-45 0.0028181758 6e-45
000110 e4 a9 4b 3b 04 00 00 00 97 6a fc 3b 04 00 00 00
       0.0031076605 6e-45 0.007703136 6e-45
000120 04 00 00 00 ca 63 be 3b 3e 73 a3 3b 04 00 00 00
       6e-45 0.0058102356 0.004988103 6e-45
000130 af b2 d1 3b 88 08 59 3c 82 80 8d 3c 04 00 00 00
       0.0063994746 0.013246663 0.017273191 6e-45
000140 78 fd e1 3b 04 00 00 00 04 00 00 00 04 00 00 00
       0.006896671 6e-45 6e-45 6e-45
000150 5b 33 ce 3b 04 00 00 00 11 87 07 3c 7b 1e 43 3c
       0.006292743 6e-45 0.008271948 0.011909123
000160 04 00 00 00 61 68 ab 3b 04 00 00 00 04 00 00 00
       6e-45 0.005230949 6e-45 6e-45
000170 04 00 00 00 7c db a5 3b 04 00 00 00 04 00 00 00
       6e-45 0.005061565 6e-45 6e-45
000180 04 00 00 00 04 00 00 00 04 00 00 00 49 00 b8 3b
       6e-45 6e-45 6e-45 0.0056152684
000190 04 00 00 00 04 00 00 00 cb ca f0 3b f7 2e a9 3b
       6e-45 6e-45 0.0073483936 0.0051630693
0001a0 04 00 00 00 74 40 ce 3b 21 c3 97 3c 04 00 00 00
       6e-45 0.0062943045 0.018525662 6e-45
0001b0 a2 34 7d 3b 04 00 00 00 56 bd cc 3c 04 00 00 00
       0.0038636108 6e-45 0.024992626 6e-45
0001c0 04 00 00 00 91 ff 0b 3c 04 00 00 00 9e 1b 07 3c
       6e-45 0.0085448185 6e-45 0.008246331
0001d0 04 00 00 00 04 00 00 00 7f be f7 3b 5b f9 f4 3b
       6e-45 6e-45 0.0075605507 0.0074760146
0001e0 04 00 00 00 04 00 00 00 9f 2b 97 3b 04 00 00 00
       6e-45 6e-45 0.0046133543 6e-45
0001f0 1f 5b 02 3c e9 e6 73 3b 04 00 00 00 c2 cb fc 3b
       0.007956295 0.003721649 6e-45 0.0077147195

encoder.4.weight f4 [64, 128]
000000 46 f2 6c be 8d 43 5a 3e 36 20 a6 be 9f 03 30 3c
       -0.23139295 0.21314831 -0.3244645 0.010743051
000010 9d e7 f3 3b db a9 89 3d ad ad 62 bd ab 1f c6 3d
       0.007443382 0.067218505 -0.05534141 0.09674009
000020 25 ae 8e be 51 c4 40 3e fa 60 85 40 ad 2c 8e bc
       -0.27867237 0.18824889 4.168088 -0.017355287
000030 50 10 75 3d a3 9e 42 be b6 d1 49 bc 2a ed e4 bc
       0.05983001 -0.19005828 -0.012318065 -0.02794512
000040 03 0a 4f 3e 35 71 8f 3d 4a 4e 96 3e 65 37 99 3e
       0.20218663 0.070040144 0.29356605 0.29925075
000050 ec a9 09 3e 56 f9 37 be f0 35 95 be ab 7d 83 3d
       0.13443726 -0.17966208 -0.29142714 0.06420454
000060 40 74 a2 3d 2c ec b7 3e 8d 07 ce bd d5 05 21 be
       0.07932329 0.35922372 -0.10060034 -0.15724881
000070 5f 89 f3 be e3 19 14 3e 2d 3c ce 3e d1 66 16 3e
       -0.47565743 0.14463 0.40280285 0.14687659
000080 09 ed dc 3d 4c 32 38 bd 49 43 cc 3d 12 f3 5f 3b
       0.10787398 -0.04496984 0.09973771 0.003417198
000090 77 56 32 be 15 85 9f be 07 c5 02 be 3c 98 89 3e
       -0.17415796 -0.3115622 -0.12770472 0.26873958
0000a0 6f 78 dd 3b 1d 42 e0 3d f6 03 40 be 4e f9 0a be
       0.0067587416 0.1095011 -0.18751511 -0.13571665
0000b0 7b ac 9c 3e b6 93 12 3f eb d6 9b 3e 3f 85 0d be
       0.30600342 0.5725664 0.30437407 -0.1382036
0000c0 ed 4f 6e be 4f 4e ea 3d ea df e1 3d 87 83 a7 3d
       -0.23272677 0.114407174 0.11029036 0.08179384
0000d0 f9 fa 8d 3d b8 8d 59 ba 45 f7 4e bc 4d 6e 09 3e
       0.06932635 -0.0008299011 -0.012632196 0.13420983
0000e0 44 8d 85 be 13 4b d0 be 9e 50 cf 3c 0b c1 d6 3c
       -0.2608434 -0.40682277 0.025306996 0.026215097
0000f0 2e f8 49 3e ba 1f 13 be 33 23 46 3e 40 32 34 3d
       0.1972358 -0.14367571 0.19349365 0.043993235
000100 ca ee f4 bc e3 af a2 3e a7 a0 3d 3d 64 c7 1a bd
       -0.02989902 0.31774816 0.04629579 -0.03778781
000110 51 46 4f be 16 a3 a4 be ed c1 aa bc 8b 36 7b 3e
       -0.20241667 -0.32155675 -0.020844424 0.24532525
000120 62 cd 64 be dd 4e 14 be 8e d5 bc 3d 78 02 39 3e
       -0.22343972 -0.14483209 0.0922042 0.18067348
000130 b3 2c 22 3d 99 36 9a bd 9e 86 f5 bd 77 c1 81 3e
       0.03959341 -0.07529945 -0.11988567 0.25342914
000140 2c ac 8b 3e f6 e4 71 3e 73 ac 76 be 6b 8b 6f bc
       0.27279794 0.23622498 -0.24089222 -0.014620642
000150 56 57 03 3e ca f0 0a 3e fa 1d dd bc 92 40 98 3d
       0.12826285 0.13568416 -0.026991833 0.07434191
000160 7d 87 9f bc 53 48 14 be 2c 55 81 be bc b5 8e be
       -0.019473786 -0.14480714 -0.25260293 -0.27873027
000170 98 60 51 3c 06 69 0d bf a1 46 f0 3d 98 6d 86 bd
       0.012779377 -0.5523838 0.117322214 -0.06563872
000180 2d e7 2a 3e 0b 76 83 3e 82 53 8c be 3d 99 a7 bc
       0.16689749 0.25675997 -0.2740746 -0.020458812
000190 b1 e3 8a be 45 b7 41 3e ca b3 bb 3d 75 7f d0 bd
       -0.2712684 0.18917568 0.091651514 -0.101805605
0001a0 4c ac 36 be fe 30 83 be e7 e3 02 3e 80 65 89 3e
       -0.17839164 -0.25623316 0.1278225 0.2683525
0001b0 0f 68 a9 ba 17 6c cb bc 93 aa 45 be 9b 74 a1 3e
       -0.0012924689 -0.024831815 -0.1930335 0.31534275
0001c0 3c 47 91 be aa 4e bd 3d 4d 1b 8c be cb 0b 47 bd
       -0.2837466 0.092435196 -0.2736458 -0.04859523
0001d0 0a 01 b6 bc 0f 76 8c 3e 94 bf 31 be 7c 35 a2 be
       -0.022217292 0.27433822 -0.17358238 -0.3168143
0001e0 94 fd 96 be 8b ec 8a 3e e5 ae 67 3e 71 43 39 3e
       -0.2949034 0.27133593 0.2262531 0.18092133
0001f0 a3 30 45 3d a1 a2 15 3e 91 f9 17 3e 4b 3d b1 bd
       0.048142087 0.14612819 0.14841296 -0.08654269
000200 b1 40 e1 be 41 63 86 3e 9b fc ee be 10 f8 e7 bb
       -0.43994668 0.262476 -0.46677098 -0.007079132
000210 f1 2b 16 40 6f c5 57 bd e4 bd 03 bd 86 4a 19 be
       2.346432 -0.05267852 -0.032163516 -0.14969835
000220 dd 26 d8 be 87 6a 0c 3f 31 94 24 3c bf e8 4c 3e
       -0.4221715 0.5485005 0.010045097 0.2001066
000230 b4 d3 43 bc d0 33 a5 3d f3 f0 9c bd e7 41 d0 3c
       -0.011952329 0.08066523 -0.07663145 0.02542205
000240 2d 5a be 3e 74 d6 31 3e d9 81 f5 3e 78 b7 08 3f
       0.37178174 0.17366964 0.47950628 0.5340495
000250 5d 9a 61 3e a7 66 17 bf ee e1 72 be 6f 8b 15 3e
       0.22031541 -0.5914101 -0.23718998 0.14603971
000260 43 b8 44 3d 27 cd 38 be e6 26 89 3e 88 61 a9 be
       0.04802729 -0.1804701 0.2678749 -0.33082223
000270 8f 97 ee 3d 6b de 0e 3e cf f6 01 be ca 36 91 3e
       0.11650001 0.13952033 -0.12691806 0.28362113
000280 35 8c 81 3e bc 5b 6c bd b5 7a 25 3e 9e 44 ab 3d
       0.25302282 -0.057704672 0.1616009 0.08362697
000290 0c 5e c8 3e ac 72 2b bf 7a 88 94 be 7b 7b b1 3e
       0.39134252 -0.6697185 -0.29010373 0.3466452
0002a0 b6 bc 2b 3d 27 b1 90 3e 33 09 03 bf 78 ea cd 3e
       0.041928016 0.28260157 -0.5118591 0.40217948
0002b0 9f 0b f2 3e 8a 62 8d bc 88 38 95 bf 3c fa 06 bf
       0.4727449 -0.017258901 -1.1657877 -0.5272558
0002c0 83 41 bc be 93 3c bb bc 30 ef 03 be 00 15 7a be
       -0.3676873 -0.022856032 -0.12884212 -0.24422073
0002d0 91 54 22 bf 38 1f d8 3d f8 2d 35 be 29 e5 d4 bd
       -0.6341029 0.105528295 -0.17693317 -0.10395271
0002e0 3f 7c 8b 3e e3 36 70 be 70 4d a5 bc 1a 10 d2 bd
       0.2724323 -0.23458438 -0.020178527 -0.102569774
0002f0 16 ed 52 3e 96 79 83 3d 90 c4 38 bf 12 b0 0a be
       0.20598254 0.06419675 -0.7217493 -0.13543728
000300 6a 4b 8d 3e ba af d8 3e 00 d5 c0 3d 12 3a 67 bd
       0.275966 0.4232157 0.094156265 -0.056451865
000310 6c 46 c8 3d 30 c2 c9 be c9 d0 b2 be 2f a7 d8 3e
       0.09779057 -0.39405966 -0.34924915 0.4231505
000320 36 4b 06 bf 65 fc 93 be 54 fd a3 bd 37 98 b5 3e
       -0.5245851 -0.289035 -0.08007303 0.35467693
000330 69 ff 77 3e a3 e4 e1 bd 1c d3 b2 be 79 ef 29 3f
       0.24218525 -0.11029937 -0.3492669 0.6638103
000340 0f a5 e3 3e b7 46 b5 3e fd 1e fb be 6d 2a f1 3c
       0.44461867 0.35405514 -0.4904708 0.029439176
000350 98 37 f2 bd 74 c7 b6 3d 37 0e b6 bd 9f af 81 3d
       -0.1182701 0.089247614 -0.0888943 0.06332325
000360 5e 3d 22 bd c2 ae ac be c3 42 05 bf ef 1b c7 be
       -0.039609306 -0.3372708 -0.52054995 -0.388885
000370 a8 c7 67 3c 9c 0e 98 be 39 0e bd 3e 75 1f d5 bb
       0.014146723 -0.29698646 0.36924914 -0.006503994
000380 9b e9 7f 3e 81 cd f8 3e 99 85 f9 be 26 94 e5 be
       0.24991457 0.48594287 -0.4873474 -0.4483959
000390 62 4d d0 be 1b be c5 3e 47 e2 af 3e b2 21 a0 3e
       -0.40684038 0.386216 0.34352323 0.31275707
0003a0 e1 90 d8 be c2 71 e0 bc d0 d4 09 3e 9a c0 e8 3e
       -0.42298034 -0.027397994 0.13460088 0.45459443
0003b0 5e 6b ae 3e d0 64 71 bd ce fe ef bd 8b 15 ca 3e
       0.3406629 -0.058934033 -0.11718522 0.3946956
0003c0 53 ca d7 be c4 2a e7 be bb 9f d4 be 78 dc 1d 3f
       -0.4214655 -0.45149815 -0.41528115 0.61664534
0003d0 ed 69 f7 3c 94 12 b9 3e 14 18 e9 3e 34 33 9b be
       0.030201877 0.36146986 0.45526183 -0.30312502
0003e0 bd f8 cf be fd 90 e2 3e b4 70 82 3e 15 50 f5 3e
       -0.4061946 0.44251242 0.2547661 0.4791266
0003f0 26 f6 e1 be fe aa d3 3e 9e 9c c7 3e cb 5f 6a be
       -0.4413311 0.41341394 0.38986677 -0.22888105

encoder.4.bias f4 [64]
000000 4c 3c e3 3e 85 e7 ff 3e 24 c5 fa 3e 7d 9c 12 3f
       0.4438194 0.49981323 0.4897853 0.5727003
000010 e6 12 9b bd 40 66 52 3f 17 d6 b7 3e d5 ec 45 3f
       -0.07571964 0.8218727 0.35905525 0.773145
000020 de 30 e1 3e 51 08 e2 3d f3 48 89 3f 04 d4 47 bd
       0.43982595 0.110367425 1.0725387 -0.04878618
000030 21 b5 35 3f a5 e2 49 3f 25 97 32 3f 51 02 2e 3f
       0.70979506 0.7886146 0.6976188 0.67972285
000040 fd 01 8f 3f 64 49 4b 3d 00 69 88 3d 1f 79 9a 3e
       1.1172482 0.049630538 0.06660652 0.30170533
000050 ad 66 b0 be 0b ff 35 3f a5 60 56 3f 70 23 e6 be
       -0.34453335 0.7109229 0.8374122 -0.44948912
000060 27 e8 37 be b0 e3 27 3e 47 b0 c7 3e 6b 41 35 3e
       -0.17959653 0.1639545 0.39001676 0.17700736
000070 31 a5 ff be 9a db 6f 3f f7 b2 07 3f fa d2 d7 3d
       -0.4993072 0.9369446 0.53007454 0.105382875
000080 9c fc 84 3d 48 c3 94 3f 82 b4 3f 3e fd f3 34 3f
       0.06493494 1.1622095 0.18721202 0.70684797
000090 42 e3 07 3e ed be 2b 3f b4 fb 61 3f cf 46 c3 3e
       0.13270286 0.67088205 0.88274693 0.3813996
0000a0 f1 ed 14 3f 4f ca 80 3e 4c d5 68 3e cb 77 6e be
       0.5817557 0.2515435 0.22737616 -0.23287885
0000b0 13 a5 d9 be 5e ea aa 3e 40 36 fd bb 83 e6 15 be
       -0.42508754 0.33381933 -0.0077274144 -0.14638714
0000c0 c4 18 dd 3e 8b ce ba be 24 c1 88 3e a0 0a 01 b9
       0.43182957 -0.36485705 0.26709855 -0.00012306357
0000d0 9d 22 9e 3f aa e3 e3 be cb 18 b8 3e a0 80 0a bd
       1.2354313 -0.4450963 0.35956416 -0.033814073
0000e0 9c 61 09 3f e7 98 4f 3f 88 8e 91 bd ef fb 12 3f
       0.53664565 0.81092685 -0.07107264 0.5741567
0000f0 da 9d 39 3f ec e0 bf 3f e1 01 43 3f 2e 51 02 3e
       0.7250649 1.4990516 0.7617474 0.1272628

encoder.6.weight f4 [64]
000000 2a 33 8c 3f e1 47 c8 3f 1a f8 c1 3f 78 c0 81 3f
       1.0953114 1.5646936 1.515384 1.0136862
000010 5d ef 54 3f 53 c4 47 3f 41 1d b4 3f 8d 22 9f 3e
       0.8317774 0.7803394 1.4071428 0.31081048
000020 78 40 9b 3f de e4 13 3f 9d c1 a4 3f fd 74 7d 3f
       1.2129049 0.577711 1.2871586 0.99006635
000030 7e 75 bf 3e 51 22 a1 3e 86 68 a1 3f 3d 5f c3 3f
       0.37394327 0.31471494 1.2610023 1.526344
000040 19 ec b8 3f 72 b1 81 3f b9 7b 39 3f cb 14 e8 3f
       1.4447051 1.0132277 0.7245441 1.8131346
000050 ab e6 3e 3f a8 b5 af 3e 90 1b 9a 3e cb 20 74 3f
       0.7457072 0.3431828 0.30099154 0.9536254
000060 06 38 50 3f 63 8b 0b 3f 44 51 6b 3f 6a e5 8c 3f
       0.81335485 0.5450956 0.91920877 1.1007512
000070 ad bf 86 3f 6c 6d db 3e dd d9 36 3f fe 24 fd 3e
       1.0527245 0.4285692 0.71426183 0.49442285
000080 20 5d 6f 3f 04 68 7f 3f 3e 42 a7 3f d6 f1 fb 3e
       0.9350147 0.9976809 1.306709 0.49207944
000090 28 a4 94 3f 11 47 2e 3f bd d5 ab 3e 91 8d 63 3f
       1.1612597 0.6807719 0.33561507 0.8888789
0000a0 a3 76 03 40 44 71 be 3f ba 47 9c 3f dd 0b 64 3f
       2.054116 1.4878316 1.2209389 0.890806
0000b0 24 37 19 3e d3 9d 9c 3f d0 c7 02 40 b4 aa a2 3f
       0.1496244 1.2235664 2.0434456 1.2708344
0000c0 0c 7e bf 3f 4c 26 6d 3f 07 d4 8a 3f 50 fe 0b 3f
       1.4960341 0.9263656 1.0845956 0.54684925
0000d0 e1 29 9a 3f 31 d1 01 3f f6 ef b1 3e f3 04 e2 3e
       1.204403 0.50709826 0.34753388 0.441444
0000e0 bd 34 63 3f 46 1e e8 3e da 3a 08 40 66 21 3f 3f
       0.8875235 0.45335597 2.128592 0.74660337
0000f0 eb a7 af 3e 49 d3 a1 3f d8 f5 73 3f df cc ad 3f
       0.343078 1.2642604 0.95297 1.3578147

encoder.6.bias f4 [64]
000000 0b d2 49 c0 70 52 29 40 3c 13 0d 40 6b 5e 3c 40
       -3.153445 2.6456566 2.204299 2.9432628
000010 c8 c1 58 3f d1 2e af bf 2d aa 68 3f bc c7 26 3b
       0.84670687 -1.3686162 0.9088467 0.002544864
000020 d3 ea 46 c0 fe d1 c0 bf a9 15 0e c0 ef bb 4c c0
       -3.1080825 -1.5064085 -2.220072 -3.1989706
000030 e0 c4 d4 be 1a d8 d1 3d 23 42 50 40 30 d3 41 c0
       -0.41556454 0.10246296 3.2540367 -3.0285149
000040 5a 44 f3 bf 58 f2 e4 3f 75 90 97 3f ac 9c f9 3f
       -1.9005234 1.7886457 1.184096 1.9500937
000050 a5 cf 65 bf 48 c5 26 3f c1 dd b2 be ad 06 9b 3e
       -0.89769965 0.6514478 -0.3493481 0.3027853
000060 31 00 a0 bf 41 4f 27 3f 53 cc b0 bf 84 11 8a 3f
       -1.2500058 0.65355307 -1.3812355 1.0786595
000070 9e 3f a1 3f 37 09 dd be fe d6 28 3f 26 fc d0 bf
       1.259754 -0.43171093 0.6595305 -1.632695
000080 51 f0 b0 bf 86 8a 3d bf 09 96 88 3f 1e a6 be bc
       -1.3823339 -0.74039495 1.0670787 -0.02327257
000090 77 7a de 3f 95 b2 cf bf 40 91 c0 3e af eb c9 bf
       1.7381123 -1.6226374 0.37610817 -1.577505
0000a0 0f a7 fd 3f c3 b1 fa 3f 6a 39 74 3f c1 c4 b5 bf
       1.9816607 1.9585499 0.95400107 -1.420067
0000b0 49 de 4f 3e 22 18 96 3f 2e eb da 3f 06 6e d6 3f
       0.20299639 1.1726115 1.7103021 1.6752326
0000c0 df 4b 21 40 2a 60 df bf 94 c3 48 c0 c7 62 89 be
       2.5202558 -1.7451222 -3.1369371 -0.26833174
0000d0 64 90 4b 40 02 4a 8c bf 71 7a ee 3e 57 54 e4 be
       3.180688 -1.0960085 0.4657779 -0.44595596
0000e0 30 56 a2 bf 2c 5a 60 3e 23 02 e5 3f ef 11 99 3f
       -1.2682552 0.21909398 1.7891277 1.1958598
0000f0 32 28 14 3d 2c 86 ea bf 9f ee d4 bf 53 19 fe 3f
       0.036171146 -1.8322196 -1.6635321 1.9851478

encoder.6.running_mean f4 [64]
000000 cb 4d cc 40 76 e0 25 41 25 05 09 41 5c 80 1a 41
       6.384496 10.3673 8.563756 9.656338
000010 04 00 00 00 83 ff 4d 41 a2 2f 09 41 f9 02 4b 41
       6e-45 12.874881 8.574129 12.688226
000020 90 bb 08 41 1e c4 8f 3f 97 99 62 41 11 08 99 3f
       8.545792 1.1231725 14.1624975 1.1955587
000030 14 ed 56 41 0e b6 46 41 37 0d 57 41 e5 db 23 41
       13.43288 12.419447 13.440726 10.241185
000040 02 79 7e 41 c4 be 9e 40 a0 aa 5b 40 7d ef f4 40
       15.904543 4.960787 3.4322891 7.6542344
000050 04 00 00 00 70 5f 32 41 06 78 47 41 04 00 00 00
       6e-45 11.1483 12.466803 6e-45
000060 04 00 00 00 18 31 64 40 66 38 f5 40 c8 09 ab 40
       6e-45 3.5654964 7.6631346 5.344944
000070 04 00 00 00 c1 4d 65 41 2b d1 45 41 c8 6c 7c 3f
       6e-45 14.331483 12.363566 0.98603487
000080 34 ea 2e 40 0e 9a 73 41 d5 b6 da 40 3a c7 48 41
       2.7330446 15.225111 6.8348184 12.548639
000090 a7 a2 d2 40 da a2 41 41 5c 8d 58 41 e2 c6 1e 41
       6.582355 12.102259 13.534512 9.923555
0000a0 d5 31 d4 40 1a dc 03 41 8b 11 d5 40 04 00 00 00
       6.631083 8.241236 6.6583915 6e-45
0000b0 04 00 00 00 71 25 9e 40 bf e5 f9 40 46 de 76 3f
       6e-45 4.9420705 7.809295 0.9643291
0000c0 12 ae 23 41 04 00 00 00 25 73 ff 40 a6 39 30 3f
       10.229998 6e-45 7.9828057 0.68837965
0000d0 52 fc 81 41 04 00 00 00 8a d4 a8 40 63 0f 31 40
       16.248203 6e-45 5.2759447 2.7665641
0000e0 05 47 1f 41 2b 1b 3e 41 43 f3 6d 40 a9 89 11 41
       9.954839 11.881633 3.7179725 9.096108
0000f0 82 2b 58 41 d0 13 a8 41 bc 9f 44 41 52 f9 eb 40
       13.510622 21.009674 12.288998 7.3741846

encoder.6.running_var f4 [64]
000000 46 4e d8 41 b7 0e 2b 42 2e f3 e0 41 9d 33 9c 41
       27.03822 42.76437 28.11874 19.525202
000010 04 00 00 00 2b 45 52 41 98 fc 41 41 05 99 80 41
       6e-45 13.141887 12.124168 16.074717
000020 6a 03 10 42 cd e1 60 40 d0 95 99 41 01 ef bb 40
       36.003334 3.5137818 19.19815 5.8729253
000030 a8 f4 87 41 4d f8 72 41 5d 5c dd 41 bc 40 15 42
       16.994461 15.18562 27.6701 37.313217
000040 eb bc df 41 38 63 9c 41 5f ca 17 41 c1 30 21 42
       27.967245 19.548447 9.486907 40.29761
000050 04 00 00 00 69 1a 6c 41 51 7e 01 41 04 00 00 00
       6e-45 14.756448 8.093339 6e-45
000060 04 00 00 00 30 78 04 41 00 b6 51 41 f9 51 ea 41
       6e-45 8.279343 13.106934 29.290026
000070 04 00 00 00 09 d0 c2 41 8f 8d a5 41 2a 3e 18 40
       6e-45 24.35158 20.69412 2.3787942
000080 34 a6 9f 40 52 7c 66 41 a8 cf 81 41 42 71 bd 41
       4.9890385 14.405352 16.226395 23.680302
000090 e8 91 bc 41 fb c5 53 41 3d fa 4e 41 56 7a 2c 41
       23.571243 13.235835 12.936093 10.779867
0000a0 38 7a 7e 41 60 2e 14 42 25 d8 d6 40 04 00 00 00
       15.904839 37.045288 6.713885 6e-45
0000b0 04 00 00 00 bd 7d 41 41 86 8a fa 41 90 15 5d 40
       6e-45 12.093198 31.317638 3.454441
0000c0 e8 64 0c 42 04 00 00 00 7e bb 0d 42 48 05 c3 3f
       35.09854 6e-45 35.433098 1.5235987
0000d0 a1 81 0d 42 04 00 00 00 91 49 7a 41 b3 62 05 41
       35.37659 6e-45 15.642961 8.3365965
0000e0 f8 f3 08 41 07 0c 90 41 72 a7 72 41 79 19 18 41
       8.559563 18.005873 15.16588 9.506219
0000f0 e1 aa 4b 41 30 18 d3 41 55 0d 7e 41 1d 73 f7 41
       12.7292185 26.38681 15.878255 30.931208

decoder.0.weight f4 [128, 64]
000000 9d 36 ce be db 0f b8 3e f5 f4 9f be 28 74 22 3e
       -0.40276042 0.35949597 -0.31241575 0.15864623
000010 f9 3e 14 3e b8 1c 61 3d d3 0f f1 bd 47 12 41 3f
       0.14477147 0.05495903 -0.11770596 0.75418514
000020 5c b6 db bd 1d eb 4a 3d 39 34 a1 3e 21 d6 03 40
       -0.10728142 0.049540628 0.31485155 2.0599444
000030 c8 5b e1 3e 8c b8 87 b9 6d 6c de 3e aa 5c 76 3f
       0.44015336 -0.00025886705 0.43442097 0.96235144
000040 49 5a 45 3e 02 2d 8a bd 20 b3 81 be cd 81 24 be
       0.19272722 -0.06746866 -0.25331974 -0.1606514
000050 40 57 05 3f d7 bf c9 3e a8 4a b1 3e 58 01 61 3f
       0.5208626 0.39404175 0.3462727 0.87892675
000060 b4 a0 20 3f 56 21 e4 3d b5 bd 08 3d e0 c4 b1 bd
       0.62745214 0.11139171 0.033384044 -0.08680129
000070 97 40 51 3e ab 70 e2 3e 8b 4b 38 be c6 8d 54 3e
       0.20434795 0.44226584 -0.17997567 0.20757207
000080 f0 06 dd bd 55 70 22 be b3 19 d3 3e 3f f2 bb be
       -0.10792339 -0.15863164 0.41230544 -0.36708257
000090 fa 8c 01 3e 2b 11 f2 bd 95 34 94 bc f6 f5 d4 3e
       0.12651435 -0.11819681 -0.01809148 0.41593903
0000a0 06 27 47 bf c1 aa 0e be e2 8b 13 be 04 01 16 3f
       -0.7779392 -0.13932325 -0.1440883 0.585953
0000b0 f6 a7 ff ba c9 22 bc bd 22 35 4c bf 2f 85 0d 3f
       -0.0019505012 -0.09186322 -0.79768574 0.5528135
0000c0 4d 7a fd bd 53 f3 ca 3e b1 8e ea bd bb 9f 4e bd
       -0.12376843 0.39638767 -0.114529975 -0.0504453
0000d0 34 4d 43 be 1d 5c 51 3f 8a 91 b9 be 9d fb ee 3e
       -0.1907242 0.8178118 -0.3624385 0.4667634
0000e0 93 47 37 3e 7f d5 57 be 08 e8 ae be 36 8e c4 bb
       0.17898397 -0.21077536 -0.341614 -0.005998398
0000f0 9d 2b 26 bf ef 84 73 bd df 8b 6b 3e 71 f8 4c be
       -0.649103 -0.059452947 0.23002575 -0.20016648
000100 2c d5 91 bd a0 b2 80 3d ed bb e5 bd a0 f0 01 be
       -0.071207374 0.0628407 -0.112174846 -0.12689447
000110 92 c2 c2 3d a7 1e 90 3d 3d 20 1d bd 60 06 65 bc
       0.095097676 0.070370965 -0.038360823 -0.013978571
000120 72 5e b0 3d 7f 58 0b be c5 af ad bd 5f f8 e2 bd
       0.08611764 -0.13607977 -0.08480791 -0.11082529
000130 71 29 0b be e6 fe 47 bb c4 d2 c2 3d b0 7e 97 bd
       -0.13590027 -0.0030516922 0.095128566 -0.073972106
000140 92 07 e0 3d 8c 45 55 bd d8 b6 02 3d d2 7a 83 3d
       0.10938944 -0.05206828 0.031912655 0.064199105
000150 24 e7 ce bc 3b d0 d2 3d e6 9e dc 3b 71 e4 32 bd
       -0.0252567 0.10293623 0.0067328094 -0.04367489
000160 f0 ed 56 3c 3c 8d a2 3d 9a 6a 93 bd 11 22 aa bd
       0.013118252 0.079370946 -0.07198067 -0.08307279
000170 cf 9c fa bc 4a c2 1a 3d a3 a6 01 be 37 4b a2 3d
       -0.03059235 0.037782945 -0.12661223 0.07924502
000180 fb 67 b2 3d 74 d3 8f bd 03 56 44 bc 2f 23 46 3d
       0.08711239 -0.07022753 -0.011983397 0.048373397
000190 b4 3d 55 3d ca d6 c2 3d 67 d6 5f bd 22 3f e6 bd
       0.052060798 0.09513624 -0.05464783 -0.112425104
0001a0 40 43 0f 3b dc 95 9a bd b7 c4 fa bc 3f d9 06 be
       0.0021860152 -0.07548115 -0.03061138 -0.1316881
0001b0 66 4d ad 3d 0b 3f 7b bc 23 d9 95 3d b6 18 01 bd
       0.08462028 -0.015334855 0.07316806 -0.031517707
0001c0 e1 4b c5 3c e7 cb 00 be 62 44 05 be 62 4f b4 3d
       0.024084033 -0.12577783 -0.13014367 0.088042036
0001d0 70 c6 b3 3a 84 f1 b4 3c a8 d2 69 bd 2b 51 57 bd
       0.0013715755 0.02208782 -0.057085663 -0.052567642
0001e0 b9 7c 34 bd c4 9e e3 3d a1 ad b0 bd 89 62 a3 bd
       -0.044064257 0.111142665 -0.08626867 -0.079777785
0001f0 f7 d0 a9 bd 3b f8 31 3d 60 58 57 3d a9 71 76 bc
       -0.0829181 0.04344962 0.052574515 -0.015041747
000200 7b bc a7 3d c5 7f 0c bf c9 38 d2 3e 8e 9c e9 3e
       0.08190247 -0.5488246 0.4105895 0.45627254
000210 c9 83 79 be c1 3e 0c 3d 3f fd 2a 3d 0b 83 46 bc
       -0.24366678 0.034239534 0.04174542 -0.012116204
000220 b3 4e 2d bf 05 36 4b 3f f6 77 19 bf 9d dd ee bd
       -0.6769821 0.793793 -0.5994867 -0.11663363
000230 b0 f9 bf be e8 5d 53 bd 0a bf 0f be 0a c4 a1 be
       -0.37495184 -0.051603228 -0.1403772 -0.31594878
000240 96 04 98 3f 29 a6 46 be b9 a4 74 bd ee 19 6e 3e
       1.18764 -0.19399323 -0.059727404 0.23252079
000250 69 30 0e be 05 45 eb 3d 1a 7b 4f 3f e1 ac 21 bf
       -0.13885655 0.11487774 0.81047213 -0.6315442
000260 89 f8 64 be 8a 93 e1 3d 7a 52 86 3d d7 49 bd 3d
       -0.22360434 0.11014469 0.065587 0.092425995
000270 c8 20 fe 3e a3 53 6f be 6a cb 05 bf 80 60 96 3d
       0.49634385 -0.23371749 -0.5226351 0.07342625
000280 18 1e 59 be 99 24 5e bd e5 5a 30 3e 65 47 46 3e
       -0.21202886 -0.05423412 0.17222174 0.19363172
000290 9c 13 f1 bd 33 ed da 3d c9 de b7 3e 55 e1 23 be
       -0.11771318 0.106897734 0.3591216 -0.16003926
0002a0 3e df 9f 3d 5a db 3b 3f 28 38 1f 3d 5e ee 81 be
       0.07806252 0.7338158 0.038871914 -0.25377172
0002b0 71 e0 1e 3e a0 38 36 3e 14 15 82 3f 1e 88 85 bc
       0.15515305 0.17795038 1.0162683 -0.016300257
0002c0 be f7 51 3c 1c 2c 83 be 0a 75 97 be 65 0e 07 3f
       0.012815414 -0.2561959 -0.2958148 0.5275634
0002d0 13 79 04 3e de 82 1d be 6e 3d 7e be 20 2d 0d 3e
       0.12936811 -0.15381953 -0.24828121 0.13786745
0002e0 7c 52 fb 3e 26 55 0d 3f 3d 77 97 3d 0b eb 91 3e
       0.49086368 0.5520805 0.0739579 0.28499636
0002f0 df 50 89 be 9e 53 c5 3b 5f 00 3e 3d 84 1e 2a 3e
       -0.26819512 0.006021931 0.046387073 0.16613203
000300 ee 7f 60 3d db d3 37 bf c8 89 e0 be 7f 3e 06 bf
       0.054809503 -0.7180764 -0.4385512 -0.5243911
000310 1a 10 ae 3e 4a 5a 02 3c 5e 8c 0e 3e fd 1e d2 3d
       0.3399666 0.007956097 0.13920733 0.10259817
000320 ac 15 bd be a5 87 d8 be 95 83 08 be a4 4a d3 bd
       -0.36930597 -0.4229099 -0.13331445 -0.10316971
000330 ba 6e 8a be 1e 6a 68 3f 4f 45 1e 3f c1 c8 28 bf
       -0.27037603 0.9078692 0.61824507 -0.65931326
000340 fb 6e 3d 3e f2 94 24 bc e0 7f c4 3e 85 49 97 be
       0.18499367 -0.010045277 0.3837881 -0.29548278
000350 3c ec 52 3e 04 9e 9a 3e a8 96 85 3f 25 eb 15 3f
       0.20597929 0.3019868 1.0436602 0.5856193
000360 bd 85 5a 3d 75 62 9f 3e 12 9d 2b 3e 8b 3d 69 bc
       0.0533502 0.31129804 0.16759136 -0.014235864
000370 24 6e 67 3e 9c 7f 1d 3f be 29 86 bf b9 91 83 be
       0.22600609 0.6152284 -1.0481489 -0.25697115
000380 94 62 db 3d 4d 7a 47 3d d0 83 76 bd c6 ff 4b 3f
       0.10712162 0.04870062 -0.0601843 0.79687154
000390 0f 93 0e be c6 2a a9 bf 8f a1 3f be 8d 76 26 bf
       -0.13923286 -1.3216178 -0.18713973 -0.65024644
0003a0 50 8a c5 3e 2c 00 97 3c 3a 18 0f bd c9 60 cf 3e
       0.38582087 0.0184327 -0.034935214 0.4050353
0003b0 c6 fe a9 bd 83 6c 0b 3e 04 6b b0 be 42 a5 5d 3e
       -0.08300547 0.13615613 -0.34456646 0.21645072
0003c0 f6 2e e7 bd bb 4c d0 3e 05 32 d6 3e 13 fe 7d be
       -0.11288254 0.4068354 0.41835037 -0.24803953
0003d0 c1 3b d0 be b7 b3 bb 3e f5 1b 74 3f 90 52 0f be
       -0.4067059 0.3666055 0.9535516 -0.13996339
0003e0 50 78 79 bd 3f 2f 96 be d0 24 25 3d df 59 c4 be
       -0.060905755 -0.2933292 0.04031831 -0.38349816
0003f0 c2 37 7d 3e 29 13 29 3e a0 2e 72 3e f7 ad 11 3e
       0.24728301 0.16511215 0.23650599 0.14226519

decoder.0.bias f4 [128]
000000 36 ee 74 bd 01 01 5e bd 7f 16 31 3e c9 e7 89 3e
       -0.05979749 -0.054200176 0.17293738 0.2693465
000010 d0 6b 3d bd 71 80 98 3c 12 0a 26 3f f5 51 2e 3e
       -0.046245396 0.018615933 0.64859116 0.17023452
000020 f0 e4 b5 3e fe 25 63 3d b1 19 52 3d 2c fa 71 bc
       0.35526228 0.055456154 0.051294032 -0.014769118
000030 37 ff 58 3f ac 6d 8e bd 96 23 a0 3e e1 fb 48 3e
       0.84764427 -0.06954512 0.3127715 0.19627334
000040 d1 47 e6 3c 2d 36 c3 3f 0e 53 04 3e d4 40 11 40
       0.028110417 1.5250908 0.12922308 2.2695818
000050 b2 30 25 3e 67 d2 4a 3f e2 43 10 3e 4d 97 19 3c
       0.16131857 0.792273 0.14088395 0.009374452
000060 41 2c 2c 3f be 80 07 bd c9 13 86 3f 57 05 b0 3f
       0.67255026 -0.033081762 1.0474788 1.375163
000070 fd 3a 8a 3f 30 da aa 3a 01 66 8a 3e 19 95 a2 bd
       1.0799252 0.0013034996 0.27030948 -0.07938594
000080 0e d0 9f bc 55 62 e0 bd 41 66 1a bd 5e 44 aa bd
       -0.019508388 -0.10956255 -0.037695173 -0.08313821
000090 69 f0 84 3f 38 7c 44 bd 81 22 ce 3e 85 48 e4 3e
       1.0385867 -0.047970027 0.402607 0.44586578
0000a0 7f ec d2 3f 8a 72 cc bd b0 7e e3 3d 8a 6a 93 3d
       1.6478423 -0.09982784 0.11108148 0.07198055
0000b0 16 6e 84 3e 5c 13 94 3e a0 4e 43 3d 4c 2b c4 3f
       0.2586524 0.2892102 0.047682405 1.5325713
0000c0 28 9a e5 bc 64 3a 1b bd 2a 4b ca 3d 7c 3d 8b bd
       -0.028027609 -0.037897483 0.09877618 -0.067988366
0000d0 e5 b3 d1 3e 82 60 1c 3f ba e3 2c 3f 6b cf 55 3d
       0.4095756 0.6108476 0.67534983 0.052199762
0000e0 23 8b f6 3c b5 c7 29 3c b2 b7 8d bd 3a 6c 0b 3f
       0.030095642 0.010362555 -0.06919803 0.54462016
0000f0 24 6a 6a 3f fb e3 a8 3e fe 7f 35 3f 3a 6e 22 3e
       0.9156821 0.32986435 0.70898426 0.1586236
000100 97 3b 8d bd 16 70 17 3f 08 26 02 be 36 d1 43 bc
       -0.068961315 0.59155405 -0.1270982 -0.011951735
000110 d9 d3 16 3e 15 2e a2 3e b2 de a8 3f 39 89 6d 3f
       0.14729251 0.31675783 1.3192961 0.9278751
000120 07 e3 1a bd f0 79 9d 3f 85 1d c7 bd 5f a6 98 3f
       -0.037814166 1.2302837 -0.09722427 1.1925772
000130 3f 98 8d bd e6 32 20 be 12 bf 93 3f ec 6c 4c bd
       -0.06913804 -0.15644416 1.1542685 -0.049908563
000140 a6 ed 88 3e e9 c2 56 3e 8b aa c1 3f 7a 7a 4b 3f
       0.2674381 0.2097279 1.513017 0.7948376
000150 66 db d0 3e 1f ce 0f 3e 1d c9 d0 3d 30 c1 dd 3c
       0.40792388 0.14043473 0.10194609 0.027069658
000160 26 b9 91 bc 9c 17 f3 bd d1 d3 76 bd 25 ff 33 3f
       -0.017788481 -0.118697375 -0.060260598 0.70311195
000170 50 a4 56 3f 26 3c a9 3f 31 72 c2 3e fd ce 18 3d
       0.8384447 1.3221481 0.37977746 0.037306774
000180 f3 2b ca 3d 83 4e a1 3d fa 6e ce bd a8 a1 12 3f
       0.09871664 0.07876303 -0.10079761 0.5727792
000190 5e fc 6d 3e 77 9d 4d 3b 63 8d 9a bd c9 b4 f5 bc
       0.23240802 0.0031374374 -0.075464986 -0.029993432
0001a0 5a db 49 3f 3c 59 fb 3e 79 ca 7f 3e 8a b1 66 bd
       0.7885033 0.49091518 0.24979581 -0.05632166
0001b0 b9 f3 d8 3f 6c 2d b7 bd 2a 9d 00 40 f3 d8 b7 3f
       1.6949378 -0.089442104 2.0095925 1.4363083
0001c0 7d e5 ef 3d 94 41 85 3d 01 f0 f6 3e b5 79 ef 3c
       0.11713693 0.06506649 0.48229983 0.02923284
0001d0 4c 98 8c 3d db 38 91 bd d4 ff 29 bd 88 16 dd 3c
       0.06864986 -0.070909224 -0.041503742 0.026988283
0001e0 af 75 dc 3e 25 a9 94 3e 28 1d af 3e 47 65 cc bb
       0.43058535 0.29035297 0.34201932 -0.006237659
0001f0 f9 7e 4d 3e a0 c0 9d 3e 23 07 d6 3e 6c b6 66 3f
       0.20067967 0.30811024 0.4180232 0.90122104
