papers/euromlsys/rl-manager/mnt/autoencoders/VQVAE_64dim_512n_BN.pth (torch, 374385 bytes, 17 tensors)

encoder.0.weight f4 [128, 161]
0	0x3dd4004a	0.10351618
1	0x3e21be05	0.15795143
2	0x3db4ca4c	0.088276476
3	0xbf93b965	-1.1540953
4	0x3df100ec	0.11767754
5	0xbe8cba2c	-0.27485788
6	0x3dfff837	0.12498515
7	0xbe50f4eb	-0.20405929
8	0x3d54cb09	0.051951442
9	0x3f5a878a	0.85363066
10	0xbf1eec13	-0.6207897
11	0x3f29e6e6	0.6636795
12	0xbf3ee12c	-0.74562335
13	0x3d907bb8	0.070548475
14	0xbe2c095c	-0.16800445
15	0xc0277477	-2.6164834
16	0x3ec326e9	0.38115624
17	0xbf0664e6	-0.5249771
18	0x3f574afb	0.84098786
19	0xbe21287e	-0.15738103
20	0x3e545d9e	0.20738837
21	0x3f422266	0.7583374
22	0xbf7442b9	-0.9541431
23	0x3e2e690e	0.17032263
24	0xbe1d396b	-0.15353934
25	0x3e304bd6	0.17216429
26	0x3e338caa	0.17534128
27	0xbee07c38	-0.4384477
28	0x3f84b9d0	1.0369205
29	0x3de991b2	0.11404742
30	0xbcfffc13	-0.031248128
31	0xbecb1d65	-0.39670864
32	0xbe45229b	-0.19251482
33	0x3f174992	0.59096634
34	0xbd7fbaf9	-0.06243417
35	0x3d58400d	0.05279546
36	0x3ec532a8	0.3851521
37	0xbec4e69e	-0.38457197
38	0x3ec0a436	0.37625283
39	0xbf2962e1	-0.661665
40	0x3e120564	0.14259869
41	0x3edb3e11	0.4282079
42	0x3f00327b	0.5007703
43	0xbb3352a0	-0.002736248
44	0xbe787025	-0.2426153
45	0x3f2c0bbe	0.6720542
46	0xbe093f27	-0.13402997
47	0x3dc122ee	0.094304904
48	0xbcd5109b	-0.026008895
49	0x3e866877	0.26251575
50	0x3f2c8e47	0.674046
51	0x3f5da3b1	0.865779
52	0xbe4dc49d	-0.20094533
53	0x3e84828b	0.25880846
54	0xbf0e303b	-0.55542344
55	0x3e7eded7	0.24889694
56	0xbefa0ad7	-0.48836395
57	0x3eb3fdc6	0.3515455
58	0xbe07fbd6	-0.13279662
59	0x3e80150a	0.25016052
60	0xbecfa2ad	-0.405538
61	0x3f526228	0.82181025
62	0xbee95163	-0.45569906
63	0x3f42340d	0.75860673
64	0xbea33251	-0.31874326
65	0x3cb1230c	0.021623157
66	0xbd56b22b	-0.052416008
67	0xbd6a614d	-0.0572217
68	0x3e2a4f72	0.16631868
69	0xbdbcce3f	-0.09219026
70	0xbdbfc1dd	-0.09363148
71	0xbe4fefbf	-0.203063
72	0xbca97bbf	-0.02068889
73	0x3defe2a4	0.1171315
74	0xbe309d49	-0.172475
75	0xbdecaf41	-0.115568645
76	0xbd5fc5d5	-0.054632027
77	0x3e08a0ef	0.13342641
78	0xbd3d93b3	-0.046283435
79	0xbd5302d1	-0.051516358
80	0xbdaf6215	-0.085636295
81	0xbddc8153	-0.10766854
82	0xbe26100e	-0.16217062
83	0x3c17cdef	0.009265407
84	0xbd806646	-0.06269507
85	0xbce162cf	-0.027512936
86	0x3cbf1777	0.023326619
87	0xbd0a973e	-0.033835642
88	0xbdad0e29	-0.084499665
89	0x3d988521	0.07447267
90	0x3d04b16b	0.03239576
91	0x3d3e1365	0.046405215
92	0xbc0d6ff7	-0.0086326515
93	0x3ad3b236	0.0016151133
94	0x3db1b189	0.0867644
95	0xbd37f93a	-0.044915415
96	0x3d9f0f67	0.0776661
97	0x3b0148c6	0.0019727214
98	0xbdb30421	-0.08741022
99	0x3e005e79	0.12536038
100	0xbe5cfd86	-0.21581087
101	0xbd4070e5	-0.046982665
102	0xbd3be6ae	-0.04587429
103	0x3dd099b6	0.10185568
104	0xbd0f9856	-0.03505739
105	0x3cb6c956	0.022312801
106	0xbe81a2ee	-0.25319618
107	0xbcd65937	-0.026165588
108	0x3e0cf416	0.13764986
109	0x3d6c114d	0.057633687
110	0x3bc7a7e5	0.0060930126
111	0x3d08678b	0.03330187
112	0x3de5d6b8	0.11222595
113	0xbd080af5	-0.033213574
114	0x3d9c7c01	0.07640839
115	0xbd9ef36f	-0.07761275
116	0xbcf0ed68	-0.02941008
117	0xbb7a06a1	-0.0038150924
118	0x3df97b84	0.12181762
119	0x3c9b840b	0.018983861
120	0xbcc8bd3f	-0.024504302
121	0x3b9844b0	0.00464686
122	0xbd8969b5	-0.06709615
123	0xbb6435ae	-0.0034822035
124	0xbcf53a51	-0.029935034
125	0xbd97880d	-0.073989965
126	0xbd8b9758	-0.06815976
127	0xbd917851	-0.07103027
128	0x3d54270e	0.051795058
129	0x3d9c653c	0.076364964
130	0xbcf1d8ca	-0.029522318
131	0x3ceeacfb	0.029135218
132	0x3d8d0e21	0.068874605
133	0xbd81f590	-0.063456655
134	0xbca77c4d	-0.020445013
135	0xbc649676	-0.013951888
136	0xbcad8459	-0.021181272
137	0xbd9c2bd1	-0.07625545
138	0xbd930fdd	-0.0718076
139	0xbcdbe77a	-0.026843775
140	0xbcfaf40b	-0.030633947
141	0xbd201ce2	-0.039090045
142	0x3d70835f	0.058719035
143	0x3d42d4ff	0.04756641
144	0x3c03dbad	0.00804798
145	0x3d68c81f	0.056831475
146	0x3d7181ab	0.05896155
147	0x3d8042dd	0.06262753
148	0xbcc100c5	-0.023559937
149	0x3cb6cb8e	0.02231386
150	0xbd20581c	-0.039146528
151	0x3d5a07d8	0.053230137
152	0xbd510ed1	-0.05103952
153	0xbd95adbb	-0.07308527
154	0x3c56d98e	0.0131133925
155	0xbd1b4d1b	-0.03791533
156	0x3c3879f1	0.011259542
157	0x3d1e0a98	0.03858432
158	0xbc042406	-0.008065229
159	0xbc8cc298	-0.017182633
160	0x3d64419a	0.055726625
161	0xbd82c033	-0.06384315
162	0x3cbb804d	0.022888327
163	0xbdff9ce7	-0.124810986
164	0xbd22cb5e	-0.039744727
165	0xbca4e5c7	-0.020129098
166	0xbc537cf7	-0.012908212
167	0xbc8f7f7f	-0.01751685
168	0xbca327c2	-0.019916419
169	0x3d904263	0.07043912
170	0xbd7dd0e1	-0.06196678
171	0xbd29c344	-0.041445985
172	0xbcdba74a	-0.026813168
173	0x3d3b99c0	0.045800924
174	0xbabcdf9a	-0.00144099
175	0x3b8041f8	0.003914114
176	0xbd095376	-0.03352686
177	0x3d70bcd1	0.05877382
178	0x3d73c9b2	0.059518524
179	0x3c2042cd	0.009781552
180	0xbde8027d	-0.113285996
181	0x3c9d9519	0.019236134
182	0x3d6d9887	0.05800679
183	0x3bb9d6d3	0.005671361
184	0xbc5f3e79	-0.0136257345
185	0xbc77519c	-0.015095141
186	0x3ccec7fe	0.025241848
187	0xbb8ff19d	-0.004392816
188	0xbd26e7f3	-0.040748548
189	0xbc90bfa8	-0.017669514
190	0x3d001992	0.031274386
191	0x3d77ee18	0.0605298
192	0xbc504a19	-0.012712979
193	0xbe094da1	-0.1340852
194	0x3d845450	0.06461394
195	0x3cc7a928	0.024372652
196	0x3cc4d074	0.02402518
197	0xbd2871f7	-0.04112431
198	0xbc5a7cc9	-0.013335415
199	0xbd4439f6	-0.04790684
200	0xbcd4d871	-0.025982114
201	0xbc539fc8	-0.012916513
202	0xbd6bb175	-0.057542283
203	0xbd000516	-0.03125485
204	0xbd61ebe8	-0.05515662
205	0xbc6adb1f	-0.014334469
206	0xbc52921f	-0.012852221
207	0xbd8930d4	-0.06698766
208	0xbb2be0e1	-0.0026226568
209	0xbd61eb57	-0.05515608
210	0xbd87b47a	-0.0662622
211	0x3d823e27	0.06359511
212	0xbd5dc134	-0.05413933
213	0xbd9c72a1	-0.07639051
214	0x3e229e36	0.15880665
215	0x3d08e3a1	0.03342021
216	0x3db83b97	0.08995741
217	0x3d192e02	0.037397392
218	0x3d408f44	0.04701163
219	0xbc02fa15	-0.0079941945
220	0x3e4669ec	0.19376343
221	0x3bf5bf86	0.007499638
222	0x3dd9d587	0.1063643
223	0xbe04a603	-0.12953953
224	0xbd7361a7	-0.0594193
225	0x3dcebb39	0.10094304
226	0x3d0f6ee0	0.035017848
227	0x3daf6e5f	0.085659735
228	0xbd189a4b	-0.03725652
229	0x3e47be23	0.19506125
230	0xbdb91ebc	-0.09039065
231	0xbd829eb1	-0.06377924
232	0x3b6d3d60	0.0036199912
233	0xbcef19cf	-0.029187111
234	0xbd979638	-0.07401699
235	0x3c0daca8	0.0086471215
236	0xba9e7ffd	-0.0012092587
237	0x3ad2c724	0.0016081077
238	0xbd91e051	-0.07122863
239	0x3ca0abff	0.019613264
240	0xbd04c9a2	-0.032418855
241	0xbd5f524d	-0.054521848
242	0xbd417c59	-0.047237728
243	0xbd1e87b4	-0.038703635
244	0xbcbdeb1f	-0.023183404
245	0xbd946114	-0.07245079
246	0xbd23aa0e	-0.0399571
247	0x3d735de4	0.059415713
248	0x3d2c9e2b	0.04214303
249	0xbc82eebb	-0.015982976
250	0xbd23e00e	-0.040008597
251	0x3b2dfca6	0.0026548295
252	0x3d9002ab	0.07031759
253	0xbd5976bc	-0.05309175
254	0xbcba5d3b	-0.022749534
255	0xbd5e826c	-0.0543236

encoder.0.bias f4 [128]
0	0x3e287486	0.164507
1	0x3b1f1d38	0.002427889
2	0x3c0c0a88	0.008547433
3	0x3d79e16b	0.06100599
4	0xbdb391b5	-0.08768026
5	0xbd2d47ec	-0.04230492
6	0xbd716678	-0.058935612
7	0xbd02292b	-0.031777542
8	0x3d8566d1	0.06513751
9	0xbdd58879	-0.10426421
10	0x3e700b53	0.2344182
11	0x3e0f5777	0.13998209
12	0x3caaa0a0	0.020828545
13	0xbce923b8	-0.028459415
14	0x3e4c2f73	0.19939975
15	0xbd8b895b	-0.06813308
16	0x3e14748c	0.14497584
17	0x3c0169c5	0.007898753
18	0x3e0a4cbe	0.13505837
19	0xbb82d5d4	-0.0039927755
20	0xbd7e2f7d	-0.062057007
21	0xbccd4ab2	-0.025060032
22	0xbdaa9c26	-0.08330564
23	0x3ca1e4e3	0.019762462
24	0xba2cb639	-0.00065884326
25	0xbc83da79	-0.016095387
26	0x3c9e8f31	0.019355388
27	0x3cb073c4	0.021539576
28	0xbe0973a8	-0.13423026
29	0xbd07df1a	-0.03317175
30	0x3c423c12	0.011855142
31	0xbd8c2044	-0.06842092
32	0xbd9139c7	-0.07091098
33	0xbd6e69c1	-0.058206324
34	0x3e9cf2f9	0.30654123
35	0x3dfcb545	0.12339262
36	0xbc4b451e	-0.012406616
37	0x3e32907b	0.17437927
38	0x3c6c88a3	0.014436874
39	0xbd09b513	-0.03361995
40	0xbdb6a4c3	-0.089181446
41	0xbcdf00b6	-0.027222019
42	0xbd40cf12	-0.047072478
43	0xbbb14863	-0.0054102405
44	0xbd0b2582	-0.033971317
45	0x3c87e388	0.016587988
46	0xbd137a4d	-0.036005307
47	0xbcdff877	-0.027340157
48	0xbce6f7ab	-0.02819427
49	0x3e16ff8f	0.14745925
50	0x3d3ad8ca	0.045616902
51	0xbc13719d	-0.0089992555
52	0xbcfc5096	-0.030800145
53	0xbd72bf12	-0.05926425
54	0xbd512a64	-0.051065817
55	0xbd231853	-0.03981812
56	0xbd317f27	-0.043334153
57	0xbd845ca0	-0.06462979
58	0xbd6a5b39	-0.057215903
59	0xbd29e869	-0.04148141
60	0xbda2b4d6	-0.07944648
61	0xbd952942	-0.0728326
62	0xbd1bac48	-0.038006097
63	0xbd6e03b1	-0.05810899
64	0xbd3abd8c	-0.045590922
65	0x3c34f462	0.0110445935
66	0x3d73a794	0.059485987
67	0x3ccaeb8f	0.024770526
68	0x3dec7f0d	0.115476705
69	0x3e9e6377	0.3093526
70	0xbd9e5981	-0.07731915
71	0xbd9e8e8b	-0.07742032
72	0xbd25dc8e	-0.04049354
73	0x3ec08c82	0.376072
74	0x3e3e03e2	0.18556169
75	0xbcc81f60	-0.024429023
76	0x3e319457	0.17341743
77	0x3e715157	0.23566185
78	0xba097084	-0.00052429014
79	0xbe222715	-0.15835221
80	0xbcf467c7	-0.029834641
81	0x3c30b5e2	0.010785552
82	0x3d9e6ea0	0.07735944
83	0xbdcc22f1	-0.09967602
84	0xbd760f66	-0.06007328
85	0xbd255569	-0.040364657
86	0xbd8ce033	-0.068787
87	0x3c813242	0.015771035
88	0xbc09e8dd	-0.008417335
89	0x3c7e6f48	0.015529461
90	0xbd91a5b2	-0.07111682
91	0x3d00df9a	0.031463243
92	0xbd978387	-0.07398134
93	0xbdac68be	-0.084184155
94	0x3bd0b9a7	0.0063697877
95	0x3e9a5ba7	0.3014805
96	0xbc87c359	-0.016572641
97	0xbe2d05a9	-0.1689669
98	0x3e5e53d1	0.21711661
99	0xbd4ddfcf	-0.05026227
100	0x3d7f3a3b	0.062311392
101	0xbd7b54ee	-0.061360292
102	0xbc7a2015	-0.015266438
103	0x3e9822d7	0.2971408
104	0xbdbf0864	-0.09327772
105	0x3e138b86	0.14408693
106	0xbd2667c3	-0.0406263
107	0xbda09376	-0.07840626
108	0xbd14a470	-0.036289632
109	0xbdae6dda	-0.08517046
110	0x3d31135d	0.043231357
111	0xbe1f6569	-0.15566029
112	0x3ea249b4	0.31696856
113	0xbd234eb3	-0.039869975
114	0xbd2208c9	-0.03955916
115	0xbd2434d1	-0.040089432
116	0xbd7d9565	-0.06191005
117	0xbcf3d319	-0.029763745
118	0x3de4a6b6	0.1116461
119	0xbdca3122	-0.098726526
120	0xbd041094	-0.032242373
121	0x3dbb2a7f	0.09138965
122	0xbd8848c8	-0.06654507
123	0x3d315a34	0.043298915
124	0x3c951b8e	0.018201616
125	0x3e390289	0.18067373
126	0x3c48bc33	0.012251901
127	0xbd52783c	-0.051384196

encoder.2.weight f4 [128]
0	0x3d346c43	0.04404856
1	0x3e3f17b5	0.18661387
2	0x3d32d9bf	0.04366469
3	0x3d7e72a3	0.062121045
4	0xbd16836f	-0.03674644
5	0x3f7b0a99	0.98063046
6	0x3f800000	1.0
7	0x3d192e98	0.03739795
8	0x3d5851b1	0.052812282
9	0x3f7c41cf	0.98537916
10	0x3dbc456c	0.09192929
11	0xbbfe5e22	-0.0077626863
12	0x3f77439b	0.9658753
13	0x3f800000	1.0
14	0x3d880746	0.06642012
15	0x3f800000	1.0
16	0x3d5cf896	0.053948008
17	0x3f7d822e	0.99026763
18	0x3da1c63f	0.078991406
19	0x3f7c98d2	0.98670685
20	0x3f800000	1.0
21	0x3f8215f4	1.016295
22	0x3e092a3a	0.13395014
23	0x3d807b62	0.062735334
24	0x3d7a42b5	0.061098773
25	0x3f800000	1.0
26	0x3f7a58b8	0.97791624
27	0x3f7cfaba	0.9882008
28	0x3de7b030	0.11312902
29	0xbd4b9135	-0.049699027
30	0x3f7d34bc	0.9890859
31	0xbc8d8714	-0.017276324
32	0x3f800000	1.0
33	0x3f800000	1.0
34	0x3d7921ad	0.06082313
35	0xbac1a3b5	-0.001477352
36	0x3f800000	1.0
37	0x3d79399f	0.060845967
38	0x3f7dbedb	0.9911935
39	0x3f800000	1.0
40	0x3f57e534	0.8433411
41	0x3f800000	1.0
42	0x3f1cf69d	0.613138
43	0x3d12b150	0.03581363
44	0x3f800000	1.0
45	0x3f74b904	0.9559481
46	0x3f800000	1.0
47	0x3f7d0a53	0.9884388
48	0x3f800000	1.0
49	0x3d65a46e	0.056065015
50	0x3f7d95f3	0.9905693
51	0x3f78137c	0.9690473
52	0x3f800000	1.0
53	0xbd0a6373	-0.03378625
54	0x3f800000	1.0
55	0x3f7c46a9	0.9854532
56	0x3f7eb042	0.994877
57	0x3f800000	1.0
58	0x3f800000	1.0
59	0x3d6c9d59	0.057767246
60	0x3f7c7bd1	0.9862643
61	0x3f74024c	0.95316005
62	0x3f69cabe	0.91324985
63	0x3f800000	1.0
64	0x3f800000	1.0
65	0x3f800000	1.0
66	0x3d18c805	0.03730013
67	0x3f7d8b7e	0.99040973
68	0xbb5dbb68	-0.0033833627
69	0x3dc3d8ed	0.0956286
70	0x3f800000	1.0
71	0x3f7ec286	0.9951557
72	0x3d469bbc	0.048488364
73	0x3e0a03ac	0.13477963
74	0x3db9ae9a	0.09066506
75	0x3f800000	1.0
76	0x3dbd5cb7	0.092461996
77	0x3d739a87	0.05947354
78	0x3f740347	0.953175
79	0x3bbd4ccf	0.0057769786
80	0x3f75df0a	0.96043456
81	0x3f7e0012	0.9921886
82	0x3c9ccd7c	0.019140951
83	0x3f77ecb4	0.96845555
84	0x3f800000	1.0
85	0x3f800000	1.0
86	0x3f800000	1.0
87	0x3f74d60a	0.956391
88	0x3f800000	1.0
89	0x3d57d72a	0.05269543
90	0x3f800000	1.0
91	0x3d4ad28f	0.04951721
92	0x3f800000	1.0
93	0x3f7d7aca	0.99015486
94	0x3c1201f1	0.008911596
95	0x3d9a1fe4	0.07525614
96	0x3cbe102b	0.023201069
97	0xbc8f4231	-0.017487617
98	0x3da83c8a	0.08214672
99	0x3f800000	1.0
100	0x3f7c3f6f	0.9853429
101	0x3f7cac81	0.9870072
102	0x3f800000	1.0
103	0x3d3c038b	0.045901816
104	0x3f7935c2	0.9734765
105	0xbbe16154	-0.0068780575
106	0x3f800000	1.0
107	0x3f800000	1.0
108	0x3d24ba8b	0.040216964
109	0x3f790234	0.97268987
110	0x3d368046	0.044555925
111	0x3d4f0af8	0.05054757
112	0x3d7fe323	0.062472474
113	0x3d43413a	0.047669627
114	0x3f800000	1.0
115	0x3d065f08	0.032805473
116	0x3f800000	1.0
117	0xbbc77b25	-0.006087678
118	0xbb9e4e86	-0.004831138
119	0xbc92f003	-0.017936712
120	0x3f800000	1.0
121	0x3d5c642c	0.05380647
122	0x3f800000	1.0
123	0x3f800000	1.0
124	0x3f7c9a0b	0.9867255
125	0x3d58a1cc	0.052888677
126	0x3d8c26a1	0.068433054
127	0x3f800000	1.0

encoder.2.bias f4 [128]
0	0x3c1e7c1d	0.009673146
1	0x3ae0d216	0.0017152454
2	0xbc7087c5	-0.0146808075
3	0x3c1b739e	0.0094880145
4	0xba723365	-0.0009239226
5	0xba3deead	-0.00072453433
6	0x3b05b084	0.00203994
7	0xbb10dd0d	-0.0022104413
8	0xbc4b8279	-0.012421244
9	0x3aa59dfa	0.0012635582
10	0x3d39afed	0.04533379
11	0xb89d833d	-7.5107884e-05
12	0x3a771a49	0.0009426219
13	0x3a882055	0.0010385612
14	0xbc89e2eb	-0.016831836
15	0x3a83f7c2	0.0010068344
16	0xbc8257aa	-0.015910942
17	0x37cbe067	2.4303981e-05
18	0xbce3085c	-0.027713947
19	0x3900e1a0	0.00012291083
20	0x39f9e42f	0.0004766299
21	0x3af7b541	0.0018898622
22	0x3d96ab43	0.07356884
23	0x3ca5e4ac	0.02025064
24	0x3c9d6ce6	0.019216966
25	0xbb0da46c	-0.0021612896
26	0xba130796	-0.00056087354
27	0xbb1560a4	-0.0022793198
28	0x3d582684	0.052771106
29	0xbcb0a589	-0.021563308
30	0x3a044576	0.0005045751
31	0x3a5c74d8	0.0008409745
32	0x3b09c049	0.0021019152
33	0xba3b80aa	-0.00071526563
34	0xbc86de7c	-0.01646351
35	0x384ff220	4.9578142e-05
36	0x39429c7c	0.00018559577
37	0x3c494043	0.012283388
38	0xba7a71b1	-0.00095536845
39	0x3b4b531f	0.0031024886
40	0xb8f310a3	-0.00011590242
41	0x3b0d3314	0.0021545338
42	0x3a667d38	0.0008792463
43	0xbc0e37ab	-0.008680264
44	0x3a9ec880	0.0012114197
45	0xba19ba79	-0.00058642734
46	0xba91c6e2	-0.0011121894
47	0x3aed43de	0.0018101891
48	0xba931249	-0.0011220659
49	0xbc8f9da2	-0.01753122
50	0x3b4ba1ab	0.0031071703
51	0x3a994cf4	0.0011695907
52	0x38b8d216	8.812935e-05
53	0x3a33f511	0.0006864826
54	0x3a1b2e4f	0.0005919681
55	0xb7dfb0b9	-2.6665964e-05
56	0xbab98481	-0.0014153869
57	0xbae1c73f	-0.0017225518
58	0xba9520f5	-0.001137762
59	0x3ab25deb	0.0013608312
60	0xbb41d412	-0.0029575867
61	0xba184cf3	-0.0005809806
62	0x3a57aace	0.0008227051
63	0x393cc5bf	0.00018002743
64	0xbab85182	-0.0014062377
65	0xba432495	-0.0007444111
66	0x3bfff893	0.007811615
67	0xba93b0b8	-0.0011267876
68	0xba8e9201	-0.0010877253
69	0xbd011e85	-0.031523246
70	0x3ab0466e	0.0013448724
71	0xba2817e8	-0.0006412254
72	0x3c22ea5c	0.009943571
73	0xbd833b03	-0.0640774
74	0xbcd120ad	-0.025528276
75	0x3b22c3dd	0.0024835982
76	0x3d2571d1	0.040391747
77	0x3cc80ce1	0.024420204
78	0x3a1a1953	0.00058784074
79	0xb879da07	-5.956928e-05
80	0x3882e1e7	6.240961e-05
81	0x3a93ceb4	0.0011276812
82	0x3b48b1c1	0.0030623528
83	0x37e5f30d	2.7412107e-05
84	0xbb126994	-0.0022340761
85	0x3b3b7dd4	0.0028608935
86	0xbad69b37	-0.0016373162
87	0x3a07e604	0.00051841163
88	0x3ae18e7e	0.0017208604
89	0x3c78a13f	0.015175163
90	0xba565869	-0.0008176626
91	0x3c8b63bd	0.017015332
92	0xba80e680	-0.0009834319
93	0x3aaccd13	0.0013183675
94	0x393196b5	0.00016936178
95	0xbcf087e4	-0.029361673
96	0x39ec2de7	0.00045047628
97	0x39bea5ff	0.000363633
98	0xbcfcc1c8	-0.03085412
99	0x3a01ecde	0.00049562554
100	0x3ae779de	0.0017660221
101	0x3a9c468f	0.0011922884
102	0x39de5186	0.0004240388
103	0xbbba9383	-0.0056938543
104	0xba010cfa	-0.0004922893
105	0xba8f68c6	-0.0010941259
106	0x3ae45393	0.0017419927
107	0xbaf11d9d	-0.0018395666
108	0x3c00111f	0.007816582
109	0xba4818df	-0.00076331006
110	0x3c10633e	0.008812724
111	0x3c08bc81	0.008345724
112	0xbc55dd1a	-0.013053203
113	0x3c9c07d3	0.0190467
114	0xb9d3eaee	-0.00040420092
115	0x3b4832a8	0.0030547772
116	0xbb415785	-0.0029501629
117	0xb832a77b	-4.2594485e-05
118	0x39c56448	0.00037649483
119	0x39a0bda1	0.00030658863
120	0x3b8c79ed	0.0042869956
121	0xbc352df9	-0.011058324
122	0xbb466870	-0.0030274652
123	0x3ae31b11	0.0017326792
124	0x3aeadd68	0.0017918767
125	0x3c0e1341	0.008671583
126	0x3c711368	0.0147140995
127	0xba78c09b	-0.00094891497

encoder.2.running_mean f4 [128]
0	0x3ea1dc19	0.31613234
1	0x00000004	6e-45
2	0x3d4f9458	0.05067858
3	0x3de4dff7	0.111755304
4	0x00000004	6e-45
5	0x00000004	6e-45
6	0x00000000	0.0
7	0x00000004	6e-45
8	0x3da095f9	0.07841105
9	0x00000004	6e-45
10	0x3ef15a81	0.47139362
11	0x3e9acb30	0.30233145
12	0x00000004	6e-45
13	0x00000000	0.0
14	0x3eb91590	0.36149263
15	0x00000000	0.0
16	0x3eae061a	0.3398903
17	0x00000004	6e-45
18	0x3ea1ad81	0.31577685
19	0x00000004	6e-45
20	0x00000000	0.0
21	0x00000004	6e-45
22	0x3deb7c94	0.11498371
23	0x3e476273	0.19471149
24	0x3d64a0b4	0.05581732
25	0x00000000	0.0
26	0x00000004	6e-45
27	0x00000004	6e-45
28	0x3db84852	0.08998169
29	0x3d5f3854	0.054497078
30	0x00000004	6e-45
31	0x00000004	6e-45
32	0x00000000	0.0
33	0x00000000	0.0
34	0x3f1e4cc8	0.6183591
35	0x3e80b2c9	0.25136402
36	0x00000000	0.0
37	0x3e9fe528	0.3122952
38	0x00000004	6e-45
39	0x00000000	0.0
40	0x00000004	6e-45
41	0x00000000	0.0
42	0x00000004	6e-45
43	0x3d8446b0	0.06458795
44	0x00000000	0.0
45	0x00000004	6e-45
46	0x00000000	0.0
47	0x00000004	6e-45
48	0x00000000	0.0
49	0x3eff41ea	0.49854976
50	0x00000004	6e-45
51	0x00000004	6e-45
52	0x00000000	0.0
53	0x00000004	6e-45
54	0x00000000	0.0
55	0x00000004	6e-45
56	0x00000004	6e-45
57	0x00000000	0.0
58	0x00000000	0.0
59	0x3db08fc9	0.08621175
60	0x00000004	6e-45
61	0x00000004	6e-45
62	0x00000004	6e-45
63	0x00000000	0.0
64	0x00000000	0.0
65	0x00000000	0.0
66	0x3dcdb19b	0.10043641
67	0x00000004	6e-45
68	0x3e965044	0.29358113
69	0x3eb52046	0.35376185
70	0x00000000	0.0
71	0x00000004	6e-45
72	0x3d3165b0	0.043309867
73	0x3ed449ec	0.41462648
74	0x3e80ed2f	0.25180957
75	0x00000000	0.0
76	0x3f042691	0.5162135
77	0x3ee5baad	0.44868985
78	0x00000004	6e-45
79	0x00000004	6e-45
80	0x00000004	6e-45
81	0x00000004	6e-45
82	0x3e8440c4	0.25830662
83	0x00000004	6e-45
84	0x00000000	0.0
85	0x00000000	0.0
86	0x00000000	0.0
87	0x00000004	6e-45
88	0x00000000	0.0
89	0x3da55747	0.080732875
90	0x00000000	0.0
91	0x3d388c3a	0.045055605
92	0x00000000	0.0
93	0x00000004	6e-45
94	0x00000004	6e-45
95	0x3efc15ce	0.49235386
96	0x00000004	6e-45
97	0x00000004	6e-45
98	0x3f12e3d5	0.57378894
99	0x00000000	0.0
100	0x00000004	6e-45
101	0x00000004	6e-45
102	0x00000000	0.0
103	0x3edc4f4c	0.4302925
104	0x00000004	6e-45
105	0x3ea199bb	0.315626
106	0x00000000	0.0
107	0x00000000	0.0
108	0x3d685744	0.056723848
109	0x00000004	6e-45
110	0x3dcec28b	0.100957
111	0x3d4dc1e6	0.050233744
112	0x3ebf8bd0	0.37411356
113	0x3d5a269e	0.053259484
114	0x00000000	0.0
115	0x3d87ac0c	0.06624612
116	0x00000000	0.0
117	0x00000004	6e-45
118	0x3e94e8a5	0.29083744
119	0x00000004	6e-45
120	0x00000000	0.0
121	0x3e9e6917	0.30939552
122	0x00000000	0.0
123	0x00000000	0.0
124	0x00000004	6e-45
125	0x3f096215	0.53665286
126	0x3d685121	0.056717996
127	0x00000000	0.0

encoder.2.running_var f4 [128]
0	0x3c4609dd	0.0120873125
1	0x00000004	6e-45
2	0x3bcd5743	0.006266506
3	0x3c14fc61	0.009093375
4	0x00000004	6e-45
5	0x00000004	6e-45
6	0x00000004	6e-45
7	0x00000004	6e-45
8	0x3bee8657	0.007279198
9	0x00000004	6e-45
10	0x3d050ca1	0.032482747
11	0x3b75c92d	0.0037503943
12	0x00000004	6e-45
13	0x00000004	6e-45
14	0x3c3e6bcc	0.01162238
15	0x00000004	6e-45
16	0x3bd44673	0.0064781248
17	0x00000004	6e-45
18	0x3cc1fc86	0.023679983
19	0x00000004	6e-45
20	0x00000004	6e-45
21	0x00000004	6e-45
22	0x3c9b684e	0.018970635
23	0x3c8c7c89	0.017149227
24	0x3b58326b	0.0032989036
25	0x00000004	6e-45
26	0x00000004	6e-45
27	0x00000004	6e-45
28	0x3c811dcf	0.015761284
29	0x3b860299	0.004089665
30	0x00000004	6e-45
31	0x00000004	6e-45
32	0x00000004	6e-45
33	0x00000004	6e-45
34	0x3c947a97	0.018124862
35	0x3b0267f6	0.0019898391
36	0x00000004	6e-45
37	0x3c994f20	0.018714488
38	0x00000004	6e-45
39	0x00000004	6e-45
40	0x00000004	6e-45
41	0x00000004	6e-45
42	0x00000004	6e-45
43	0x3b8aa610	0.004231222
44	0x00000004	6e-45
45	0x00000004	6e-45
46	0x00000004	6e-45
47	0x00000004	6e-45
48	0x00000004	6e-45
49	0x3c5a8ce5	0.013339256
50	0x00000004	6e-45
51	0x00000004	6e-45
52	0x00000004	6e-45
53	0x00000004	6e-45
54	0x00000004	6e-45
55	0x00000004	6e-45
56	0x00000004	6e-45
57	0x00000004	6e-45
58	0x00000004	6e-45
59	0x3c19f53f	0.00939685
60	0x00000004	6e-45
61	0x00000004	6e-45
62	0x00000004	6e-45
63	0x00000004	6e-45
64	0x00000004	6e-45
65	0x00000004	6e-45
66	0x3ba895e2	0.0051448205
67	0x00000004	6e-45
68	0x3b0ddd8f	0.0021646952
69	0x3cd13853	0.025539553
70	0x00000004	6e-45
71	0x00000004	6e-45
72	0x3b288964	0.0025716657
73	0x3d907d23	0.07055118
74	0x3c9a97e0	0.018871248
75	0x00000004	6e-45
76	0x3d048322	0.03235162
77	0x3c8f1f24	0.017470904
78	0x00000004	6e-45
79	0x00000004	6e-45
80	0x00000004	6e-45
81	0x00000004	6e-45
82	0x3b014a71	0.0019728208
83	0x00000004	6e-45
84	0x00000004	6e-45
85	0x00000004	6e-45
86	0x00000004	6e-45
87	0x00000004	6e-45
88	0x00000004	6e-45
89	0x3ba71051	0.0050983806
90	0x00000004	6e-45
91	0x3b241e85	0.0025042605
92	0x00000004	6e-45
93	0x00000004	6e-45
94	0x00000004	6e-45
95	0x3d033d1b	0.032040697
96	0x00000004	6e-45
97	0x00000004	6e-45
98	0x3cbc449f	0.02298194
99	0x00000004	6e-45
100	0x00000004	6e-45
101	0x00000004	6e-45
102	0x00000004	6e-45
103	0x3c3d191e	0.011541633
104	0x00000004	6e-45
105	0x3b443780	0.0029940307
106	0x00000004	6e-45
107	0x00000004	6e-45
108	0x3b66a9f2	0.003519651
109	0x00000004	6e-45
110	0x3bb2e962	0.0054599503
111	0x3b4389a7	0.0029836686
112	0x3c9c0bfc	0.019048683
113	0x3b49b6e5	0.003077918
114	0x00000004	6e-45
115	0x3b5ace07	0.0033386962
116	0x00000004	6e-45
117	0x00000004	6e-45
118	0x3b123cfd	0.0022314184
119	0x00000004	6e-45
120	0x00000004	6e-45
121	0x3c56fce5	0.013121818
122	0x00000004	6e-45
123	0x00000004	6e-45
124	0x00000004	6e-45
125	0x3c2bdc34	0.010489512
126	0x3b5bbb13	0.0033528253
127	0x00000004	6e-45

encoder.4.weight f4 [64, 128]
0	0xbd53d83d	-0.051719893
1	0x3c7bea1d	0.015375641
2	0xbd2f7326	-0.042834423
3	0xbce51838	-0.02796565
4	0x3ad6bc9f	0.0016383118
5	0xbdc35620	-0.095379114
6	0xbddba1de	-0.10724233
7	0xbac0aa99	-0.001469928
8	0xbd9f2564	-0.077708036
9	0xbd630840	-0.05542779
10	0xbd0537c1	-0.032523874
11	0xbb5aa117	-0.0033360177
12	0x3c839233	0.016060924
13	0xbd94b6a8	-0.072614014
14	0xbd71e373	-0.059054803
15	0xbe067da0	-0.1313386
16	0xbcb30e3b	-0.021857372
17	0x3d8014b3	0.06253948
18	0x3d86384b	0.06553706
19	0x3d1f225d	0.03885113
20	0x3d28802e	0.041137867
21	0xbd602060	-0.054718375
22	0x3c0d8203	0.008636954
23	0xbb99ca36	-0.004693295
24	0x3c7b77e7	0.015348411
25	0xbdacac0f	-0.08431255
26	0xbd26149f	-0.04054701
27	0xbd600ad5	-0.05469783
28	0xbc0b1a40	-0.008490145
29	0xbd0b7051	-0.03404266
30	0x3dae6981	0.08516217
31	0xbce813d0	-0.02832976
32	0xbe2f8efe	-0.17144391
33	0x3e2eab06	0.17057428
34	0x3d2fabcb	0.042888444
35	0xbd85ab8e	-0.06526862
36	0x3dacfe14	0.08446899
37	0xbd9bd215	-0.07608429
38	0x3d8c0758	0.06837338
39	0xbe5db965	-0.21652754
40	0xbc47ea54	-0.012201864
41	0x3d6cc7ef	0.05780786
42	0x3c795b76	0.01521956
43	0xbcef4e52	-0.02921215
44	0x3d537577	0.051625695
45	0xbd332742	-0.04373861
46	0xbe3dcebb	-0.18535893
47	0xbe0dbf41	-0.13842489
48	0x3dd3d630	0.103435874
49	0xbc30a0c6	-0.010780519
50	0x3c246380	0.010033488
51	0x3dec8520	0.11548829
52	0x3c8e52ae	0.01737341
53	0xbd3040dd	-0.04303061
54	0x3e3b06be	0.1826429
55	0xbbae34f2	-0.00531637
56	0x3e330cfd	0.17485423
57	0x3e01aec5	0.12664326
58	0xbd240070	-0.04003948
59	0xbbb21923	-0.0054351254
60	0xbe2fa24a	-0.17151752
61	0x3d916a15	0.07100312
62	0xbd2d6c79	-0.042339776
63	0x3e3cd515	0.1844066
64	0xbe262e5d	-0.16228624
65	0xbddc9cad	-0.10772071
66	0x3da35798	0.079756916
67	0x3c5bddd1	0.013419584
68	0x3c4cad47	0.012492484
69	0x3c0340cc	0.008011054
70	0xbe3d3b78	-0.18479717
71	0x3da0f94e	0.07860051
72	0x3c9ef4a1	0.019403758
73	0x3cbd1146	0.023079526
74	0x3d86e28b	0.065861784
75	0x3e36f9c0	0.1786871
76	0x3dad26bc	0.084546536
77	0x3cefeef1	0.02928874
78	0xbdb5e7fd	-0.08882139
79	0x3da6f0d8	0.08151406
80	0x3c94981e	0.018138941
81	0xbd6308f6	-0.055428468
82	0xbd82fa4d	-0.06395397
83	0xbdec6764	-0.11543158
84	0xbe28994d	-0.1646473
85	0xbd6e18b1	-0.058129016
86	0xbe2dc1ce	-0.16968462
87	0x3d9e0aeb	0.07716926
88	0x3e4e78e0	0.20163298
89	0xbd24a2ba	-0.04019425
90	0x3e2301a0	0.15918589
91	0x3cfdf013	0.030998265
92	0xbe1ee047	-0.15515243
93	0xbe4d49c4	-0.2004767
94	0x3cf8bddd	0.030363971
95	0xbd1f252a	-0.0388538
96	0xbd267c03	-0.04064561
97	0xbad2ce91	-0.001608329
98	0xbc93b719	-0.018031644
99	0x3e2b021d	0.16700025
100	0x3ca0449c	0.019563965
101	0xbd5dbffe	-0.054138176
102	0x3e7061bd	0.23474784
103	0x3ccaefc3	0.02477253
104	0xbdec7f2e	-0.11547695
105	0xbcdfd4bf	-0.027323125
106	0x3e62eafa	0.22159949
107	0xbe10f28f	-0.14155029
108	0x3be64e63	0.0070283874
109	0x3c58e682	0.013238551
110	0xbdab4cea	-0.083642796
111	0x3cfa40ab	0.030548414
112	0xbd3d3851	-0.046196286
113	0xbc90c394	-0.017671384
114	0x3da4af70	0.080412745
115	0x3b6ec5dc	0.0036433851
116	0xbe43339e	-0.19062659
117	0x3cc7222e	0.02430829
118	0xbcf3016a	-0.02966376
119	0xbd792d42	-0.060834177
120	0x3d76f21c	0.060289487
121	0xbd218ec6	-0.0394428
122	0x3d9bc7e1	0.07606483
123	0x3d081de5	0.033231635
124	0x3d447413	0.04796226
125	0xba558a80	-0.0008145943
126	0x3d302b88	0.043010265
127	0x3e530786	0.20608339
128	0x3e19d6de	0.15023372
129	0x3b7936e0	0.0038027093
130	0x3de84f24	0.1134322
131	0xbc3d0efd	-0.011539218
132	0x3c0a2bb0	0.0084332675
133	0x3b9cad4e	0.0047814017
134	0x3b9816c1	0.0046413844
135	0x3c432170	0.011909828
136	0x3bef44c7	0.0073019
137	0xbc12a312	-0.008950012
138	0x3b8da230	0.004322313
139	0x3b738aea	0.0037161657
140	0xbb9fc30e	-0.0048755473
141	0xbc1263f3	-0.008934963
142	0x3e38a1d0	0.18030477
143	0xbc0700a3	-0.008239898
144	0xbd24223e	-0.04007172
145	0x3b30eafe	0.0026995535
146	0x3e2313d4	0.15925533
147	0xbb05d4c2	-0.0020421003
148	0x3bd10e47	0.006379876
149	0xbc2df6f6	-0.010617962
150	0xbe8c446d	-0.27395955
151	0xbc131728	-0.008977689
152	0x3db82001	0.08990479
153	0xbb8a16a6	-0.0042141257
154	0x3b835af7	0.0040086466
155	0x3b2de9de	0.00265371
156	0x3e150be8	0.14555323
157	0x3e5aecd9	0.21379413
158	0xbbd607b9	-0.0065316823
159	0xbbb73505	-0.005591037
160	0xbbf2dc32	-0.0074115032
161	0xbb471da0	-0.0030382648
162	0xbd0348cf	-0.032051858
163	0xbbc4065e	-0.0059822043
164	0x3b636f6f	0.003470387
165	0x3dc924cf	0.09821474
166	0x3c14468f	0.009050026
167	0xbbdcd532	-0.006739282
168	0x3b9c45ff	0.0047690864
169	0xbbf73b86	-0.0075449375
170	0x3ac6bef6	0.0015163112
171	0x3e1bc5f7	0.15212236
172	0xbc12a7da	-0.008951152
173	0x3be702b7	0.007049884
174	0x3c30f7bb	0.010801251
175	0xbbdef786	-0.0068044094
176	0x3c055628	0.008138217
177	0x3dc28a6c	0.09499058
178	0x3ac52d09	0.0015043329
179	0xbc096b4c	-0.008387398
180	0xbc08ea2b	-0.008356611
181	0xbbc3c9b5	-0.005974973
182	0xbae1ef74	-0.00172375
183	0x39ee4203	0.0004544408
184	0x3c1468a1	0.009058149
185	0x3c096822	0.008386644
186	0xbbce62a7	-0.0062983814
187	0x3e31819d	0.173346
188	0x39081451	0.00012977539
189	0xbbf47ea8	-0.0074613877
190	0xbbfb4eb1	-0.007669293
191	0xbb8ede6b	-0.0043600104
192	0x3bfd5c28	0.007731933
193	0x3a877510	0.001033457
194	0xbd36deda	-0.04464612
195	0x3c03ec30	0.008051917
196	0x3c4cb31f	0.012493878
197	0x3e3c1593	0.18367605
198	0xbc015b84	-0.007895354
199	0x3b788c3f	0.003792539
200	0xbc3b4b4f	-0.011431529
201	0x3d371094	0.044693545
202	0x3debf1cc	0.115207285
203	0xbad32d69	-0.0016111556
204	0x3db000ee	0.08593927
205	0xbd85b7b1	-0.06529177
206	0xbc1ca1f6	-0.009560099
207	0x3b64a3d0	0.003488768
208	0xbc2c2373	-0.010506499
209	0xbc0869d8	-0.008326016
210	0x3be29957	0.006915252
211	0xbb795ef7	-0.0038050988
212	0x3bc7cdd2	0.0060975337
213	0xb8c22474	-9.257431e-05
214	0x3c41af5c	0.011821594
215	0xb7afc5ad	-2.0953676e-05
216	0xbc83306f	-0.016014306
217	0x3afdd1f6	0.0019364941
218	0x3ba96929	0.005170007
219	0xbd3a8a03	-0.045541774
220	0x3bb75106	0.0055943755
221	0xbbab2dbb	-0.0052239574
222	0xbb6e7793	-0.003638719
223	0xbe375b65	-0.17905958
224	0xbc0a8fd1	-0.00845714
225	0xbb0d42f1	-0.0021554793
226	0x3caf7139	0.021416293
227	0xbb460e71	-0.003022101
228	0xbc3af8bd	-0.011411843
229	0xba89a069	-0.0010500076
230	0xbbfeb159	-0.0077726063
231	0xbc22cae0	-0.0099360645
232	0x3bc82219	0.0061075804
233	0x3d09dc8c	0.033657596
234	0x3b2bd4d0	0.0026219375
235	0x3aa04e4c	0.0012230366
236	0x3cdcdcaa	0.02696069
237	0x3b0ca542	0.0021460806
238	0xbded484a	-0.11586054
239	0xbd180b8c	-0.037120387
240	0xbaee8c67	-0.0018199802
241	0xbce055ca	-0.027384657
242	0x3bacec58	0.005277198
243	0xbd9ad781	-0.07560635
244	0x3c108e1e	0.008822946
245	0x3b48dadd	0.003064803
246	0xbc31452d	-0.010819715
247	0xbbc8fb04	-0.006133439
248	0xbb49e9fc	-0.0030809632
249	0xbe6a69f3	-0.22891979
250	0x3c01b873	0.007917511
251	0xbbeb807f	-0.007186949
252	0xbb3caede	-0.0028790752
253	0xbe06f9cf	-0.13181232
254	0x3d91b65c	0.071148604
255	0x3bfebebe	0.007774203

encoder.4.bias f4 [64]
0	0xbdd7d750	-0.105391145
1	0x3d8907e0	0.06690955
2	0x3dcf120d	0.10110865
3	0xbe20399e	-0.15646979
4	0xbdff087b	-0.124527894
5	0xbdcb2300	-0.09918785
6	0x3dc1e0fd	0.09466741
7	0xbdb27878	-0.08714384
8	0xbe23b177	-0.15985666
9	0xbd9017d2	-0.07035793
10	0xbdc1953a	-0.09452291
11	0xbe182e35	-0.14861377
12	0xbdba171c	-0.09086439
13	0xbd988417	-0.07447069
14	0xbdac5a27	-0.08415633
15	0xbe1e13fc	-0.15437311
16	0x3d577edf	0.052611228
17	0xbdf57467	-0.119850926
18	0xbda04127	-0.07824927
19	0xbda51f3c	-0.08062598
20	0x3dd71eb8	0.10503906
21	0xbe2889c6	-0.16458806
22	0xbdb27310	-0.08713353
23	0xbdcd54da	-0.1002595
24	0xbddc5b62	-0.107596174
25	0xbded24d5	-0.11579291
26	0xbdc523bf	-0.09625959
27	0xbe071b2d	-0.1319396
28	0xbdcc191c	-0.09965727
29	0xbe02d8ba	-0.12777987
30	0xbe026f58	-0.12737787
31	0xbde9168f	-0.11381256
32	0x3db2e267	0.08734589
33	0xbe0d5bf0	-0.13804603
34	0xbdb5fd6a	-0.088862255
35	0xbdfaec04	-0.12252048
36	0xbe0ce89b	-0.13760607
37	0xbdf7d304	-0.12100795
38	0xbdeace44	-0.11465123
39	0xbe2a077b	-0.16604416
40	0xbe1ff965	-0.1562248
41	0xbe1b04f7	-0.15138613
42	0xbe07ef02	-0.13274768
43	0x3d99a53b	0.07502218
44	0xbdfc7510	-0.123270154
45	0xbd814b76	-0.06313221
46	0x3dd42254	0.1035811
47	0xbdf8170f	-0.12113773
48	0xbdccbf83	-0.099974655
49	0x3e0f6bd3	0.14005975
50	0xbe0ab07d	-0.13543887
51	0xbe204ab8	-0.15653503
52	0xbd945c38	-0.07244152
53	0x3d97c1b2	0.07409991
54	0x3e23b075	0.15985282
55	0xbe0b7359	-0.1361822
56	0xbe1de758	-0.15420282
57	0x3d85ea5c	0.06538841
58	0xbdfacaf8	-0.122457445
59	0xbda59e3c	-0.080868214
60	0xbde4ba03	-0.111682914
61	0xbe4be791	-0.19912554
62	0xbe0e0443	-0.13868813
63	0x3db62ae8	0.088949025

quantizer.embedding.weight f4 [512, 64]
0	0x3c8e7b7f	0.017392872
1	0x3bdf88a2	0.006821708
2	0xbc290bbd	-0.01031774
3	0x3aa0c6f8	0.0012266329
4	0x3c8dd819	0.017314957
5	0x3c8b3f9f	0.01699811
6	0x3b894828	0.00418951
7	0xbcb8593a	-0.022503484
8	0x3c7a3a5f	0.015272706
9	0x3bcfc579	0.0063406792
10	0xbc77ea9b	-0.015131618
11	0xbc6843f0	-0.014176354
12	0xbc55f6de	-0.013059346
13	0xbc733265	-0.014843558
14	0xbc7d9b40	-0.015478909
15	0xbb9ba840	-0.0047502816
16	0x3c84a46d	0.016191686
17	0x3c4e4a2b	0.012590925
18	0xbc4b5f31	-0.012412832
19	0xbad0ad8e	-0.0015920864
20	0x3c6262a8	0.013817467
21	0x3c52ce7b	0.012866612
22	0x3c8621a8	0.01637347
23	0x3c7e6c27	0.015528715
24	0x3c855b5d	0.016278917
25	0xbc4b36fa	-0.012403244
26	0xbc6e1740	-0.01453191
27	0xbc937315	-0.017999211
28	0xbc861a42	-0.016369943
29	0x3c927324	0.017877169
30	0xbc551d66	-0.013007497
31	0x3c620a0c	0.013796341
32	0x3c8fb8f3	0.017544245
33	0xbc94b637	-0.018153293
34	0x3c83115e	0.015999492
35	0xbc73ba5c	-0.0148759745
36	0xbc8f40f7	-0.017487032
37	0xbc297b57	-0.010344348
38	0xbc22c584	-0.009934787
39	0xbc9269a7	-0.017872645
40	0x3c4fb5b2	0.012677597
41	0xbc902eac	-0.01760038
42	0x3c5f496c	0.013628345
43	0x3c87f790	0.01659754
44	0x3c89ca82	0.016820196
45	0x3bd8bac8	0.006614063
46	0xbc6efe68	-0.014587022
47	0x3c8aa173	0.016922688
48	0x3c9f7adb	0.019467762
49	0x3c946ad2	0.018117342
50	0xbc77be5c	-0.015121069
51	0x3c0b91de	0.008518664
52	0x3bd36e71	0.0064523746
53	0x3c75b0ee	0.014995797
54	0x3c8880ba	0.016662944
55	0xbc94af64	-0.018150039
56	0x3ae5670d	0.0017502025
57	0x3c1abf0a	0.009444961
58	0xbc8bd7a3	-0.017070597
59	0xbc830f9e	-0.015998658
60	0xbc0e0d89	-0.008670219
61	0x3c89bd40	0.016813874
62	0xbc86bf39	-0.016448604
63	0xbb1e76e3	-0.0024179749
64	0xbc11e6a7	-0.008905089
65	0xbb7debc1	-0.0038745257
66	0x3c7e341e	0.015515355
67	0x3c828cf3	0.01593635
68	0xbc814268	-0.015778735
69	0x3c363ed5	0.011123379
70	0x3cafe6b9	0.021472322
71	0xbbb45a91	-0.0055039604
72	0x3c8289a4	0.015934773
73	0xbc4f1255	-0.012638648
74	0x3c74aa4c	0.01493318
75	0xbc820fae	-0.015876617
76	0x3c8284e4	0.015932508
77	0xbc80ed47	-0.015738143
78	0x3c7dce1e	0.015491037
79	0xbc74a242	-0.014931263
80	0x3c8258e0	0.01591152
81	0xbc828c89	-0.015936153
82	0xbc3973bc	-0.011319097
83	0x3c2fa147	0.010719604
84	0xbc8282ee	-0.015931573
85	0x3bce3dfc	0.00629401
86	0xbc5b7be0	-0.013396233
87	0x3c826f9c	0.01592236
88	0xbc7d5f69	-0.015464642
89	0xbc76fe2b	-0.015075247
90	0x3c6470c8	0.013942905
91	0x3c81b016	0.015831035
92	0x3c54f642	0.012998166
93	0xbc6d8a31	-0.014498279
94	0x3c5c2261	0.013435931
95	0x3c81585c	0.015789203
96	0x3c777b0e	0.015105022
97	0x3c7fceb5	0.015613248
98	0xbc8280aa	-0.015930492
99	0x3c3e2239	0.011604839
100	0xbc80f708	-0.015742794
101	0x3c6d906c	0.014499765
102	0x3c6d6694	0.014489789
103	0x3c563369	0.013073781
104	0x3c7cadd1	0.0154223
105	0xbbc626b4	-0.0060470942
106	0xbc8289bf	-0.015934823
107	0x3c81c4ac	0.01584085
108	0x3c6eebb5	0.014582564
109	0xbc56be98	-0.0131069645
110	0xbc71f697	-0.014768264
111	0xbc828219	-0.015931176
112	0xbc81ca3b	-0.015843501
113	0xb9103bbb	-0.00013755161
114	0x3c75bb6c	0.014998298
115	0xbc828c7c	-0.015936129
116	0xbc81c501	-0.01584101
117	0x3c81aae2	0.015828554
118	0x3c480988	0.012209304
119	0x3c81e866	0.015857887
120	0x3c828cf8	0.01593636
121	0xbc81d053	-0.015846407
122	0xba81092f	-0.0009844656
123	0xbc6ac8b9	-0.014330083
124	0x3c7eac05	0.015543942
125	0xbc808a5d	-0.015690977
126	0x3c80b256	0.015710037
127	0xbc7bd41b	-0.015370394
128	0xbc7123e3	-0.014718029
129	0x3c6ba482	0.014382483
130	0x3c70e0ee	0.014702065
131	0xbc5f1f25	-0.013618265
132	0x3c708ba0	0.014681727
133	0xbc70daad	-0.014700574
134	0xbc7011fe	-0.014652727
135	0x3c6976cb	0.014249514
136	0xbc41a3a2	-0.011818798
137	0x3c716e05	0.014735703
138	0xbc707583	-0.0146764545
139	0xbc70fddc	-0.014708962
140	0x3c70f8f7	0.014707795
141	0x3c63cf8e	0.013904465
142	0x3c7167e5	0.014734243
143	0x3ca3e89b	0.020008376
144	0x3c716eb8	0.01473587
145	0x3c6fbdee	0.014632685
146	0x3c6fdbd0	0.01463981
147	0x3c57a0a0	0.013160855
148	0x3c70fbb9	0.014708453
149	0x3c6b418d	0.01435889
150	0x3c6143ec	0.013749104
151	0x3c600454	0.013672907
152	0xbc56a561	-0.013100953
153	0xbc3319f4	-0.010931481
154	0xbc7161db	-0.014732803
155	0x3c64639f	0.013939767
156	0x3c6a0f6f	0.014285906
157	0x3bcfa5a0	0.0063368827
158	0x3bcd2ad9	0.0062612114
159	0x3c7141f3	0.014725196
160	0xbc5f56a8	-0.0136315
161	0xbc689dac	-0.014197748
162	0x3c42dcc9	0.01189346
163	0xbc69b937	-0.01426535
164	0x3c6f3670	0.014600381
165	0x3c63a225	0.013893639
166	0x3c625d1e	0.013816146
167	0x3ca4a260	0.020096958
168	0x3c70f176	0.014706006
169	0xbc5a076d	-0.0133074345
170	0x3c715895	0.014730592
171	0xbc71440d	-0.014725697
172	0x3c716d17	0.014735482
173	0xbc319a4e	-0.010840012
174	0xbc713a97	-0.014723442
175	0xbc2c4f0e	-0.010516895
176	0xbc5fa5ad	-0.01365034
177	0x3c6f9c62	0.014624687
178	0x3c435d06	0.011924034
179	0x3c716b3f	0.014735042
180	0x3c716b2e	0.014735026
181	0x3b83af9c	0.004018737
182	0xbc4b21c8	-0.012398191
183	0xbc70d787	-0.014699823
184	0xbc1f0de3	-0.009707901
185	0x3c6c6869	0.01442919
186	0x3c6f7b2d	0.01461677
187	0x3c716f3e	0.014735995
188	0x3b33c776	0.002743212
189	0xbc707f2b	-0.014678757
190	0xbc650e27	-0.013980425
191	0xbc7027f2	-0.014657961
192	0x3c3fa2d3	0.011696535
193	0x3bd771d8	0.0065748505
194	0x3c47ea3b	0.012201841
195	0x3c44733c	0.011990365
196	0x3c922d88	0.017843977
197	0x3c2317ee	0.009954436
198	0x3c54a615	0.01297905
199	0xbc55245a	-0.013009155
200	0xbc3d3205	-0.01154757
201	0xbc0d800e	-0.008636488
202	0x3c54da7c	0.012991544
203	0xbc54d727	-0.012990749
204	0xbc53aa13	-0.012918967
205	0xbc41932b	-0.011814873
206	0x3c408144	0.011749569
207	0x3bebb903	0.007193686
208	0xbc350582	-0.011048676
209	0x3c4f43e8	0.012650467
210	0x3baba953	0.005238691
211	0x3c546af9	0.012964957
212	0xbba0f06b	-0.0049114726
213	0xbc5518f1	-0.013006435
214	0x3c52842a	0.012848893
215	0x3c483347	0.012219257
216	0x3c43ec8e	0.0119582545
217	0xbc529747	-0.01285345
218	0xbc550c7f	-0.013003468
219	0xbc5296d3	-0.012853342
220	0xbc544ed1	-0.012958244
221	0x3c550b62	0.013003202
222	0xbc51b10f	-0.012798562
223	0xbba1ff15	-0.004943738
224	0xbc511132	-0.012760447
225	0xbc53bfed	-0.012924177
226	0x3c4a2a8f	0.012339248
227	0x3c4710e8	0.012150027
228	0xbc5233e3	-0.012829754
229	0x3c536f5d	0.012904969
230	0xbc49eadb	-0.01232406
231	0x3c54e7ce	0.01299472
232	0xbc3c2d28	-0.011485375
233	0x3c196618	0.00936272
234	0x3c4b46c4	0.012407009
235	0xbc4e9bf9	-0.012610429
236	0xbc53ae8b	-0.012920032
237	0x3c5406f3	0.01294111
238	0x3c8f0117	0.017456574
239	0x3c8d534d	0.017251635
240	0x3c5110d2	0.012760358
241	0x3bb8dfe3	0.0056419238
242	0x3b70bbd6	0.0036733053
243	0xbc1f6903	-0.009729627
244	0x3c54fa3f	0.012999116
245	0xbb78a221	-0.0037938433
246	0xbc21b39e	-0.009869484
247	0x3c54e8ff	0.012995004
248	0xbc53839d	-0.012909797
249	0x3c54c016	0.01298525
250	0x3c5482f5	0.012970676
251	0xbc46b407	-0.012127883
252	0x3c4fb635	0.012677719
253	0x3c54e89d	0.012994912
254	0x3bc90bc0	0.006135434
255	0xbc547d25	-0.01296929

decoder.0.weight f4 [128, 64]
0	0x3dc09ce0	0.094049215
1	0xbdc96950	-0.0983454
2	0x3db4ef10	0.0883466
3	0xbdfa801c	-0.12231466
4	0xbd4481ec	-0.047975466
5	0xbc2b83a0	-0.010468394
6	0xbdbdb8f8	-0.092637956
7	0x3cfea6a8	0.031085327
8	0xbdf5daca	-0.12004621
9	0x3d9579dc	0.072986335
10	0xbd5958dc	-0.05306326
11	0xbd5f6384	-0.054538265
12	0x3d6712a4	0.05641426
13	0x3daa8b9e	0.08327411
14	0x3de92cca	0.11385496
15	0xbcf6ea88	-0.03014113
16	0xbd640c88	-0.055676013
17	0x3cdae778	0.026721701
18	0xbc8cd780	-0.017192602
19	0x3d29c4c0	0.0414474
20	0x3c91b038	0.017784223
21	0xbdd8c2ae	-0.10584007
22	0xbd4bd3cc	-0.049762532
23	0x3df13f8c	0.11779699
24	0x3dcaacde	0.09896253
25	0xbd8d50ac	-0.069001526
26	0x3da6d85e	0.081467375
27	0x3df56f16	0.119840786
28	0x3da95cfc	0.082696885
29	0x3b8b2f20	0.004247561
30	0xbdd2832c	-0.10278925
31	0xbd01f620	-0.031728864
32	0x3d5b4724	0.05353464
33	0x3c02d7d0	0.007986024
34	0xbdf4e858	-0.119583786
35	0xbd3bc734	-0.04584427
36	0x3d272280	0.040804386
37	0xbc3202e0	-0.010864943
38	0xbc591dc0	-0.013251722
39	0xbd943db4	-0.072383314
40	0x3d98af70	0.07455337
41	0x3db4005a	0.087891296
42	0x3dba6ebc	0.09103152
43	0xbc7a6b70	-0.015284404
44	0xbdc5eee2	-0.09664704
45	0xbd13dad0	-0.036097348
46	0xbd462404	-0.04837419
47	0x3d1813f4	0.037128404
48	0x3d859c94	0.065240055
49	0xbdb48fd6	-0.08816497
50	0xbd6c5bf4	-0.05770488
51	0xbd945a9e	-0.07243846
52	0x3cdbad90	0.02681616
53	0xbdad8080	-0.08471775
54	0x3cf6c1a8	0.03012164
55	0x3dbce606	0.09223561
56	0x3dcf8ee8	0.10134679
57	0xbd2de9dc	-0.042459354
58	0xbcfc1c50	-0.03077522
59	0x3cbd1738	0.02308236
60	0x3dd18f64	0.10232428
61	0x3d3d8aa4	0.046274796
62	0xbda0f564	-0.078593045
63	0xbdb575b8	-0.08860344
64	0x3d47643b	0.04867957
65	0x3daa3dca	0.083125666
66	0x3dedadd4	0.11605421
67	0x3b149418	0.0022671279
68	0x3df2979b	0.11845323
69	0xbe383a1e	-0.1799092
70	0xbec2721d	-0.37977687
71	0x3d0c21e6	0.034212016
72	0x3c4f53e9	0.012654283
73	0xbd8c8ced	-0.06862817
74	0x3e133688	0.14376271
75	0xbd1a1eea	-0.03762714
76	0xbc4ac2f9	-0.012375587
77	0x3cc5380f	0.024074582
78	0x3dd87fc9	0.10571248
79	0xbd00913f	-0.031388517
80	0x3fb98dab	1.4496359
81	0xbda0d585	-0.078532256
82	0x3e25d69b	0.16195147
83	0x3d392df6	0.045209847
84	0xbeaceb1b	-0.3377312
85	0xbd73e0b1	-0.059540454
86	0x3d2c9222	0.04213155
87	0x3ddfb943	0.10924008
88	0xbcb1572a	-0.021648008
89	0xbe2f6585	-0.1712857
90	0x3dac9557	0.08426922
91	0xbe0d4937	-0.1379746
92	0xbdbbfdd3	-0.091792725
93	0xbdcebeab	-0.10094961
94	0x3c5d2ea9	0.013499894
95	0xbd1d8522	-0.038457043
96	0x3f0499ee	0.5179738
97	0xbd9788a1	-0.07399107
98	0xbd2b632f	-0.041842636
99	0xbde141e4	-0.10998896
100	0x3c262635	0.010140945
101	0xbce623d1	-0.02809325
102	0x3d026fcc	0.0318449
103	0xbdd22483	-0.1026087
104	0xbceaf769	-0.028682427
105	0xbdf21b7d	-0.11821649
106	0x3d8169f9	0.06319041
107	0xbe5326eb	-0.20620315
108	0x3bf066ae	0.007336459
109	0xbcd60a8c	-0.026128076
110	0x3f7c2036	0.9848665
111	0x3dfaf111	0.12253011
112	0xbdf1745a	-0.117897704
113	0x3e37ebb9	0.17961015
114	0x3e524256	0.20533118
115	0xbc0093dc	-0.007847752
116	0xbe458964	-0.19290692
117	0x3e1ec375	0.15504248
118	0xbe7de77f	-0.2479534
119	0x3da74621	0.08167673
120	0x3da291bc	0.07937953
121	0xbf017d1d	-0.5058153
122	0x3dd48520	0.10376954
123	0xbdb56602	-0.08857347
124	0x3d40472a	0.046942867
125	0x3e44de36	0.19225392
126	0xbd3aa3d6	-0.045566402
127	0x3f311388	0.6917043
128	0xbd5c789c	-0.05382596
129	0xbf163051	-0.58667475
130	0x3ebc3cfe	0.36765283
131	0xbe1007a2	-0.14065412
132	0x3d86914b	0.06570681
133	0x3c17022c	0.009216826
134	0x3e0bee09	0.13665022
135	0x3e3a65c3	0.18202882
136	0x3d757ead	0.05993526
137	0xbcb2a408	-0.021806732
138	0x3dc39be3	0.095512174
139	0x3d474d4e	0.048657708
140	0x3da7bc05	0.08190159
141	0x3d6248ae	0.055245094
142	0xbdffa73d	-0.1248307
143	0x3a33506c	0.0006840292
144	0x3d44b6a4	0.048025742
145	0x3bffaca8	0.0078025647
146	0x3cc1f74a	0.023677487
147	0x3de62c9e	0.11238979
148	0xbd4c84f9	-0.0499315
149	0xbe3aaa3b	-0.18229
150	0x3c2641a6	0.010147488
151	0x3d8482b6	0.06470244
152	0xbe02234b	-0.12708776
153	0xbd31b6ed	-0.043387342
154	0xbc8dffea	-0.017333943
155	0x3dac0432	0.08399238
156	0x3c56c1e9	0.013107755
157	0x3d768c18	0.060192198
158	0xbe05b740	-0.13058186
159	0xbd90bfdd	-0.07067845
160	0x3ea22056	0.31665295
161	0xbc1e8e89	-0.009677538
162	0x3de47d32	0.111566916
163	0x3e11c47a	0.14235106
164	0xbc154bf2	-0.009112345
165	0xbda6c5ca	-0.08143194
166	0xbe1c9601	-0.15291597
167	0x3dbed63e	0.09318207
168	0x3dc01407	0.0937882
169	0x3ceaf034	0.02867899
170	0xbcd8f55e	-0.026484188
171	0x3e9a15ce	0.3009476
172	0x3d8ce0b5	0.06878797
173	0xbdb59bed	-0.08867631
174	0x3f38c3e1	0.7217389
175	0xbdf53e30	-0.11974752
176	0xbe3aab0f	-0.18229316
177	0x3eb84564	0.3599044
178	0xbd534dab	-0.05158774
179	0xbd8dc4d1	-0.069223054
180	0x3da25fef	0.07928454
181	0x3e9ea530	0.30985403
182	0xbf99856c	-1.1993842
183	0xbd3635e1	-0.044484977
184	0x3d7e2225	0.06204428
185	0x3f8662f8	1.0498953
186	0xbccbb170	-0.024864882
187	0xbd18ad95	-0.037274916
188	0x3d6ccb9c	0.057811365
189	0x3c831b16	0.016004127
190	0xbe597578	-0.21236217
191	0xbe41b253	-0.18915682
192	0x3c48dec8	0.012260146
193	0x3ec63896	0.38715047
194	0xbc82d6bb	-0.015971532
195	0x3e46dfe5	0.19421346
196	0x3db9de58	0.09075612
197	0x3dd93a12	0.10606779
198	0xbf54cd5f	-0.8312587
199	0x3dd68685	0.10474876
200	0x3d3d5365	0.04622211
201	0xbd714ddc	-0.058912143
202	0x3e0a9596	0.13533625
203	0x3e0c28c6	0.13687429
204	0xbda6067d	-0.08106706
205	0xbe2c6342	-0.16834739
206	0xbdf3b030	-0.118988395
207	0xbdf58494	-0.11988178
208	0x3f50d0f8	0.8156886
209	0x3e2e6b88	0.17033207
210	0xbd12b29a	-0.03581486
211	0xbd05c0a1	-0.03265441
212	0xbec8d2b8	-0.39223266
213	0x3d5aff07	0.05346587
214	0xbd87d316	-0.06632058
215	0xbc3572a1	-0.011074693
216	0x3cfeab95	0.031087676
217	0x3e4b8974	0.19876653
218	0xbcd78031	-0.026306244
219	0xbd622ed8	-0.055220455
220	0x3d6dacb3	0.058026027
221	0x3c1b42b5	0.009476353
222	0xbcb52d95	-0.022116462
223	0x3d813d64	0.063105375
224	0x3ee0d618	0.4391334
225	0x3bdf57d2	0.006815889
226	0xbe6c76b5	-0.23092158
227	0xbda8bf33	-0.08239593
228	0xbac816f4	-0.001526563
229	0x3e0d3818	0.1379093
230	0xbdc8460c	-0.097789854
231	0xbd7a9319	-0.06117544
232	0xbc69ebda	-0.014277423
233	0x3db62eb0	0.08895624
234	0xbe148ed6	-0.14507613
235	0xbebeeaef	-0.37288615
236	0x3e9d3575	0.30704847
237	0xbd8f59f2	-0.069995776
238	0x3e2961af	0.1654117
239	0xbe2e6e35	-0.17034228
240	0x3cdd03fb	0.026979437
241	0x3f01dd8d	0.50728685
242	0x3de0fcce	0.10985719
243	0x3e42f475	0.19038565
244	0xbe1ac14d	-0.15112801
245	0xbeb1f391	-0.3475614
246	0xbdd649bf	-0.10463285
247	0x3da68860	0.0813148
248	0x3d6b9e4f	0.05752402
249	0x3fb7c629	1.4357349
250	0x3ded5cf8	0.11589998
251	0x3dc742b8	0.097295225
252	0xba18d049	-0.0005829377
253	0x3d17ca1f	0.037057992
254	0x3dc3290b	0.09529313
255	0x3cb40167	0.021973325

decoder.0.bias f4 [128]
0	0xbd067120	-0.03282273
1	0x3e1128ac	0.14175671
2	0x3dc1cb20	0.09462571
3	0xbdb127a8	-0.08650142
4	0x3e7a9a79	0.24472989
5	0x3e756d53	0.23967485
6	0x3e34eed6	0.17669234
7	0x3ec816e7	0.39079973
8	0xbd0c83aa	-0.034305252
9	0x3eebcbd2	0.4605394
10	0xbdcda010	-0.10040295
11	0xbdca3a66	-0.0987442
12	0xbd8b1a65	-0.06792144
13	0xbdd4fe7c	-0.104001015
14	0x3e6551da	0.22394505
15	0xbdf74eb0	-0.12075555
16	0xbdaa261a	-0.083080485
17	0xbdef31d4	-0.11679426
18	0xbe27f118	-0.16400564
19	0x3d92132f	0.07132565
20	0x3eb7f507	0.3592913
21	0x3d9c4c63	0.07631757
22	0xbd28ca50	-0.041208565
23	0xbdb354e2	-0.087564245
24	0x3d2b8ba5	0.041881222
25	0xbc828991	-0.015934737
26	0x3ebca45d	0.3684415
27	0x3ed12f9b	0.40856633
28	0x3e6925da	0.22768345
29	0x3db7d4a3	0.08976104
30	0xbd8e8e19	-0.06960697
31	0xbdf1221b	-0.11774083
32	0xbd13d0f1	-0.036087934
33	0xbd5a0d7c	-0.053235516
34	0x3f0fe07a	0.562019
35	0xbdc65eec	-0.09686074
36	0xbdd87341	-0.10568858
37	0xbda2a8ba	-0.07942338
38	0x3ea6b2e6	0.32558364
39	0x3e167dab	0.14696376
40	0xbd946cf6	-0.07247345
41	0xbdde3b66	-0.10851173
42	0x3eb68c02	0.35653692
43	0xbd906696	-0.07050817
44	0xbd419178	-0.04725787
45	0x3ec3cc6d	0.38241902
46	0x3e8bf750	0.27337122
47	0xbda5196e	-0.08061491
48	0xbda7e807	-0.081985526
49	0xbcdbf420	-0.026849806
50	0xbdaeebb0	-0.085410476
51	0x3f20462e	0.62607086
52	0x3d65e647	0.056127813
53	0x3df1b458	0.11801976
54	0xbe375404	-0.17903143
55	0xbd324102	-0.043519028
56	0x3e449a4a	0.19199482
57	0xbd942343	-0.07233288
58	0xbd10afa1	-0.035323743
59	0xbd6dee0a	-0.05808834
60	0x3dd56bc6	0.10420947
61	0xbdacba30	-0.0843395
62	0x3e86c69e	0.26323408
63	0xbd80f641	-0.06296969
64	0xbd27271a	-0.040808775
65	0xbd7ffa81	-0.06249476
66	0xbdb5765a	-0.088604644
67	0xbdfd2ae0	-0.123616934
68	0xbe21bbe3	-0.1579433
69	0xbde57f9c	-0.1120598
70	0xbe03ceb6	-0.12871823
71	0x3e36b422	0.17842153
72	0xbdffbc50	-0.1248709
73	0x3e42efec	0.19036835
74	0xbd2530f1	-0.040329877
75	0xbdaec296	-0.08533208
76	0x3ddd5ef5	0.10809127
77	0x3dc40c6f	0.09572684
78	0x3ef4a822	0.47784525
79	0x3eb6766e	0.3563723
80	0xbd91e4c9	-0.071237154
81	0x3e0721bc	0.13196462
82	0x3e40e541	0.18837453
83	0xbd9c60cf	-0.07635652
84	0x3ca1dddf	0.019759117
85	0xbd09abdf	-0.033611175
86	0xbd966a1e	-0.07344459
87	0xbdc9439e	-0.0982735
88	0x3ddcb9f3	0.107776545
89	0x3eddbe10	0.4330907
90	0x3e809251	0.2511163
91	0x3e38894d	0.18021126
92	0xbd6f153b	-0.058369856
93	0xbd7cf3a8	-0.061755806
94	0x3d9910e8	0.07473928
95	0xbcf9242d	-0.030412758
96	0x3e88e55e	0.26737493
97	0xbdb4f002	-0.0883484
98	0xbd1b2330	-0.037875354
99	0x3e248f9e	0.1607041
100	0xbc83d939	-0.01609479
101	0xbdc2cb56	-0.095114395
102	0xbd829311	-0.06375707
103	0xbde8dae0	-0.11369872
104	0x3e9db20c	0.307999
105	0xbd66bda7	-0.05633321
106	0xbdb9e76c	-0.09077343
107	0x3e02f246	0.12787732
108	0xbd98d95a	-0.074633315
109	0xbd90ea2a	-0.07075913
110	0x3eb3fe44	0.35154927
111	0xbdc6424f	-0.09680616
112	0x3eaf38ff	0.34223172
113	0xbdd12772	-0.10212602
114	0xbd9cf2ae	-0.07663475
115	0xbddfd8a2	-0.10929991
116	0xbd4b6d53	-0.049664807
117	0xbcd4459c	-0.025912099
118	0xbd6df2dc	-0.058092937
119	0x3ea43be8	0.32076955
120	0x3e64866b	0.22316901
121	0x3eda5b49	0.4264777
122	0xbd15a89c	-0.03653775
123	0xbd334188	-0.043763667
124	0x3de1bd3b	0.11022421
125	0xbd2a4654	-0.041570976
126	0xbdd57812	-0.10423292
127	0xbdea8824	-0.11451748
