papers/euromlsys/rl-manager/mnt/autoencoders/VQVAE_64dim_32n.pth (torch, 244452 bytes, 9 tensors)

encoder.0.weight f4 [128, 161]
0	0x3bcec299	0.006309819
1	0x3c1a72f3	0.00942682
2	0xbcbb4c07	-0.022863401
3	0xbd3c2d08	-0.045941383
4	0xbc8e5d70	-0.017378539
5	0x3d91bec6	0.07116465
6	0x3d596dc7	0.053083207
7	0xbd9e7021	-0.07736231
8	0x3c9dbb40	0.019254327
9	0xbd59354c	-0.053029343
10	0x3d429eec	0.04751484
11	0xbbda66c3	-0.006665082
12	0xbd9901fd	-0.07471082
13	0xbd549ec9	-0.05190924
14	0xbc36121c	-0.011112716
15	0x3c94f753	0.01818434
16	0x3c94d7e6	0.018169355
17	0xbd84320d	-0.06454859
18	0x3d8f9681	0.07011128
19	0x3d8bd7e7	0.068282895
20	0x3ba86126	0.005138534
21	0xbcdda540	-0.027056336
22	0x3cd7819f	0.026306925
23	0x3d5b952b	0.053609055
24	0x3d2b2d3a	0.04179118
25	0xbd131da9	-0.035916958
26	0xbcc9be79	-0.024626957
27	0x3d30d94f	0.04317599
28	0x3d1aadaa	0.037763275
29	0xbd8c3b73	-0.068472765
30	0x3d8c5885	0.06852821
31	0xbc5cb4fa	-0.013470883
32	0xbd3d1187	-0.046159294
33	0xbcbd84d3	-0.023134625
34	0xbcd251f3	-0.025673842
35	0x3d891688	0.066937506
36	0x3d333ff5	0.043762166
37	0xbd112e7b	-0.035444718
38	0xbd859d99	-0.065242
39	0xbd8f7274	-0.07004252
40	0xbcc1ff54	-0.02368132
41	0xbd09853a	-0.03357432
42	0xbd7d6ea1	-0.061873082
43	0xbd5f7d2e	-0.05456274
44	0xbb585c16	-0.0033013872
45	0x3ce33c99	0.027738856
46	0xbd69b82e	-0.057060413
47	0x3cf9de50	0.030501515
48	0xbcee8142	-0.02911437
49	0xbd803b0e	-0.06261264
50	0x3c29639c	0.01033869
51	0xbd5cf63b	-0.05394576
52	0xbc92211e	-0.017838057
53	0xbc5431e4	-0.012951348
54	0xba2a8df3	-0.00065061374
55	0xbd2f3293	-0.04277284
56	0x3d438bb8	0.047740668
57	0x3cf8004e	0.030273583
58	0x3c605b99	0.013693714
59	0x3d799b49	0.060939107
60	0xbca1fd26	-0.01977403
61	0x3d95dd46	0.07317595
62	0x3d86c715	0.06580941
63	0xbd83ff56	-0.06445186
64	0xbd5783b1	-0.052615825
65	0x3ba477b2	0.0050191516
66	0x3ccad9e0	0.024762094
67	0x3d6f4000	0.058410645
68	0x3c153228	0.009106196
69	0xbd972ba3	-0.0738137
70	0x3d164ca5	0.036694188
71	0x3c3ed081	0.011646391
72	0x3d27ebeb	0.040996473
73	0xbcfc1fe6	-0.03077693
74	0xbd8a0817	-0.06739824
75	0x3d84b0d2	0.06479038
76	0xbd34680f	-0.04404455
77	0xbd68d296	-0.056841455
78	0x3d000553	0.031255078
79	0x3d6cf238	0.057848185
80	0x3d3ac2cc	0.04559593
81	0x3cbaccb0	0.02280268
82	0xbceddf39	-0.029037105
83	0x3d28e5ab	0.041234653
84	0xbd6eac29	-0.058269653
85	0xbceb4d9b	-0.028723529
86	0xbc8c8a44	-0.017155774
87	0xbcdb4139	-0.026764499
88	0xbc4e59b4	-0.012594629
89	0xbd5feae0	-0.054667354
90	0x3d21c978	0.039498776
91	0xbd350e78	-0.04420325
92	0xbd43ad9e	-0.047772996
93	0xbd4996f0	-0.04921621
94	0xbc4a5dc5	-0.012351458
95	0x3d0210d9	0.03175435
96	0xbd6bf54e	-0.057606988
97	0xbc213ee6	-0.009841656
98	0x3d3eeaba	0.04661057
99	0x3d8a02c1	0.067388065
100	0x3d693e03	0.056943905
101	0xbd50c4e9	-0.05096904
102	0xbcd97332	-0.026544187
103	0x3ca715ce	0.02039614
104	0xbc60b438	-0.0137148425
105	0x3d6c4207	0.057680156
106	0x3ca9cff9	0.020729052
107	0xbd984921	-0.07435823
108	0x3d16cdb5	0.03681727
109	0xbd010ba3	-0.03150524
110	0x3cd550f0	0.02603957
111	0x3d071b82	0.032985218
112	0xbd97f198	-0.07419127
113	0x3d524d87	0.051343467
114	0x3d3316e3	0.043723
115	0xbcc93ee5	-0.024566123
116	0x3d77c0e6	0.060486697
117	0x3d1aba18	0.03777513
118	0xbcbfa32a	-0.023393232
119	0x3d40b471	0.047047082
120	0xbd91a9ac	-0.071124405
121	0x3bd97a7c	0.0066369157
122	0xbd9d904b	-0.07693537
123	0xbd9588f7	-0.073015146
124	0x3c657510	0.014004961
125	0x3c16cc2c	0.009203952
126	0xbd047bbe	-0.032344572
127	0xbd1af2f5	-0.037829358
128	0xbd7ecc46	-0.06220653
129	0xbd595f49	-0.053069387
130	0xbd95bea0	-0.073117495
131	0x3d76e9c2	0.060281523
132	0x3d452920	0.048134923
133	0x3c01d1ca	0.007923553
134	0x3c0eb399	0.008709812
135	0x3d13c10e	0.036072783
136	0xbcbfd1be	-0.023415443
137	0x3c2370a0	0.009975582
138	0x3ca01d45	0.019545207
139	0x3d33d580	0.04390478
140	0x3be2bb77	0.00691932
141	0x3b015434	0.0019734027
142	0x39b7ef64	0.0003508284
143	0x3cf13892	0.02944592
144	0x3ca5f4d3	0.020258343
145	0xbd02d9ce	-0.031945996
146	0x3d983b59	0.07433195
147	0xbd8695ed	-0.06571565
148	0x3cca16cd	0.024669075
149	0x3d118382	0.035525806
150	0xbc9a7808	-0.018856063
151	0xbd565e60	-0.052336097
152	0x3d1f5f28	0.038909107
153	0x3d2965b2	0.04135675
154	0xbc27ba6c	-0.0102373175
155	0xbd829f7c	-0.063780755
156	0xbd390bdc	-0.045177326
157	0xbac7b141	-0.0015235321
158	0xbcb60f14	-0.022223987
159	0xbd8e93cb	-0.06961783
160	0x3d3f50f9	0.04670808
161	0x3d16fb27	0.03686061
162	0xbd256744	-0.040381685
163	0xbd09910d	-0.033585597
164	0x3cdbf10d	0.02684834
165	0xbd8a4e3d	-0.06753204
166	0x3d4a585e	0.04940068
167	0xbd6edbff	-0.058315273
168	0xbba49d76	-0.0050236536
169	0xbcb2c2f2	-0.021821473
170	0xbd22eed7	-0.039778557
171	0xbc9828b9	-0.018574106
172	0xbd260835	-0.04053517
173	0x3d580c3b	0.05274604
174	0xbcce72ee	-0.025201287
175	0xbd9232bb	-0.07138582
176	0x3b9aa57e	0.0047194352
177	0x3d01c848	0.031685144
178	0xbd4afd71	-0.049558107
179	0xbcf1b2c7	-0.029504193
180	0x3c0ef7f0	0.008726105
181	0xbcd86798	-0.026416585
182	0x3d2c30a7	0.042038586
183	0x3d4e5149	0.05037049
184	0xbd8f97b2	-0.070113555
185	0x3c7909ef	0.015200122
186	0x3d1bec8f	0.038067397
187	0xbd7f028f	-0.0622583
188	0x3d0a03a9	0.033694897
189	0x3d255e99	0.04037342
190	0x3c40ccc2	0.011767568
191	0xbd792848	-0.06082943
192	0x3c77988d	0.0151120545
193	0xbd70e76b	-0.058814447
194	0xbc5f827f	-0.013641953
195	0xbd447196	-0.047959886
196	0x3d4b9c35	0.049709518
197	0x3d7d7e55	0.061888058
198	0x3c93b5ce	0.018031027
199	0xbd614037	-0.05499288
200	0x3cbd2feb	0.023094138
201	0x3d3fb9ee	0.046808176
202	0xbd841fa7	-0.0645135
203	0xbd8611c2	-0.06546356
204	0xbc2e4e39	-0.010638767
205	0x3c2cf527	0.010556496
206	0xba06f437	-0.0005148085
207	0x3d729136	0.059220515
208	0xbc91eea1	-0.017813982
209	0xbc63c3b9	-0.013901644
210	0x3d65f6d9	0.056143615
211	0xbcf18830	-0.029483885
212	0xbdb131b6	-0.0865206
213	0xbd323f86	-0.043517612
214	0x34dd1cf5	4.1185527e-07
215	0x3d16599c	0.036706552
216	0xbc44e807	-0.01201821
217	0xbd57274a	-0.052527703
218	0xbd85142b	-0.06497987
219	0xbca6f7b1	-0.02038178
220	0x3ac7104d	0.0015187353
221	0xbd8ef638	-0.06980556
222	0xbc327734	-0.010892678
223	0x3d7ed6b6	0.062216483
224	0xbdb04e11	-0.0860864
225	0x3d02da7d	0.031946648
226	0xbd81fe58	-0.0634734
227	0x3d78d786	0.060752414
228	0xbd475a70	-0.048670232
229	0x3b9550b1	0.0045567383
230	0xbd00b0fc	-0.031418785
231	0x3c1ae016	0.00945284
232	0xbcabc105	-0.020966062
233	0x3cb075bd	0.021540517
234	0xbd9fb7f1	-0.07798756
235	0x3d521e26	0.051298283
236	0x3d8c902e	0.068634376
237	0x3cc7d152	0.024391804
238	0xbc968497	-0.01837377
239	0xbd4f3a24	-0.050592557
240	0x3d63d44a	0.055622377
241	0xbd1ac309	-0.037783656
242	0xbc28888a	-0.01028646
243	0xbd30f6dc	-0.043204173
244	0xbd17c2a3	-0.037050854
245	0x3c81cfc5	0.015846143
246	0xbcc5b970	-0.024136275
247	0x3cae60e1	0.02128643
248	0xbd48be53	-0.049009632
249	0xbd650b80	-0.05591917
250	0xbd9fe54b	-0.07807406
251	0xbd6c3dab	-0.057676
252	0xbc444936	-0.0119803455
253	0x3b4e7327	0.0031501742
254	0xbd62e90c	-0.055398032
255	0x3d4c5bd1	0.04989225

encoder.0.bias f4 [128]
0	0xbd7ad287	-0.06123593
1	0xbd80a8fd	-0.06282232
2	0x3d2b8f3c	0.041884646
3	0xbd08cc78	-0.03339812
4	0x3d07506c	0.03303568
5	0xbd691305	-0.056902904
6	0xbca29b62	-0.019849483
7	0xbca82286	-0.020524275
8	0x3d984a69	0.074360676
9	0x3e1fd48a	0.15608421
10	0xbd274d04	-0.040844932
11	0xbd3412ce	-0.043963246
12	0x3d18d1a6	0.03730931
13	0x3d7faca3	0.0624205
14	0x3d465811	0.04842383
15	0xbd6fc42d	-0.058536697
16	0x3c4c7462	0.01247892
17	0x3d3b1a4d	0.04567938
18	0x3d03c50a	0.032170333
19	0x3c8a25fd	0.016863817
20	0x3d502a90	0.05082184
21	0x3d2f2f8e	0.04276996
22	0xbd914371	-0.070929416
23	0xbccaf1e0	-0.024773538
24	0x3d2fd94d	0.042931844
25	0xbd9c1ab3	-0.0762228
26	0x3bd2d03d	0.0064335153
27	0xbd91f9a2	-0.07127692
28	0xbd23023c	-0.039797053
29	0xbd73e6c4	-0.059546247
30	0xbcdec835	-0.027195076
31	0xbc99ff73	-0.018798565
32	0x3cb55125	0.02213342
33	0xbcc3ead1	-0.02391568
34	0xbd04e6c5	-0.03244664
35	0xbd4e486f	-0.050362047
36	0xbd9e8ce7	-0.07741719
37	0x3a8e3eae	0.001085242
38	0xbd99850f	-0.07496082
39	0x3d02991f	0.03188431
40	0xbd68335e	-0.056689613
41	0xbd10be41	-0.03533769
42	0x3d2070ba	0.039170004
43	0xbdaf9c4d	-0.08574734
44	0xbd254c9d	-0.040356267
45	0xbd2c0b83	-0.042003166
46	0xbd42f26d	-0.047594476
47	0x3d1bd101	0.03804112
48	0x3c56fb55	0.013121446
49	0xbda9fcb4	-0.083001524
50	0xbce580ba	-0.028015483
51	0x3d208e61	0.039198283
52	0xbd924ccd	-0.07143555
53	0x3d8ac376	0.067755625
54	0xbca5cbbd	-0.020238752
55	0x3d470fb6	0.048598967
56	0x3cc87659	0.024470495
57	0xbd9ef9b9	-0.077624746
58	0xbd126b40	-0.035746813
59	0xbdccffb1	-0.10009707
60	0x3d0a33f7	0.033740964
61	0xbad02a73	-0.0015881791
62	0xbc6f773f	-0.014615833
63	0xbd3d9c23	-0.04629148
64	0xbd20dee3	-0.03927506
65	0xbd2bc9c1	-0.041940454
66	0x3be46246	0.006969723
67	0x3c664e22	0.014056714
68	0x3d025faa	0.031829514
69	0x3cca2a8a	0.024678487
70	0x3cca34a6	0.024683308
71	0x3d005c98	0.031338304
72	0x3cd3cde4	0.025855012
73	0x3e1a6082	0.15075877
74	0x3c848c6f	0.016180245
75	0xbd674876	-0.05646559
76	0xbb225a44	-0.002477304
77	0xbcc26f43	-0.023734694
78	0x3c755a6a	0.01497517
79	0xbd3c09c1	-0.04590774
80	0x3b30134e	0.0026866975
81	0x3d0ab818	0.03386697
82	0xbd9fbddd	-0.077998854
83	0x3cd292f2	0.025704835
84	0x3b0f23d3	0.0021841421
85	0x3d4a8f31	0.049452964
86	0x3caa59e0	0.020794809
87	0xbd0a5af9	-0.033778165
88	0xbb91d8c9	-0.0044508916
89	0x3d870dd6	0.06594436
90	0xbc363e02	-0.011123182
91	0xbbc51c0c	-0.0060153063
92	0x3d7b186a	0.06130258
93	0xbbce7083	-0.0063000335
94	0x3cb597c6	0.022167098
95	0xbcbd0daf	-0.023077814
96	0xbd7effa4	-0.062255517
97	0x3c8a5ec6	0.016890895
98	0x3b21932a	0.0024654367
99	0xbd6b6239	-0.05746672
100	0xbd912349	-0.07086808
101	0x3c0abe1a	0.008468175
102	0xbb2e4765	-0.0026592847
103	0x3cf0be1a	0.029387522
104	0xbd884342	-0.066534534
105	0xbcf131ae	-0.029442634
106	0xbd75808e	-0.059937052
107	0xbcdb2801	-0.026752474
108	0xbd50d289	-0.050982032
109	0x3d4629ae	0.048379593
110	0x3b0d02c8	0.002151655
111	0xbcf9cd0e	-0.030493286
112	0x3e308d51	0.17241408
113	0x3d7d7f5c	0.061889037
114	0x3d3b6b48	0.04575661
115	0xbd09aa6e	-0.0336098
116	0xbd8d35a3	-0.06894996
117	0x3d2607e8	0.040534884
118	0x3cc8257b	0.024431935
119	0xbcdded3e	-0.027090665
120	0x3cf639cb	0.030056855
121	0xbd8396ca	-0.06425245
122	0xbce57625	-0.028010437
123	0xbd5c7d95	-0.0538307
124	0xbd821ab9	-0.06352753
125	0xbd0c7e0f	-0.034299906
126	0x3d6fb274	0.058519796
127	0xbc93c543	-0.018038398

encoder.4.weight f4 [64, 128]
0	0x3d38c3dd	0.045108665
1	0x3cef7f76	0.029235583
2	0xbd0fa722	-0.0350715
3	0xbd942a21	-0.07234598
4	0xbcc92000	-0.024551392
5	0x3d963d87	0.07335954
6	0x3d23a238	0.039949626
7	0x3c3197e3	0.010839435
8	0xbcc2288a	-0.023700971
9	0xbda7b2dc	-0.081884116
10	0xbd670549	-0.056401525
11	0xbc1df61c	-0.009641197
12	0xbd62ebee	-0.05540078
13	0xbb1d1804	-0.0023970613
14	0xbd8423d9	-0.0645215
15	0x3d083a9e	0.033259027
16	0xbd89e205	-0.06732563
17	0x3c8acdfa	0.01694392
18	0xbd8e50ee	-0.0694903
19	0xbb6a9441	-0.0035793933
20	0x3c886fef	0.016654937
21	0x3c8eb37a	0.017419565
22	0x3b8f3eb4	0.0043714885
23	0x3d4e0409	0.050296817
24	0xbd006eca	-0.031355657
25	0x3cb0eec9	0.021598237
26	0xbcb46739	-0.022021877
27	0x3cb4ddcb	0.022078415
28	0xbc71bff9	-0.0147552425
29	0x3bbf2ef3	0.005834454
30	0xbcc06802	-0.023487095
31	0xbce9324b	-0.028466364
32	0x3c4db008	0.012554176
33	0xbc3e296e	-0.011606557
34	0xbbb217d1	-0.005434968
35	0xbd69b0d6	-0.05705341
36	0x3d99442f	0.07483708
37	0xbdb57643	-0.08860447
38	0xbc9f0eed	-0.019416297
39	0x3c80f320	0.015740931
40	0x3c9f0723	0.019412583
41	0x3d3e39e0	0.046441913
42	0x3d7387a7	0.05945554
43	0xbca7953c	-0.020456903
44	0xbd1bda9c	-0.03805028
45	0xbd3fa934	-0.046792224
46	0x3d6fcf08	0.05854705
47	0x3db788a8	0.08961612
48	0x3d6ab3ec	0.057300493
49	0x3d654ec3	0.055983316
50	0xbcb3665a	-0.021899391
51	0xbcf11027	-0.029426647
52	0x3ce94a59	0.028477835
53	0xbd2f0b79	-0.04273555
54	0x3c32a102	0.010902645
55	0xbd0c66d3	-0.03427775
56	0xbcec6895	-0.028858462
57	0x3cc8b845	0.024501929
58	0x3c714f20	0.0147283375
59	0x3d73890d	0.059456874
60	0x3d14cc09	0.036327396
61	0x3d386ef7	0.0450277
62	0x3d9b225d	0.07574914
63	0xbb27139e	-0.002549387
64	0xbd97946f	-0.07401358
65	0x3d9570ae	0.072968826
66	0xbba9b978	-0.0051795803
67	0xbca7ada5	-0.020468542
68	0xbc484139	-0.012222582
69	0xbd0ecc85	-0.034863014
70	0xbd099fd1	-0.03359968
71	0x3cb94673	0.0226166
72	0x3c4d5bc8	0.012534089
73	0xbdfec7cd	-0.12440453
74	0xbbd54ddd	-0.006509526
75	0xbcdeac13	-0.02718166
76	0x3c254578	0.010087363
77	0xbd902695	-0.07038609
78	0xbcc9bd42	-0.024626378
79	0x3d174dc9	0.036939416
80	0xbcc53597	-0.024073405
81	0x3d872ccd	0.06600342
82	0x3ce899b0	0.028393596
83	0xbcb054df	-0.021524845
84	0x3d0578d0	0.03258592
85	0x3d2e8084	0.04260303
86	0x3db2fc88	0.08739573
87	0x3cd68f9d	0.026191527
88	0x3bbbfdea	0.005737056
89	0x3dbcf585	0.09226517
90	0xbd04d924	-0.032433644
91	0xbd0865e7	-0.033300307
92	0xbc87b717	-0.016566796
93	0x3cbf13fc	0.023324959
94	0x3cf74f13	0.030189073
95	0x3c684b10	0.014178053
96	0x3d31fe83	0.043455612
97	0x3ccfc16c	0.025360785
98	0x3c184826	0.009294545
99	0x3d1b823c	0.037965998
100	0xbb09e860	-0.0021043047
101	0xbd22745a	-0.039661743
102	0x3c91cdd0	0.017798334
103	0x3d30343e	0.043018572
104	0xbb3e3476	-0.0029022968
105	0xbb01be64	-0.001979732
106	0x3d88d38a	0.06680973
107	0xbd1c4f9d	-0.038161863
108	0x3d95e0ae	0.07318245
109	0xbb86687b	-0.0041018105
110	0x3c42cacd	0.011889172
111	0xbd653d33	-0.055966567
112	0xbdfa8777	-0.12232869
113	0x3aaede23	0.0013341348
114	0x38c1c9d2	9.240549e-05
115	0xbcec2bb7	-0.028829439
116	0xbc5feea6	-0.013667738
117	0x3ccc6351	0.024949702
118	0xbaafd7bd	-0.0013415735
119	0xbc36feaf	-0.01116912
120	0x3c5331ab	0.01289026
121	0x3b816410	0.003948696
122	0xbdacc2a2	-0.08435561
123	0x3d013d90	0.03155285
124	0x3d9ff966	0.07811241
125	0xbd9d2a66	-0.076741025
126	0xbd111ecf	-0.035429772
127	0x3b463066	0.003024125
128	0x3cd86330	0.026414484
129	0x3d370901	0.04468632
130	0xbd16dd09	-0.03683189
131	0xbd3e3496	-0.04643687
132	0x3cd68551	0.026186617
133	0xbd1d5454	-0.0384105
134	0x3cb17c29	0.02166565
135	0xbc279b6a	-0.010229925
136	0x3d12662c	0.03574197
137	0x3d849445	0.06473593
138	0x3d1d4b6f	0.038402017
139	0xbc9d1cc3	-0.019178754
140	0xbcadec0f	-0.021230726
141	0xbcfc756d	-0.030817712
142	0xbc6b0e7a	-0.014346713
143	0x3c671816	0.014104864
144	0xbd68d635	-0.05684491
145	0xbbcd4c98	-0.006265234
146	0x3cfbc71a	0.030734587
147	0x3d5d8e3d	0.054090727
148	0xbda21126	-0.07913427
149	0x3d380f9b	0.044936758
150	0x3d2ffb1c	0.042964086
151	0xbda4d29a	-0.080479816
152	0xbda96f1d	-0.08273146
153	0x3d7e4a34	0.062082484
154	0xbd0a8581	-0.033818725
155	0xbd810095	-0.06298939
156	0xbcadd799	-0.021220969
157	0x3d77aed1	0.060469452
158	0xbccd75bd	-0.025080556
159	0x3cd31cb9	0.025770532
160	0x3ca3e5af	0.020006983
161	0xbdaa9b17	-0.08330362
162	0xbd98d408	-0.07462317
163	0xbd82d762	-0.06388737
164	0x3d2827fa	0.04105375
165	0xbd881383	-0.066443466
166	0x3c868fa8	0.016425923
167	0x3c8648f8	0.016392216
168	0x3c1999cf	0.00937505
169	0x3d656f43	0.05601431
170	0xbd1e3015	-0.038620073
171	0xbc0b57a3	-0.008504781
172	0x3d5dcde6	0.05415144
173	0xbd856fcf	-0.065154664
174	0x3d8a73e7	0.06760388
175	0x3cd317c0	0.02576816
176	0x3dab55c7	0.0836597
177	0xbd79bb20	-0.060969472
178	0xbd757a9a	-0.059931375
179	0x3da4212e	0.08014141
180	0x3d630b51	0.055430714
181	0x3caa1244	0.020760663
182	0x3cee3993	0.029080188
183	0x3cc2ae58	0.023764774
184	0x3cadc608	0.021212593
185	0x3a26e1fa	0.00063660706
186	0x3db04fe8	0.08608991
187	0x3dae1930	0.08500898
188	0xbc401e31	-0.011725948
189	0xbc0daae3	-0.0086467
190	0xbd3917d8	-0.045188755
191	0xbd083813	-0.0332566
192	0x3d101f16	0.035185896
193	0x3cd815c8	0.026377574
194	0xbd59544a	-0.0530589
195	0xbd6c895a	-0.057748176
196	0xbd056750	-0.03256923
197	0x3d927f7c	0.07153222
198	0xbd81d54d	-0.06339512
199	0xbd85be05	-0.06530384
200	0xbd3977db	-0.04528032
201	0x3d3f9c81	0.046780113
202	0x3bcf9e4d	0.0063360096
203	0x3d26cd89	0.040723357
204	0xbba7d94a	-0.0051223384
205	0x3d6aaa80	0.057291508
206	0xbc424c69	-0.011859038
207	0xbd9807eb	-0.07423385
208	0xbccadc27	-0.02476318
209	0xb9e65876	-0.00043934927
210	0xbd216fba	-0.03941319
211	0x3b5b8e81	0.0033501687
212	0x3d7ddaa9	0.06197611
213	0xbb45cadb	-0.0030180726
214	0xbc09c748	-0.008409329
215	0xbcd32935	-0.025776485
216	0x3d6c4dbf	0.057691332
217	0xbd57feff	-0.052733418
218	0xbd43eca4	-0.0478331
219	0x398090fe	0.0002452209
220	0x3c16c342	0.0092018265
221	0x3dab6e18	0.08370608
222	0xbdadbbce	-0.084830865
223	0x3c800aa4	0.015630074
224	0xbd0cced5	-0.034376938
225	0x3d26598f	0.040612753
226	0x3d658ce2	0.05604256
227	0x3d09c41c	0.03363429
228	0x3d80f1d9	0.06296129
229	0xbd972060	-0.07379222
230	0xbdaa6724	-0.08320454
231	0xbd828f0f	-0.063749425
232	0x3d81c2ee	0.06336008
233	0xbd72ad51	-0.05924732
234	0x3cc24ff8	0.023719773
235	0x39be7741	0.00036328475
236	0xbd8a990f	-0.06767475
237	0xbd94f34a	-0.07272966
238	0x3c72a7fe	0.01481056
239	0x3c3be4a1	0.011468084
240	0x39f52962	0.00046760874
241	0xbc5558d7	-0.013021669
242	0xbc42459a	-0.011857415
243	0xbdaf1755	-0.08549372
244	0xbd597b31	-0.053096
245	0xbdafc7a7	-0.085830025
246	0xbcb9f87b	-0.022701493
247	0x3d1a8125	0.037720818
248	0x3d260628	0.040533215
249	0xbd42773f	-0.047477003
250	0xbd6d72c9	-0.057970796
251	0x3d1ad22a	0.037798084
252	0xbd89d1a6	-0.067294404
253	0x3c35e810	0.011102691
254	0xbd4b1d21	-0.049588326
255	0xbcb4b6ae	-0.022059765

encoder.4.bias f4 [64]
0	0x3da86e01	0.082241066
1	0xbc8b81a5	-0.017029593
2	0xbcbbf0bd	-0.022941941
3	0xbd1b27ea	-0.037879862
4	0xbcf7a3f8	-0.030229554
5	0x3da73735	0.08164827
6	0x3ca41008	0.020027176
7	0x3d11ca8f	0.035593566
8	0x3df3e555	0.11908976
9	0xbb9a1f9c	-0.004703475
10	0xbdaa7f2a	-0.08325036
11	0x3c218d46	0.009860342
12	0xbd864d33	-0.06557693
13	0x3dc4013e	0.095705494
14	0x3e138359	0.14405574
15	0xbd433638	-0.04765913
16	0x3df7b1c0	0.1209445
17	0xbd8dd1cd	-0.06924782
18	0x3bc481e0	0.0059969276
19	0xbd9139aa	-0.07091077
20	0xbd04b748	-0.032401353
21	0xbd90a010	-0.070617795
22	0xbcc8d9c4	-0.024517901
23	0x3de2e9e1	0.11079765
24	0xbd8cfb5b	-0.0688388
25	0xbca89d22	-0.02058274
26	0x3de4d940	0.1117425
27	0x3dd18ce9	0.102319546
28	0xbdb168be	-0.08662556
29	0xbdb021f5	-0.08600227
30	0xbd8fb0d1	-0.07016147
31	0x3d6c76da	0.057730533
32	0x3d916f0e	0.0710126
33	0x3da991a7	0.08279734
34	0xbd88c93d	-0.06679008
35	0x3c8ab2bd	0.016930932
36	0x3cad49e2	0.021153394
37	0xbd92be38	-0.071651876
38	0xbab5ca3b	-0.0013869473
39	0xbd6155a3	-0.05501331
40	0xbcac9909	-0.021069067
41	0x3df5a2c7	0.11993938
42	0x3e0a3e99	0.13500442
43	0xbd2c5412	-0.042072363
44	0xbd823f35	-0.06359712
45	0xbd528a5a	-0.051401474
46	0xbd32e4d1	-0.043675248
47	0xbac87414	-0.0015293383
48	0x3a858a1b	0.0010188253
49	0x3e1310be	0.14361855
50	0xbcde9e4f	-0.027175097
51	0xbd058089	-0.032593284
52	0xbd0d136c	-0.03444235
53	0x3e09ef34	0.13470155
54	0x3ccc0ac0	0.02490747
55	0x3da70240	0.08154726
56	0xbd05245c	-0.032505378
57	0x3dc878ba	0.09788652
58	0xbc3754c6	-0.011189645
59	0xbc989fb1	-0.018630834
60	0x3e2bfc60	0.16795492
61	0x3dc4a418	0.09601611
62	0xbd776a76	-0.060404263
63	0xbd9d958f	-0.07694542

quantizer.embedding.weight f4 [32, 64]
0	0xbb7924c0	-0.003801629
1	0xbbdcea08	-0.006741766
2	0x3c1f6d44	0.009730641
3	0xbbe239c0	-0.006903857
4	0x3c8c0a64	0.017094798
5	0x3bb1f0b8	0.0054303072
6	0xbcd64b38	-0.026158914
7	0xbb76f080	-0.003767997
8	0x3c36099c	0.0111106895
9	0x3bd55348	0.006510172
10	0x3cc6b5a4	0.024256535
11	0x3b9b0b20	0.004731551
12	0x3a22b580	0.0006206855
13	0xbbe4c408	-0.0069813766
14	0xbcf9f7c2	-0.030513648
15	0xbc2ae2d4	-0.010430057
16	0xbc9f1fde	-0.019424375
17	0xbcc779ba	-0.024350036
18	0xbccd00b8	-0.025024757
19	0xbc9ac7c8	-0.018894091
20	0xbcbd8b9c	-0.02313786
21	0x3ab83d80	0.0014056414
22	0x3cdcb3d0	0.02694121
23	0x3bb22648	0.0054366924
24	0xbc0adaac	-0.008474987
25	0xbc6ecb4c	-0.014574837
26	0xbc9a318e	-0.018822458
27	0xbcdd5b54	-0.027021088
28	0x3b7362f0	0.0037137829
29	0x3ca3ed9c	0.020010762
30	0xbcf4d43c	-0.029886357
31	0x3cd12e5c	0.025534801
32	0x3cc0800e	0.023498561
33	0xbcdf9630	-0.027293295
34	0xbc8824fc	-0.016619198
35	0xbc3a93a0	-0.011387736
36	0xbc843d6e	-0.016142573
37	0x3cb8029c	0.022462182
38	0x3cd72188	0.026261106
39	0x3b0da750	0.0021614619
40	0xbc190810	-0.009340301
41	0xbbb620c8	-0.005558107
42	0xbad842e0	-0.0016499422
43	0x3c8eb286	0.017419111
44	0xbc58c0c4	-0.013229553
45	0x3bcf0e98	0.0063188784
46	0x3ca50750	0.020145088
47	0xbc3cc0b8	-0.011520557
48	0xbc77cb7c	-0.015124198
49	0xbc2d8f28	-0.010593213
50	0x3b900850	0.004395522
51	0xbc26eda4	-0.010188494
52	0xbb5131c0	-0.0031920522
53	0x3c60cec8	0.0137211755
54	0xbc212c68	-0.009837247
55	0xbcc6f846	-0.024288308
56	0xbcc8493a	-0.02444898
57	0xbb8d6d30	-0.0043159947
58	0xbc7a3b70	-0.01527296
59	0xbcc4c082	-0.024017576
60	0x3c218950	0.009859398
61	0xbcab68b0	-0.020923942
62	0x3c7c0570	0.015382156
63	0xbcc8d502	-0.024515633
64	0x3c5b41bc	0.0133823715
65	0xbcc92664	-0.024554439
66	0x3ceecc8c	0.02915027
67	0xbc02bef0	-0.007980093
68	0x3bedc430	0.0072560534
69	0x3cdb033c	0.02673494
70	0x3cb5bf42	0.022185925
71	0xbb4aa840	-0.0030923039
72	0xbc9b2eb0	-0.01894316
73	0xbc34e6a0	-0.011041313
74	0x3c17fd54	0.009276707
75	0xbc69fb7c	-0.01428115
76	0x3cf1aa2c	0.02950009
77	0x3b1fce60	0.0024384484
78	0x3bb04ae0	0.0053800195
79	0x3cd7e294	0.026353158
80	0x3b9dbfb8	0.0048141144
81	0xbce7a310	-0.028275996
82	0xbbf448a8	-0.0074549504
83	0xbb8b3e40	-0.004249364
84	0x377e0000	1.513958e-05
85	0x3cf9fcb8	0.030516014
86	0x3c61963c	0.013768729
87	0x3c65f7a8	0.014036097
88	0xba5a4480	-0.00083262473
89	0xbcd2594e	-0.02567735
90	0x3cec17f4	0.028820015
91	0x3cf0eb02	0.029408935
92	0x3c814186	0.015778314
93	0xbc594f20	-0.013263494
94	0xba369280	-0.0006964579
95	0xbb8eb430	-0.004354976
96	0xbc5e175c	-0.013555374
97	0xbcf94524	-0.030428477
98	0xbb84b850	-0.004050292
99	0x3c976cb2	0.018484447
100	0xbcca38a0	-0.024685204
101	0x3ca50f96	0.020149034
102	0x3cc746ae	0.024325695
103	0xbc81ed70	-0.01586029
104	0x3bded8d8	0.006800752
105	0xbb95ca58	-0.0045712404
106	0xbcb111b4	-0.021614887
107	0x3c97e2f8	0.018540844
108	0xbb8ffe68	-0.0043943413
109	0x3c523bd0	0.012831643
110	0x3cbe4ce6	0.023230027
111	0xbbdf4ea0	-0.0068147928
112	0xbcced94c	-0.0252501
113	0xbc664ce0	-0.014056414
114	0xbb6d3010	-0.0036191978
115	0x3c751990	0.014959708
116	0xbc8ff3da	-0.017572332
117	0xbce0cb38	-0.027440652
118	0x3ca22132	0.01979122
119	0x3c8a63e6	0.016893338
120	0xb82dbc00	-4.1421503e-05
121	0xba1f6c40	-0.0006081499
122	0x3ab00780	0.001342997
123	0x3cf66fa6	0.030082535
124	0x3b5e0540	0.003387764
125	0xbce160da	-0.027512003
126	0x3c9d0102	0.01916552
127	0xbc9e010c	-0.019287609
128	0xbb7b0d00	-0.003830731
129	0xbcc129d2	-0.023579512
130	0x3be0e588	0.0068632998
131	0xbca9ad36	-0.020712476
132	0x3c8b1dc0	0.01698196
133	0xb9d58100	-0.00040722638
134	0xbb9f7000	-0.0048656464
135	0xbcf31752	-0.029674206
136	0x3cba8d00	0.022772312
137	0xbba27da8	-0.004958827
138	0x3c201304	0.009770159
139	0x3c8c1850	0.017101437
140	0x3cb8ca84	0.022557504
141	0xbc222cdc	-0.009898391
142	0xbca88e46	-0.020575654
143	0x3c9c6fba	0.019096244
144	0xbcf26ba2	-0.029592339
145	0xbc12bbf0	-0.008955941
146	0xbae80080	-0.0017700344
147	0xbcd4c742	-0.02597392
148	0x3c1f886c	0.009737115
149	0xbc989fbc	-0.018630855
150	0xbced4858	-0.02896516
151	0x3cf36938	0.029713258
152	0xbc1cf96c	-0.009580951
153	0x3cb9da54	0.022687115
154	0xbb836570	-0.004009895
155	0x3cccb7d4	0.02499
156	0x3c94a4aa	0.018144924
157	0xbcd45adc	-0.025922231
158	0xbcbb6ce8	-0.022879079
159	0xbc450144	-0.0120242275
160	0xbb90c450	-0.0044179335
161	0x3c3f6de8	0.011683919
162	0xbc1abc38	-0.009444289
163	0x3cd132f8	0.025537
164	0xbc0cd764	-0.008596275
165	0x3b08c7c0	0.0020871013
166	0x3b96c2d0	0.00460086
167	0x3cdd2db4	0.026999332
168	0xbcc0b952	-0.023525868
169	0x3ac461e0	0.0014982782
170	0xbaa40640	-0.001251407
171	0xbcea7e3c	-0.028624646
172	0xbbb5a070	-0.0055428073
173	0x3c8cdc34	0.017194845
174	0x3b8a2d90	0.0042168573
175	0x3cb37c0e	0.02190974
176	0xbc8f1b74	-0.017469145
177	0xbca81274	-0.020516612
178	0x3cc2678c	0.023731016
179	0xbc8fe5b4	-0.017565586
180	0xbc2810e4	-0.010257933
181	0xbc81b7d4	-0.015834726
182	0xbce01d82	-0.02735782
183	0xbce50c06	-0.027959835
184	0xbc470610	-0.0121474415
185	0x3c52073c	0.012819108
186	0x3cf99e40	0.030470967
187	0x3c775c2c	0.015097659
188	0x3c8f71fa	0.017510403
189	0xbcdccb94	-0.026952542
190	0x3cdd5768	0.027019218
191	0xbce33788	-0.02773644
192	0xbb3ef640	-0.0029138476
193	0x3c99d3fa	0.018777836
194	0xbc06a2dc	-0.00821754
195	0x3cde1bb4	0.02711282
196	0x3cf6cef4	0.03012798
197	0x3c8be5f8	0.017077431
198	0xbc844c82	-0.016149763
199	0x3ccc1270	0.024911135
200	0x3bdaf200	0.0066816807
201	0x3b7b3070	0.0038328432
202	0x3cd113d8	0.025522158
203	0xbc5c7f74	-0.013458122
204	0xbc060d7c	-0.008181926
205	0x3beb2208	0.0071756877
206	0xbcac460e	-0.021029498
207	0xbcd8898e	-0.026432779
208	0x3c7146bc	0.014726337
209	0xbb4ef9c0	-0.0031581968
210	0xbc84f73c	-0.016231172
211	0x3cb84fa6	0.022498917
212	0xbb83d5c8	-0.0040232874
213	0x3cd2d224	0.025734968
214	0xbb90a868	-0.004414607
215	0x3c3d6798	0.011560343
216	0x3ab64e00	0.0013908744
217	0x3bd17028	0.006391544
218	0xbca3468e	-0.019931104
219	0xbbe60b40	-0.007020384
220	0xbcc00360	-0.02343911
221	0x3c025ae8	0.007956244
222	0x3c8f2a38	0.017476186
223	0x3c58a4a8	0.013222851
224	0x3cb5c82e	0.02219018
225	0x3cf6a53c	0.030108087
226	0x3c79a678	0.015237443
227	0xbc69f4d8	-0.014279567
228	0x3c598b08	0.013277777
229	0xbce41b3a	-0.027845014
230	0xbcc28466	-0.023744773
231	0x3cc43d7c	0.0239551
232	0x3c38bb9c	0.011275198
233	0x3c4c8bd8	0.012484513
234	0x3b2bfc20	0.0026242808
235	0xbceb148c	-0.028696321
236	0x3cf3f2cc	0.02977886
237	0x3cff461c	0.03116136
238	0x3bd64970	0.006539516
239	0x3c3c2100	0.011482477
240	0xbc89a580	-0.01680255
241	0xbbadc5f8	-0.0053031407
242	0xbcee7dc0	-0.029112697
243	0xbc107da4	-0.008819018
244	0xbb6edc20	-0.0036447123
245	0x3c9e0b56	0.019292515
246	0x3cda5f32	0.02665672
247	0x3ce99b54	0.028516449
248	0xbc8c693a	-0.01714002
249	0x3c2326e4	0.009958003
250	0x3be1eb08	0.006894473
251	0xbcda3f82	-0.026641611
252	0xbca26056	-0.019821327
253	0x38394c00	4.4178218e-05
254	0xbc6550e8	-0.01399634
255	0xbcdee804	-0.027210243

decoder.0.weight f4 [128, 64]
0	0x3cd4d8f0	0.02598235
1	0x3db3c29a	0.08777352
2	0xbc99c5f0	-0.018771142
3	0xbdb87a4a	-0.090077
4	0x3d57e8cc	0.052712247
5	0xbd8b65dc	-0.068065375
6	0x3ded73aa	0.11594327
7	0x3d939758	0.07206601
8	0x3c9394d0	0.018015295
9	0xbd4a4fac	-0.049392387
10	0x3da3b8a8	0.07994205
11	0xbdfb77ac	-0.12278685
12	0x3d8180cc	0.06323394
13	0x3d37531c	0.044756994
14	0xbd2671a8	-0.040635735
15	0x3d6ecb48	0.058299333
16	0xbcef4250	-0.029206425
17	0xbb5e0340	-0.003387645
18	0xbc79c2f0	-0.015244231
19	0x3b1feb00	0.0024401546
20	0xbdcfd4f4	-0.101480395
21	0x3d42c6b0	0.047552764
22	0xbd815868	-0.0631569
23	0x3c969798	0.018382832
24	0x3d22d1a8	0.039750725
25	0x3c83d080	0.016090631
26	0x3b1c2380	0.002382487
27	0xbd88c2ba	-0.06677766
28	0xbca6c958	-0.02035968
29	0x3b939ce0	0.004504785
30	0xbde8d624	-0.11368969
31	0xbd75acd4	-0.059979275
32	0x3c756930	0.014978692
33	0x3dc11252	0.094273224
34	0xbd1cb338	-0.038256854
35	0x3d121948	0.03566864
36	0x3dbb09e0	0.09132743
37	0x3b863060	0.004095122
38	0xbd43d8b0	-0.04781407
39	0xbd49aa78	-0.049234837
40	0xbcabaed8	-0.020957395
41	0x3d13f2fc	0.0361204
42	0x3da2e7e4	0.07954386
43	0xbd4e2c14	-0.050335005
44	0x3dd37348	0.103247225
45	0x3d215d3c	0.039395556
46	0x3d350c6c	0.0442013
47	0x3b3f7c80	0.0029218495
48	0x3df0f38e	0.11765204
49	0xbd8eeafe	-0.06978415
50	0xbdd355b4	-0.10319081
51	0xbca85668	-0.020549014
52	0xbcad0280	-0.021119356
53	0xbd9b8302	-0.07593347
54	0xbd8a1e40	-0.06744051
55	0xbcd6df98	-0.026229665
56	0xbcb0a660	-0.021563709
57	0xbd4d67a0	-0.050147653
58	0xbdd07fb8	-0.101806104
59	0x3da2dd0c	0.079523176
60	0x3d741bbc	0.059596762
61	0x3d8974ae	0.06711708
62	0x3c8e8f40	0.017402291
63	0xbc930d98	-0.017950818
64	0x3e401777	0.18758951
65	0xbcc8fda9	-0.024535017
66	0x3de80dec	0.113307804
67	0x3c99e555	0.018786112
68	0xbbed7261	-0.007246301
69	0x3dc0257d	0.0938215
70	0x3ccf459a	0.025301743
71	0xbdf64eb4	-0.1202673
72	0xbbd90c00	-0.006623745
73	0x3d83dabe	0.06438206
74	0xbd4a162c	-0.04933755
75	0x3df2d2e8	0.118566334
76	0xbd9c7ea6	-0.07641344
77	0x3d21863c	0.039434657
78	0x3d65c5b1	0.056096736
79	0xbdb5474b	-0.08851489
80	0x3e62804c	0.22119254
81	0xbd7220e9	-0.059113417
82	0x3da85698	0.082196414
83	0xbd6c8083	-0.057739746
84	0x3c6767c3	0.01412386
85	0x3db756e8	0.08952123
86	0x3e18238b	0.14857309
87	0x3d05b91b	0.032647233
88	0x3d115024	0.03547682
89	0xbce97a00	-0.028500557
90	0x3e2f395e	0.17111728
91	0x3e30c8e3	0.17264132
92	0xbdce770f	-0.100813024
93	0xbe0bf569	-0.13667835
94	0x3cdb7e11	0.026793512
95	0x3d825f91	0.06365884
96	0x3e0af2c1	0.13569166
97	0x3da01736	0.07816927
98	0xbca0c17f	-0.019623516
99	0x3babc3cd	0.005241847
100	0xbdc05a79	-0.09392256
101	0xbdbaac4e	-0.09114896
102	0x3d5166e2	0.051123507
103	0xbb496c10	-0.0030734576
104	0xbd6d7967	-0.057977106
105	0x3df44872	0.1192788
106	0x3e07f178	0.13275707
107	0xbd7b4e5f	-0.061354037
108	0xbd608e32	-0.054823108
109	0x3d48f26b	0.049059313
110	0x3cbca55b	0.023028066
111	0x3e187d98	0.1489166
112	0xbc45ce84	-0.012073163
113	0x3d5d613d	0.05404781
114	0x3dbbcb43	0.091696285
115	0xbc282a25	-0.010263954
116	0x3dd0ca5c	0.10194847
117	0x3d323b33	0.043513488
118	0x3d43974f	0.04775172
119	0x3dc43020	0.095794916
120	0x3cdc4a0c	0.026890777
121	0xbd78aa97	-0.060709562
122	0xbdb00bd2	-0.085960045
123	0x3d8f2877	0.0699014
124	0x3e2ff06a	0.17181554
125	0x3e1e7335	0.15473635
126	0x3ad44c69	0.0016197088
127	0xbd77dd42	-0.060513742
128	0xbde8e480	-0.11371708
129	0xbd2ff7f8	-0.04296109
130	0xbd201510	-0.039082587
131	0xbdeaae7e	-0.11459063
132	0xbbec20a0	-0.0072060376
133	0x3ddbfeb8	0.10741943
134	0xba913000	-0.0011076927
135	0xbdcdd55a	-0.10050459
136	0xbd121158	-0.03566107
137	0xbd8b02a0	-0.0678761
138	0x3da12700	0.07868767
139	0xbdb26410	-0.08710492
140	0xbd93e5e8	-0.072215855
141	0xbb43be80	-0.0029868186
142	0xbdc5cbc4	-0.09658006
143	0x3cf6fc28	0.030149534
144	0xbca383e0	-0.019960344
145	0xbdb4f6a2	-0.08836104
146	0xbddb7e68	-0.107174695
147	0xbd837858	-0.06419438
148	0xbd1b1364	-0.03786029
149	0x3d4d5bac	0.050136253
150	0x3cb9e9d8	0.022694513
151	0x3ce2d050	0.027687222
152	0x3dc69aea	0.09697516
153	0x3def29e8	0.11677915
154	0x3db512d2	0.0884148
155	0xbdd454f2	-0.103677645
156	0xbda7c910	-0.081926465
157	0x3da2f362	0.07956578
158	0x3cddab10	0.027059108
159	0xbce91588	-0.02845265
160	0x3d4cf19c	0.050035104
161	0x3c3b29e0	0.011423558
162	0x3db9eef2	0.09078778
163	0x3cb35818	0.021892592
164	0x3dea50a2	0.11441161
165	0xbdf6427a	-0.12024398
166	0x3ce7e9a8	0.028309658
167	0x3de91170	0.11380279
168	0xbdaff97e	-0.08592509
169	0xbdbdaa2e	-0.09260975
170	0xbc1ded00	-0.009639025
171	0xbdce8c48	-0.1008535
172	0xbd53b2c4	-0.051684156
173	0xbd6f7828	-0.0584642
174	0xbda3cccc	-0.07998046
175	0xbddc2fb6	-0.10751288
176	0x3dbeb12a	0.09311135
177	0x3deff364	0.11716345
178	0x3dec7b2c	0.11546931
179	0x3db59684	0.08866599
180	0xbdcc4288	-0.09973627
181	0xbd30c820	-0.043159604
182	0x3df74a88	0.120747626
183	0x3bec9e20	0.0072209984
184	0xbdbfa71c	-0.093580455
185	0xbd5ba6cc	-0.053625867
186	0x3d1c3808	0.038139373
187	0xbcabab58	-0.020955727
188	0x3c532ba0	0.012888819
189	0x3c91a110	0.017776996
190	0x3df0f838	0.11766094
191	0xbcfd04f8	-0.030886158
192	0x3ccda6f0	0.025104016
193	0xbdf1686a	-0.117874935
194	0x3d005df4	0.0313396
195	0x3da9529e	0.08267711
196	0x3dba2dd8	0.09090775
197	0x3d2dbbbc	0.042415366
198	0x3dea3f14	0.114378124
199	0x3dd4f884	0.10398963
200	0xbda118a8	-0.07866031
201	0x3d992bea	0.07479079
202	0xbdf75bf0	-0.120780826
203	0xbc26d160	-0.010181755
204	0x3d808f1e	0.062772974
205	0x3da9c00a	0.08288582
206	0x3da3a204	0.079898864
207	0x3dff66e4	0.12470797
208	0xbdb6815e	-0.089113936
209	0xbd309004	-0.043106094
210	0x3c59a970	0.013285026
211	0xbdc78b74	-0.097433954
212	0xbd2d5700	-0.042319298
213	0x3d90e1da	0.07074328
214	0xbdbdefca	-0.09274252
215	0x3dcc9c02	0.09990694
216	0xbddd4d34	-0.10805741
217	0x3db482b4	0.08813992
218	0xbade9080	-0.001698032
219	0xbddadaa8	-0.106862366
220	0xbd908e20	-0.07058358
221	0xbbadc8a0	-0.0053034574
222	0xbdbfe0a8	-0.09369022
223	0x3d2b4318	0.041812032
224	0xbd7643e4	-0.06012334
225	0xbc9bc328	-0.019013956
226	0xbd96f33e	-0.073706135
227	0x3c013900	0.007887125
228	0xbc96a120	-0.018387377
229	0xbc79a630	-0.015237376
230	0x3b7e43c0	0.0038797706
231	0x3d4aab1c	0.04947959
232	0x3d3598f4	0.04433532
233	0xbcd05080	-0.02542901
234	0xbd9e2d3e	-0.07723473
235	0xbc8edbd0	-0.0174388
236	0x3da6ba30	0.08140981
237	0x3d965dd0	0.07342112
238	0x3d1e9bf8	0.038722962
239	0x3a7a1b00	0.00095407665
240	0x3dd0581a	0.10173054
241	0xbdf1822c	-0.117924064
242	0xbdcd8c3e	-0.10036515
243	0x3de1f3e0	0.110328436
244	0xbdfcf072	-0.12350549
245	0xbd9096ce	-0.07060014
246	0x3c981758	0.018565819
247	0xbd28c904	-0.04120733
248	0x3d82009a	0.06347771
249	0x3cbbdde0	0.022932947
250	0xbda084e0	-0.07837844
251	0xbde60972	-0.1123227
252	0xbd0ab084	-0.033859745
253	0x3daeae12	0.08529295
254	0xbd44b8ac	-0.04802768
255	0xbd70870c	-0.05872254

decoder.0.bias f4 [128]
0	0xbd345bb0	-0.044032753
1	0x3e98320f	0.29725692
2	0xbd089264	-0.033342734
3	0xbd9298a8	-0.07158023
4	0x3e382a60	0.17984915
5	0xbce6dede	-0.028182443
6	0xbc2650b5	-0.010151078
7	0xbda64e40	-0.08120394
8	0xbce112dc	-0.027474813
9	0x3e09ffac	0.13476437
10	0xbd644ec8	-0.055739194
11	0xbda11171	-0.07864655
12	0xbdcedd1c	-0.10100767
13	0xbcce55d2	-0.025187407
14	0xbdec5e84	-0.11541465
15	0xbd202478	-0.03909728
16	0xbdeb1bf8	-0.11479944
17	0x3e6be780	0.23037529
18	0x3e1bc007	0.15209971
19	0xbdfcea3a	-0.12349363
20	0x3e30646e	0.17225811
21	0xbdbb188c	-0.09135541
22	0xbd9b8d76	-0.07595341
23	0xbd043420	-0.032276273
24	0x3cd6d370	0.026223868
25	0x3e2e4240	0.1701746
26	0x3e7debf4	0.2479704
27	0x3dfa90df	0.12234663
28	0x3d85f479	0.0654077
29	0xbd71063c	-0.058843836
30	0xbac07efd	-0.0014686283
31	0xbdd43918	-0.10362452
32	0xbda85c1e	-0.08220695
33	0xbab2428c	-0.0013600155
34	0xbd990460	-0.074715376
35	0x3e9b3bee	0.3031916
36	0x3e45634e	0.19276163
37	0xbdf1efbe	-0.11813305
38	0x3e644557	0.22292076
39	0xbe0620c6	-0.1309844
40	0xbdc9ccab	-0.098534904
41	0xbdc3a96a	-0.095537975
42	0xbdbc9264	-0.09207609
43	0xbde7601c	-0.11297628
44	0x3d866cc5	0.06563715
45	0xbb0faafb	-0.002192198
46	0xbdffa282	-0.12482168
47	0xba89a305	-0.0010500854
48	0x3e25a774	0.1617716
49	0xbcfed042	-0.031105164
50	0x3e2f2901	0.17105485
51	0xbd1090cc	-0.03529434
52	0x3e36699a	0.17813721
53	0x3e50a14e	0.20374033
54	0xbabb731c	-0.0014301273
55	0x3e50527e	0.20343968
56	0xbc6c685f	-0.014429181
57	0x3eb71d9c	0.35764778
58	0x3ebdf6ae	0.37102264
59	0x3e0baf51	0.13641097
60	0xbd9161d8	-0.0709874
61	0x3e942bdd	0.28939715
62	0xbadaa9eb	-0.001668272
63	0x3dad558b	0.08463582
64	0xbd4229ec	-0.04740326
65	0xbdf712e0	-0.12064147
66	0xbb489cc2	-0.0030611013
67	0xbd0f54b4	-0.03499289
68	0x3c76ff89	0.015075573
69	0x3e70c0da	0.23511067
70	0xbe04218c	-0.12903422
71	0xbdcc7796	-0.09983747
72	0xbd617244	-0.055040613
73	0x3df79a71	0.12090004
74	0x3e03aeb2	0.1285961
75	0xbb8e8be2	-0.0043501714
76	0xbca38e70	-0.01996538
77	0x3db00ca0	0.08596158
78	0xbd7dbcb4	-0.06194754
79	0xbd75c6ac	-0.06000392
80	0x3e6e547a	0.23274413
81	0xbd61b748	-0.05510643
82	0xbd4a5914	-0.049401358
83	0xbd665d68	-0.056241423
84	0xbd937dd0	-0.07201731
85	0xbd2257cc	-0.03963451
86	0x3dc7b956	0.09752147
87	0xbd6d2ec0	-0.057905912
88	0xbdc6e768	-0.09712106
89	0xbc973c91	-0.018461498
90	0xbcbf7240	-0.023369908
91	0xbc928558	-0.017885849
92	0xbdcb3cec	-0.09923729
93	0xbd6fd56f	-0.058553156
94	0xbdb310f6	-0.087434694
95	0xba9da69c	-0.0012027803
96	0xbaf19b0b	-0.0018433047
97	0x3d8302a4	0.06396988
98	0x3cd6d6f8	0.026225552
99	0x3d05063a	0.03247664
100	0x3e5404f7	0.20705019
101	0x3e92ded7	0.28685638
102	0xbd4c12d8	-0.04982266
103	0xbc749602	-0.014928343
104	0xbd25f66c	-0.04051821
105	0xbd87422c	-0.06604418
106	0xba6f02af	-0.00091175264
107	0x3d44ffe6	0.048095606
108	0x3d52e7a9	0.05149046
109	0xbd2a0ed8	-0.041518062
110	0xbcb2d924	-0.021832056
111	0x3e936cb4	0.2879387
112	0x3ea59fc8	0.32348466
113	0x3e8a9f36	0.27074593
114	0xbccef398	-0.025262639
115	0x3e80a20f	0.2512364
116	0xbde73cdc	-0.11290905
117	0xbca4044d	-0.020021582
118	0x3e1b4299	0.15162124
119	0xbd73e609	-0.05954555
120	0xbaf5dffe	-0.0018758771
121	0xbb7e1ab9	-0.0038773252
122	0xbd8f2502	-0.069894806
123	0xbddc32d0	-0.10751879
124	0x3dff2d1e	0.12459777
125	0xbc384862	-0.011247726
126	0xbaf69ce3	-0.0018815066
127	0x3dabd407	0.083900504

decoder.4.weight f4 [161, 128]
0	0x3d5df985	0.05419304
1	0x3f7a52a9	0.9778238
2	0xbd921d0c	-0.071344465
3	0x3dad51e1	0.08462883
4	0x3f31ced4	0.6945622
5	0x3e782e19	0.24236335
6	0x3d19c637	0.037542548
7	0xbd44050f	-0.047856387
8	0x3d9dddb0	0.07708299
9	0x3f50b489	0.81525475
10	0x3cd98fa4	0.026557751
11	0x3ec8c44a	0.39212257
12	0xbd8918d9	-0.066941924
13	0xbce583eb	-0.028017005
14	0xbccb177c	-0.024791472
15	0xbb001a8d	-0.0019547075
16	0xbd9b3e83	-0.075802825
17	0x3f6c23c0	0.9224205
18	0x3f44c0a2	0.76856434
19	0xbd393fcb	-0.045226853
20	0x3f5548f7	0.8331446
21	0xbd40280c	-0.04691319
22	0x3d88b635	0.06675378
23	0xbce0533c	-0.02738344
24	0x3f154125	0.5830253
25	0x3f46d56b	0.776694
26	0x3f60a88c	0.8775718
27	0x3f55edeb	0.8356616
28	0x3f0e5783	0.5560228
29	0x3cf61529	0.030039387
30	0x3f0270ec	0.50953555
31	0x3c71f7ca	0.01476855
32	0x3dae7780	0.085188866
33	0x3ebcdeb5	0.36888662
34	0x3b77ef7f	0.003783196
35	0x3f74f592	0.9568721
36	0x3f53dcdc	0.8275888
37	0xbdb406c1	-0.08790351
38	0x3f6cf1de	0.9255656
39	0x3d29c570	0.041448057
40	0x3f9db06f	1.2319468
41	0x3ca89fbe	0.020583984
42	0xbb77cdbb	-0.0037811834
43	0x3af87f37	0.0018958811
44	0x3f26a325	0.6509269
45	0x3f045308	0.51689196
46	0xbd7de158	-0.061982483
47	0x3d354b88	0.044261485
48	0x3f4f8203	0.8105776
49	0x3df98a4e	0.12184583
50	0x3f4e9718	0.806993
51	0x3a82b55a	0.000997226
52	0x3f438477	0.76374
53	0x403de4c7	2.9670885
54	0x3ee97979	0.4560049
55	0x3f4eec62	0.8082944
56	0x3e5973a1	0.21235515
57	0x3f8e610a	1.1123364
58	0x3f85e127	1.0459336
59	0x3f4e23d1	0.805234
60	0xbc116ead	-0.008876485
61	0x3f699c2c	0.91253924
62	0x3e863c88	0.26218057
63	0x3f25b3e6	0.6472763
64	0x3d853173	0.06503572
65	0xbd8cea03	-0.06880572
66	0x3e89f272	0.26942784
67	0xbd28c592	-0.041204043
68	0x3f2b78ac	0.66981006
69	0x3f56eca0	0.8395481
70	0x3f8b3671	1.0875989
71	0x3d756339	0.05990908
72	0x3d69e06c	0.05709879
73	0x3f2531d9	0.64529186
74	0x3f245473	0.6419136
75	0xbc8fb31e	-0.017541464
76	0x3b0d9185	0.002160163
77	0x3f3973f5	0.7244256
78	0x3a45962d	0.00075373315
79	0xbce382f8	-0.027772412
80	0x3f763afa	0.9618374
81	0x3db224ca	0.08698423
82	0xbc4bc60d	-0.012437356
83	0x3d730798	0.059333414
84	0xbd079a89	-0.03310636
85	0xbbb99610	-0.005663641
86	0x3f1de457	0.61676544
87	0x3d22b3f8	0.039722413
88	0x3f0f1cf4	0.55903554
89	0x3e859682	0.2609139
90	0x3d3d45aa	0.046209015
91	0x3db01b8e	0.08599006
92	0xbd280c7f	-0.041027542
93	0x3d8a1ae4	0.0674341
94	0x3cc289cb	0.023747345
95	0x3ec84dab	0.39121756
96	0x3ec29b31	0.38009027
97	0x3f396f9b	0.7243592
98	0x3f1ad09c	0.6047456
99	0x3f060d36	0.5236391
100	0x3f5a4982	0.85268414
101	0x3f6e97e4	0.93200517
102	0xbc8a952f	-0.01691684
103	0xbb6b9f7d	-0.0035953217
104	0xbd8f0aac	-0.069844574
105	0xbd84e973	-0.064898394
106	0x3e9d7b2d	0.30758038
107	0x3f151209	0.58230644
108	0x3f243295	0.6413968
109	0x3d8a9b6b	0.06767925
110	0x3d76bd2c	0.060239002
111	0x3f86cd52	1.0531409
112	0x3f74b3a2	0.955866
113	0x3f7da58f	0.9908075
114	0xbaf01722	-0.0018317441
115	0x3f59ef3e	0.8513068
116	0x3bdfd6f6	0.0068310453
117	0xbd2b6e7b	-0.04185341
118	0x3f3247b9	0.6964069
119	0xbcfb6afb	-0.03069066
120	0x3eaa5318	0.3326652
121	0xbcad1844	-0.021129735
122	0x3dafc438	0.08582348
123	0x3d7633b1	0.06010789
124	0x3f5174eb	0.8181903
125	0x3e726652	0.23671845
126	0x3ed2b30c	0.41152227
127	0x3f3a6c78	0.7282176
128	0x3cbdb49a	0.023157407
129	0xbe3bbcef	-0.18333791
130	0x3daddf80	0.08489895
131	0x3d97f326	0.07419424
132	0xbe74c5c3	-0.23903565
133	0x3d05f372	0.03270287
134	0xbce021b4	-0.02735982
135	0x3ceacc57	0.02866189
136	0x3c0ba230	0.008522555
137	0xbe789dd0	-0.2427895
138	0xbd77453d	-0.060368765
139	0x3e0e5bd1	0.13902213
140	0x3d02b66d	0.031912256
141	0xbd0a6b45	-0.033793706
142	0x3d761816	0.060081564
143	0x3da9e7e3	0.08296182
144	0xbd66d31d	-0.056353677
145	0xbe9060e2	-0.28198916
146	0xbe87c863	-0.2652007
147	0x3d5f58cc	0.054528043
148	0xbe9236a1	-0.28557304
149	0x3c0bcb07	0.008532292
150	0xbd3624ad	-0.04446857
151	0xbdad0421	-0.08448053
152	0xbe4c9fc7	-0.19982825
153	0xbe7d7b84	-0.24754149
154	0xbe8b2b2b	-0.27181372
155	0xbe67ee99	-0.22649612
156	0xbe295796	-0.16537318
157	0xbc0816cc	-0.008306216
158	0xbde4f4b2	-0.111794844
159	0x3b34f3cd	0.0027611137
160	0x3da39603	0.07987597
161	0xbe05502a	-0.13018861
162	0xbd203ade	-0.03911864
163	0xbe5b0c70	-0.21391463
164	0xbe2afcc7	-0.1669799
165	0x3ccb26e8	0.024798825
166	0xbe70987b	-0.23495667
167	0xbb5059eb	-0.0031791877
168	0x3d27cb44	0.040965334
169	0xbce8244d	-0.028337622
170	0x3c8e1127	0.017342163
171	0x3d1f8a66	0.038950346
172	0xbe4dfbf0	-0.20115638
173	0xbe0a9a7e	-0.13535497
174	0xbd1124d3	-0.03543551
175	0x3d48c176	0.049012624
176	0xbe898105	-0.26856247
177	0xbb90fc14	-0.0044245813
178	0xbe64831d	-0.22315641
179	0x3d406ae4	0.04697694
180	0xbe80dcd1	-0.2516847
181	0xbe0f6787	-0.14004336
182	0xbd8a86ac	-0.06763968
183	0xbe60af94	-0.21941978
184	0xbd92bea0	-0.07165265
185	0xbe9b95bf	-0.30387685
186	0xbe9dd030	-0.30822897
187	0xbe885d6d	-0.26633778
188	0x3d146b11	0.03623492
189	0xbe76d685	-0.2410527
190	0xbe613db8	-0.219962
191	0xbe5c66e0	-0.21523619
192	0xbd5d947b	-0.05409668
193	0x3c084988	0.0083183125
194	0xbe526d1b	-0.20549433
195	0xbcac65a6	-0.021044564
196	0xbe4d2220	-0.20032549
197	0xbe3d4609	-0.18483748
198	0x3c8e8a6e	0.017399993
199	0xbcee2b9b	-0.029073527
200	0x3db1e6a9	0.08686573
201	0xbe55e390	-0.2088759
202	0xbe843452	-0.25821167
203	0xbd9a358f	-0.07529747
204	0x3aca3e5c	0.0015429961
205	0xbe8dcf19	-0.27697065
206	0x3d48a1a4	0.048982278
207	0x3cf20036	0.029541116
208	0xbe996e42	-0.29966933
209	0x3d88e1aa	0.06683667
210	0x3d3639f7	0.044488873
211	0xbd53d714	-0.051718786
212	0xbd9c1c14	-0.07622543
213	0x3cfd7654	0.030940212
214	0xbe86e0be	-0.2634334
215	0xbcd5ab9d	-0.026082808
216	0x3e3d685a	0.18496838
217	0x3daa85e2	0.08326317
218	0x3abc0a10	0.001434626
219	0xbd05ac36	-0.032634936
220	0x3d43df10	0.04782015
221	0xbd699209	-0.057024036
222	0xbb219674	-0.0024656327
223	0xbdc1c0d4	-0.09460607
224	0xbe209ae3	-0.15684085
225	0xbe5101d7	-0.20410858
226	0xbe2f8eca	-0.17144313
227	0xbe39562b	-0.18099277
228	0xbe8641cb	-0.2622207
229	0xbe396d9b	-0.18108217
230	0x3d66e51f	0.05637085
231	0x3d9e9a3a	0.0774426
232	0x3da0e74d	0.07856617
233	0x3d5e18aa	0.05422274
234	0xbe950df5	-0.2911221
235	0xbe3c26a5	-0.18374117
236	0xbe188746	-0.14895353
237	0xbd6ad4cb	-0.05733184
238	0x3d0b1ce8	0.033963114
239	0xbe87658a	-0.26444656
240	0xbe9cc71d	-0.3062066
241	0xbe61d2cd	-0.2205307
242	0x3d861a7d	0.06548021
243	0xbe1b687f	-0.15176581
244	0xbd9c1b66	-0.07622413
245	0xbcd926cb	-0.026507756
246	0xbe81eec7	-0.25377485
247	0x3d93effe	0.07223509
248	0xbe7dd213	-0.24787168
249	0x3ce5d1f0	0.028054208
250	0x3d945c6f	0.07244193
251	0xbcf6557a	-0.030070055
252	0xbe523f1e	-0.2053189
253	0x3d83190f	0.06401264
254	0xbe199102	-0.14996722
255	0xbe4bf598	-0.19917905

decoder.4.bias f4 [161]
0	0x40112bd5	2.2683003
1	0xbeadd433	-0.33950958
2	0xbe9449dd	-0.28962603
3	0xbf27c418	-0.6553359
4	0xbebf54d5	-0.3736941
5	0xbf1999ee	-0.60000503
6	0xbee473ae	-0.44619507
7	0xbf7974ee	-0.97444046
8	0xbed031d5	-0.4066302
9	0xbfad03a0	-1.3516731
10	0xbeab7fb8	-0.3349588
11	0xbf2567db	-0.64611596
12	0xbecdd376	-0.40200394
13	0xbf7fde8e	-0.99948967
14	0xbe8efa10	-0.27925158
15	0xbf3a26db	-0.7271554
16	0xbea933bc	-0.33047283
17	0xbf35d835	-0.7103303
18	0xbe8ea66d	-0.27861348
19	0xbf40e4a2	-0.75348866
20	0xbe9a12b4	-0.30092394
21	0xbf08384b	-0.53210896
22	0xbef8bb2f	-0.4858031
23	0xbf03456a	-0.5127779
24	0xbef82537	-0.48465893
25	0xbf5c85be	-0.86141574
26	0xbef94a64	-0.48689568
27	0xbf277f13	-0.65428275
28	0xbece8cb7	-0.40341732
29	0xbef89f75	-0.48559156
30	0xbebcfb00	-0.36910248
31	0xbf63776f	-0.88854116
32	0xbed74b32	-0.42049557
33	0xbf1e4525	-0.61824256
34	0xbebe7dd2	-0.37205368
35	0xbf152c41	-0.5827065
36	0xbee7c913	-0.45270595
37	0xbf761e80	-0.9614029
38	0xbf0ba372	-0.5454627
39	0xbf5d363d	-0.86410886
40	0xbee11276	-0.43959397
41	0xbf1224b0	-0.5708723
42	0xbed8d663	-0.42351064
43	0xbf73b969	-0.9520479
44	0xbeecb5d8	-0.46232486
45	0xbf5fc0fe	-0.8740386
46	0xbeb52579	-0.35380152
47	0xbf3fc75e	-0.74913585
48	0xbe9cb93c	-0.30610073
49	0xbfb69bc4	-1.4266286
50	0xbecb22b9	-0.3967493
51	0xbfa45ba6	-1.2840469
52	0xbef66eca	-0.481314
53	0xbf518760	-0.8184719
54	0xbf14c222	-0.58108723
55	0xbfc6a9f3	-1.5520614
56	0xbf0d9772	-0.5530921
57	0xbfc6a036	-1.5517642
58	0xbf14558e	-0.57943046
59	0xbf84a388	-1.0362406
60	0xbf0fa8d6	-0.56117
61	0xbfde0392	-1.734484
62	0xbf02f794	-0.51159024
63	0xbfdae1a6	-1.7100112
64	0xbf101114	-0.5627606
65	0xbff8bd76	-1.9432819
66	0xbf0d52de	-0.5520457
67	0xbff85da5	-1.9403578
68	0xbf17fc53	-0.5936939
69	0xc0010175	-2.015714
70	0xbf9c2e97	-1.2201718
71	0xc0043fcc	-2.0663939
72	0xbf9164cf	-1.1358889
73	0xc004464e	-2.066791
74	0xbf9868e2	-1.1907008
75	0xc0028452	-2.0393262
76	0xbfb202eb	-1.390714
77	0xc00ac637	-2.168348
78	0xbfb95d6e	-1.4481637
79	0xc00a6982	-2.1626897
80	0xbfc98681	-1.5744172
81	0xc00925f5	-2.1429417
82	0xbfd2fdfd	-1.6483761
83	0xc00f1eca	-2.2362542
84	0xbfd6a133	-1.6767944
85	0xc00c5dc0	-2.193222
86	0xbfec3209	-1.845277
87	0xc00f5dfb	-2.240111
88	0xbff74429	-1.9317676
89	0xc00bdf15	-2.1854908
90	0xbffdb407	-1.9820565
91	0xc00d7ef4	-2.2108736
92	0xbffe14f2	-1.9850142
93	0xc00d34ac	-2.2063398
94	0xc0031aea	-2.0485177
95	0xc01192b5	-2.2745793
96	0xc0064f4e	-2.0985904
97	0xc013d893	-2.3100936
98	0xc00bbd57	-2.1834314
99	0xc01506a4	-2.3285303
100	0xc0078f5c	-2.118125
101	0xc01446af	-2.3168142
102	0xc00de756	-2.2172446
103	0xc011ed3c	-2.2801046
104	0xc00fc2b8	-2.2462597
105	0xc0134f46	-2.3017135
106	0xc0112dd9	-2.2684233
107	0xc0114b9b	-2.2702396
108	0xc00e9def	-2.2283895
109	0xc0126826	-2.2876067
110	0xc011dfea	-2.2792916
111	0xc0158e13	-2.3367965
112	0xc0120a61	-2.2818835
113	0xc016bd4b	-2.3553035
114	0xc00fd505	-2.2473767
115	0xc00e7f20	-2.226509
116	0xc0163686	-2.3470778
117	0xc015091d	-2.3286812
118	0xc011d7dc	-2.2788
119	0xc010a702	-2.2601933
120	0xc013f895	-2.3120472
121	0xc011980f	-2.274906
122	0xc00eebb4	-2.2331362
123	0xc0165e08	-2.3494892
124	0xc014e194	-2.3262682
125	0xc013b234	-2.3077517
126	0xc0142b7b	-2.3151538
127	0xc0110608	-2.265993
128	0xc011c80a	-2.2778344
129	0xc0168177	-2.351652
130	0xc010ace7	-2.2605531
131	0xc011000e	-2.2656283
132	0xc0157856	-2.3354697
133	0xc015df72	-2.341763
134	0xc013b3df	-2.3078535
135	0xc017bba4	-2.3708277
136	0xc00eed14	-2.23322
137	0xc0106edb	-2.256766
138	0xc0124f34	-2.2860842
139	0xc014907c	-2.3213186
140	0xc00fa4af	-2.2444265
141	0xc015b57f	-2.3392026
142	0xc0161839	-2.3452284
143	0xc0131e31	-2.2987177
144	0xc015aa81	-2.3385317
145	0xc01012d4	-2.2511492
146	0xc0162ffc	-2.3466787
147	0xc012c9cf	-2.2935674
148	0xc0141719	-2.3139098
149	0xc016bb56	-2.355184
150	0xc010586c	-2.2553968
151	0xc016b8c3	-2.355027
152	0xc014db25	-2.3258755
153	0xc00e4239	-2.222792
154	0xc012ee8c	-2.2958097
155	0xc012b9b0	-2.2925835
156	0xc00fae13	-2.2449996
157	0xc01899b0	-2.3843803
158	0xc011c5cb	-2.2776973
159	0xc00f309a	-2.2373414
160	0xc00f1776	-2.235807
